…
2022-05-05 23:51:58,053 - speechbrain.pretrained.fetching - INFO - Fetch asr.ckpt: Using existing file/symlink in model_checkpoints/asr_model.ckpt.
2022-05-05 23:51:58,053 - speechbrain.pretrained.fetching - INFO - Fetch normalizer.ckpt: Using existing file/symlink in model_checkpoints/normalize.ckpt.
2022-05-05 23:51:58,053 - speechbrain.utils.parameter_transfer - INFO - Loading pretrained files for: lm, tokenizer, asr_model, normalize
2022-05-05 23:51:58,634 - speechbrain.utils.checkpoints - WARNING - During parameter transfer to ModuleList(
  (0): FullyConnectedAutoencoder(
    (encoder): Sequential(
      (0): Linear(in_features=80, out_features=60, bias=True)
      (1): ReLU()
      (2): Linear(in_features=60, out_features=40, bias=True)
      (3): ReLU()
      (4): Linear(in_features=40, out_features=20, bias=True)
    )
    (decoder): Sequential(
      (0): Linear(in_features=20, out_features=40, bias=True)
      (1): ReLU()
      (2): Linear(in_features=40, out_features=60, bias=True)
      (3): ReLU()
      (4): Linear(in_features=60, out_features=80, bias=True)
    )
    (sex_classifier): FullyConnSexClassifier(
      (initial): Sequential(
        (0): Linear(in_features=20, out_features=40, bias=True)
        (1): ReLU()
        (2): Linear(in_features=40, out_features=40, bias=True)
        (3): ReLU()
      )
      (norm): BatchNorm1d(20, eps=1e-05, momentum=0.1, affine=True, track_running_stats=True)
      (classify): Sequential(
        (0): Linear(in_features=80, out_features=40, bias=True)
        (1): BatchNorm1d(40, eps=1e-05, momentum=0.1, affine=True, track_running_stats=True)
        (2): ReLU()
        (3): Linear(in_features=40, out_features=40, bias=True)
        (4): ReLU()
        (5): Linear(in_features=40, out_features=20, bias=True)
        (6): BatchNorm1d(20, eps=1e-05, momentum=0.1, affine=True, track_running_stats=True)
        (7): Linear(in_features=20, out_features=2, bias=True)
      )
      (stats_pooling): StatisticsPooling()
    )
  )
) loading from model_checkpoints/asr_model.ckpt, the transferred parameters did not have parameters for the key: 0.encoder.0.weight
2022-05-05 23:51:58,634 - speechbrain.utils.checkpoints - WARNING - During parameter transfer to ModuleList(
  (0): FullyConnectedAutoencoder(
    (encoder): Sequential(
      (0): Linear(in_features=80, out_features=60, bias=True)
      (1): ReLU()
      (2): Linear(in_features=60, out_features=40, bias=True)
      (3): ReLU()
      (4): Linear(in_features=40, out_features=20, bias=True)
    )
    (decoder): Sequential(
      (0): Linear(in_features=20, out_features=40, bias=True)
      (1): ReLU()
      (2): Linear(in_features=40, out_features=60, bias=True)
      (3): ReLU()
      (4): Linear(in_features=60, out_features=80, bias=True)
    )
    (sex_classifier): FullyConnSexClassifier(
      (initial): Sequential(
        (0): Linear(in_features=20, out_features=40, bias=True)
        (1): ReLU()
        (2): Linear(in_features=40, out_features=40, bias=True)
        (3): ReLU()
      )
      (norm): BatchNorm1d(20, eps=1e-05, momentum=0.1, affine=True, track_running_stats=True)
      (classify): Sequential(
        (0): Linear(in_features=80, out_features=40, bias=True)
        (1): BatchNorm1d(40, eps=1e-05, momentum=0.1, affine=True, track_running_stats=True)
        (2): ReLU()
        (3): Linear(in_features=40, out_features=40, bias=True)
        (4): ReLU()
        (5): Linear(in_features=40, out_features=20, bias=True)
        (6): BatchNorm1d(20, eps=1e-05, momentum=0.1, affine=True, track_running_stats=True)
        (7): Linear(in_features=20, out_features=2, bias=True)
      )
      (stats_pooling): StatisticsPooling()
    )
  )
) loading from model_checkpoints/asr_model.ckpt, the transferred parameters did not have parameters for the key: 0.encoder.0.bias
2022-05-05 23:51:58,635 - speechbrain.utils.checkpoints - WARNING - During parameter transfer to ModuleList(
  (0): FullyConnectedAutoencoder(
    (encoder): Sequential(
      (0): Linear(in_features=80, out_features=60, bias=True)
      (1): ReLU()
      (2): Linear(in_features=60, out_features=40, bias=True)
      (3): ReLU()
      (4): Linear(in_features=40, out_features=20, bias=True)
    )
    (decoder): Sequential(
      (0): Linear(in_features=20, out_features=40, bias=True)
      (1): ReLU()
      (2): Linear(in_features=40, out_features=60, bias=True)
      (3): ReLU()
      (4): Linear(in_features=60, out_features=80, bias=True)
    )
    (sex_classifier): FullyConnSexClassifier(
      (initial): Sequential(
        (0): Linear(in_features=20, out_features=40, bias=True)
        (1): ReLU()
        (2): Linear(in_features=40, out_features=40, bias=True)
        (3): ReLU()
      )
      (norm): BatchNorm1d(20, eps=1e-05, momentum=0.1, affine=True, track_running_stats=True)
      (classify): Sequential(
        (0): Linear(in_features=80, out_features=40, bias=True)
        (1): BatchNorm1d(40, eps=1e-05, momentum=0.1, affine=True, track_running_stats=True)
        (2): ReLU()
        (3): Linear(in_features=40, out_features=40, bias=True)
        (4): ReLU()
        (5): Linear(in_features=40, out_features=20, bias=True)
        (6): BatchNorm1d(20, eps=1e-05, momentum=0.1, affine=True, track_running_stats=True)
        (7): Linear(in_features=20, out_features=2, bias=True)
      )
      (stats_pooling): StatisticsPooling()
    )
  )
) loading from model_checkpoints/asr_model.ckpt, the transferred parameters did not have parameters for the key: 0.encoder.2.weight
2022-05-05 23:51:58,635 - speechbrain.utils.checkpoints - WARNING - During parameter transfer to ModuleList(
  (0): FullyConnectedAutoencoder(
    (encoder): Sequential(
      (0): Linear(in_features=80, out_features=60, bias=True)
      (1): ReLU()
      (2): Linear(in_features=60, out_features=40, bias=True)
      (3): ReLU()
      (4): Linear(in_features=40, out_features=20, bias=True)
    )
    (decoder): Sequential(
      (0): Linear(in_features=20, out_features=40, bias=True)
      (1): ReLU()
      (2): Linear(in_features=40, out_features=60, bias=True)
      (3): ReLU()
      (4): Linear(in_features=60, out_features=80, bias=True)
    )
    (sex_classifier): FullyConnSexClassifier(
      (initial): Sequential(
        (0): Linear(in_features=20, out_features=40, bias=True)
        (1): ReLU()
        (2): Linear(in_features=40, out_features=40, bias=True)
        (3): ReLU()
      )
      (norm): BatchNorm1d(20, eps=1e-05, momentum=0.1, affine=True, track_running_stats=True)
      (classify): Sequential(
        (0): Linear(in_features=80, out_features=40, bias=True)
        (1): BatchNorm1d(40, eps=1e-05, momentum=0.1, affine=True, track_running_stats=True)
        (2): ReLU()
        (3): Linear(in_features=40, out_features=40, bias=True)
        (4): ReLU()
        (5): Linear(in_features=40, out_features=20, bias=True)
        (6): BatchNorm1d(20, eps=1e-05, momentum=0.1, affine=True, track_running_stats=True)
        (7): Linear(in_features=20, out_features=2, bias=True)
      )
      (stats_pooling): StatisticsPooling()
    )
  )
) loading from model_checkpoints/asr_model.ckpt, the transferred parameters did not have parameters for the key: 0.encoder.2.bias
2022-05-05 23:51:58,636 - speechbrain.utils.checkpoints - WARNING - During parameter transfer to ModuleList(
  (0): FullyConnectedAutoencoder(
    (encoder): Sequential(
      (0): Linear(in_features=80, out_features=60, bias=True)
      (1): ReLU()
      (2): Linear(in_features=60, out_features=40, bias=True)
      (3): ReLU()
      (4): Linear(in_features=40, out_features=20, bias=True)
    )
    (decoder): Sequential(
      (0): Linear(in_features=20, out_features=40, bias=True)
      (1): ReLU()
      (2): Linear(in_features=40, out_features=60, bias=True)
      (3): ReLU()
      (4): Linear(in_features=60, out_features=80, bias=True)
    )
    (sex_classifier): FullyConnSexClassifier(
      (initial): Sequential(
        (0): Linear(in_features=20, out_features=40, bias=True)
        (1): ReLU()
        (2): Linear(in_features=40, out_features=40, bias=True)
        (3): ReLU()
      )
      (norm): BatchNorm1d(20, eps=1e-05, momentum=0.1, affine=True, track_running_stats=True)
      (classify): Sequential(
        (0): Linear(in_features=80, out_features=40, bias=True)
        (1): BatchNorm1d(40, eps=1e-05, momentum=0.1, affine=True, track_running_stats=True)
        (2): ReLU()
        (3): Linear(in_features=40, out_features=40, bias=True)
        (4): ReLU()
        (5): Linear(in_features=40, out_features=20, bias=True)
        (6): BatchNorm1d(20, eps=1e-05, momentum=0.1, affine=True, track_running_stats=True)
        (7): Linear(in_features=20, out_features=2, bias=True)
      )
      (stats_pooling): StatisticsPooling()
    )
  )
) loading from model_checkpoints/asr_model.ckpt, the transferred parameters did not have parameters for the key: 0.encoder.4.weight
2022-05-05 23:51:58,636 - speechbrain.utils.checkpoints - WARNING - During parameter transfer to ModuleList(
  (0): FullyConnectedAutoencoder(
    (encoder): Sequential(
      (0): Linear(in_features=80, out_features=60, bias=True)
      (1): ReLU()
      (2): Linear(in_features=60, out_features=40, bias=True)
      (3): ReLU()
      (4): Linear(in_features=40, out_features=20, bias=True)
    )
    (decoder): Sequential(
      (0): Linear(in_features=20, out_features=40, bias=True)
      (1): ReLU()
      (2): Linear(in_features=40, out_features=60, bias=True)
      (3): ReLU()
      (4): Linear(in_features=60, out_features=80, bias=True)
    )
    (sex_classifier): FullyConnSexClassifier(
      (initial): Sequential(
        (0): Linear(in_features=20, out_features=40, bias=True)
        (1): ReLU()
        (2): Linear(in_features=40, out_features=40, bias=True)
        (3): ReLU()
      )
      (norm): BatchNorm1d(20, eps=1e-05, momentum=0.1, affine=True, track_running_stats=True)
      (classify): Sequential(
        (0): Linear(in_features=80, out_features=40, bias=True)
        (1): BatchNorm1d(40, eps=1e-05, momentum=0.1, affine=True, track_running_stats=True)
        (2): ReLU()
        (3): Linear(in_features=40, out_features=40, bias=True)
        (4): ReLU()
        (5): Linear(in_features=40, out_features=20, bias=True)
        (6): BatchNorm1d(20, eps=1e-05, momentum=0.1, affine=True, track_running_stats=True)
        (7): Linear(in_features=20, out_features=2, bias=True)
      )
      (stats_pooling): StatisticsPooling()
    )
  )
) loading from model_checkpoints/asr_model.ckpt, the transferred parameters did not have parameters for the key: 0.encoder.4.bias
2022-05-05 23:51:58,636 - speechbrain.utils.checkpoints - WARNING - During parameter transfer to ModuleList(
  (0): FullyConnectedAutoencoder(
    (encoder): Sequential(
      (0): Linear(in_features=80, out_features=60, bias=True)
      (1): ReLU()
      (2): Linear(in_features=60, out_features=40, bias=True)
      (3): ReLU()
      (4): Linear(in_features=40, out_features=20, bias=True)
    )
    (decoder): Sequential(
      (0): Linear(in_features=20, out_features=40, bias=True)
      (1): ReLU()
      (2): Linear(in_features=40, out_features=60, bias=True)
      (3): ReLU()
      (4): Linear(in_features=60, out_features=80, bias=True)
    )
    (sex_classifier): FullyConnSexClassifier(
      (initial): Sequential(
        (0): Linear(in_features=20, out_features=40, bias=True)
        (1): ReLU()
        (2): Linear(in_features=40, out_features=40, bias=True)
        (3): ReLU()
      )
      (norm): BatchNorm1d(20, eps=1e-05, momentum=0.1, affine=True, track_running_stats=True)
      (classify): Sequential(
        (0): Linear(in_features=80, out_features=40, bias=True)
        (1): BatchNorm1d(40, eps=1e-05, momentum=0.1, affine=True, track_running_stats=True)
        (2): ReLU()
        (3): Linear(in_features=40, out_features=40, bias=True)
        (4): ReLU()
        (5): Linear(in_features=40, out_features=20, bias=True)
        (6): BatchNorm1d(20, eps=1e-05, momentum=0.1, affine=True, track_running_stats=True)
        (7): Linear(in_features=20, out_features=2, bias=True)
      )
      (stats_pooling): StatisticsPooling()
    )
  )
) loading from model_checkpoints/asr_model.ckpt, the transferred parameters did not have parameters for the key: 0.decoder.0.weight
2022-05-05 23:51:58,637 - speechbrain.utils.checkpoints - WARNING - During parameter transfer to ModuleList(
  (0): FullyConnectedAutoencoder(
    (encoder): Sequential(
      (0): Linear(in_features=80, out_features=60, bias=True)
      (1): ReLU()
      (2): Linear(in_features=60, out_features=40, bias=True)
      (3): ReLU()
      (4): Linear(in_features=40, out_features=20, bias=True)
    )
    (decoder): Sequential(
      (0): Linear(in_features=20, out_features=40, bias=True)
      (1): ReLU()
      (2): Linear(in_features=40, out_features=60, bias=True)
      (3): ReLU()
      (4): Linear(in_features=60, out_features=80, bias=True)
    )
    (sex_classifier): FullyConnSexClassifier(
      (initial): Sequential(
        (0): Linear(in_features=20, out_features=40, bias=True)
        (1): ReLU()
        (2): Linear(in_features=40, out_features=40, bias=True)
        (3): ReLU()
      )
      (norm): BatchNorm1d(20, eps=1e-05, momentum=0.1, affine=True, track_running_stats=True)
      (classify): Sequential(
        (0): Linear(in_features=80, out_features=40, bias=True)
        (1): BatchNorm1d(40, eps=1e-05, momentum=0.1, affine=True, track_running_stats=True)
        (2): ReLU()
        (3): Linear(in_features=40, out_features=40, bias=True)
        (4): ReLU()
        (5): Linear(in_features=40, out_features=20, bias=True)
        (6): BatchNorm1d(20, eps=1e-05, momentum=0.1, affine=True, track_running_stats=True)
        (7): Linear(in_features=20, out_features=2, bias=True)
      )
      (stats_pooling): StatisticsPooling()
    )
  )
) loading from model_checkpoints/asr_model.ckpt, the transferred parameters did not have parameters for the key: 0.decoder.0.bias
2022-05-05 23:51:58,637 - speechbrain.utils.checkpoints - WARNING - During parameter transfer to ModuleList(
  (0): FullyConnectedAutoencoder(
    (encoder): Sequential(
      (0): Linear(in_features=80, out_features=60, bias=True)
      (1): ReLU()
      (2): Linear(in_features=60, out_features=40, bias=True)
      (3): ReLU()
      (4): Linear(in_features=40, out_features=20, bias=True)
    )
    (decoder): Sequential(
      (0): Linear(in_features=20, out_features=40, bias=True)
      (1): ReLU()
      (2): Linear(in_features=40, out_features=60, bias=True)
      (3): ReLU()
      (4): Linear(in_features=60, out_features=80, bias=True)
    )
    (sex_classifier): FullyConnSexClassifier(
      (initial): Sequential(
        (0): Linear(in_features=20, out_features=40, bias=True)
        (1): ReLU()
        (2): Linear(in_features=40, out_features=40, bias=True)
        (3): ReLU()
      )
      (norm): BatchNorm1d(20, eps=1e-05, momentum=0.1, affine=True, track_running_stats=True)
      (classify): Sequential(
        (0): Linear(in_features=80, out_features=40, bias=True)
        (1): BatchNorm1d(40, eps=1e-05, momentum=0.1, affine=True, track_running_stats=True)
        (2): ReLU()
        (3): Linear(in_features=40, out_features=40, bias=True)
        (4): ReLU()
        (5): Linear(in_features=40, out_features=20, bias=True)
        (6): BatchNorm1d(20, eps=1e-05, momentum=0.1, affine=True, track_running_stats=True)
        (7): Linear(in_features=20, out_features=2, bias=True)
      )
      (stats_pooling): StatisticsPooling()
    )
  )
) loading from model_checkpoints/asr_model.ckpt, the transferred parameters did not have parameters for the key: 0.decoder.2.weight
2022-05-05 23:51:58,637 - speechbrain.utils.checkpoints - WARNING - During parameter transfer to ModuleList(
  (0): FullyConnectedAutoencoder(
    (encoder): Sequential(
      (0): Linear(in_features=80, out_features=60, bias=True)
      (1): ReLU()
      (2): Linear(in_features=60, out_features=40, bias=True)
      (3): ReLU()
      (4): Linear(in_features=40, out_features=20, bias=True)
    )
    (decoder): Sequential(
      (0): Linear(in_features=20, out_features=40, bias=True)
      (1): ReLU()
      (2): Linear(in_features=40, out_features=60, bias=True)
      (3): ReLU()
      (4): Linear(in_features=60, out_features=80, bias=True)
    )
    (sex_classifier): FullyConnSexClassifier(
      (initial): Sequential(
        (0): Linear(in_features=20, out_features=40, bias=True)
        (1): ReLU()
        (2): Linear(in_features=40, out_features=40, bias=True)
        (3): ReLU()
      )
      (norm): BatchNorm1d(20, eps=1e-05, momentum=0.1, affine=True, track_running_stats=True)
      (classify): Sequential(
        (0): Linear(in_features=80, out_features=40, bias=True)
        (1): BatchNorm1d(40, eps=1e-05, momentum=0.1, affine=True, track_running_stats=True)
        (2): ReLU()
        (3): Linear(in_features=40, out_features=40, bias=True)
        (4): ReLU()
        (5): Linear(in_features=40, out_features=20, bias=True)
        (6): BatchNorm1d(20, eps=1e-05, momentum=0.1, affine=True, track_running_stats=True)
        (7): Linear(in_features=20, out_features=2, bias=True)
      )
      (stats_pooling): StatisticsPooling()
    )
  )
) loading from model_checkpoints/asr_model.ckpt, the transferred parameters did not have parameters for the key: 0.decoder.2.bias
2022-05-05 23:51:58,638 - speechbrain.utils.checkpoints - WARNING - During parameter transfer to ModuleList(
  (0): FullyConnectedAutoencoder(
    (encoder): Sequential(
      (0): Linear(in_features=80, out_features=60, bias=True)
      (1): ReLU()
      (2): Linear(in_features=60, out_features=40, bias=True)
      (3): ReLU()
      (4): Linear(in_features=40, out_features=20, bias=True)
    )
    (decoder): Sequential(
      (0): Linear(in_features=20, out_features=40, bias=True)
      (1): ReLU()
      (2): Linear(in_features=40, out_features=60, bias=True)
      (3): ReLU()
      (4): Linear(in_features=60, out_features=80, bias=True)
    )
    (sex_classifier): FullyConnSexClassifier(
      (initial): Sequential(
        (0): Linear(in_features=20, out_features=40, bias=True)
        (1): ReLU()
        (2): Linear(in_features=40, out_features=40, bias=True)
        (3): ReLU()
      )
      (norm): BatchNorm1d(20, eps=1e-05, momentum=0.1, affine=True, track_running_stats=True)
      (classify): Sequential(
        (0): Linear(in_features=80, out_features=40, bias=True)
        (1): BatchNorm1d(40, eps=1e-05, momentum=0.1, affine=True, track_running_stats=True)
        (2): ReLU()
        (3): Linear(in_features=40, out_features=40, bias=True)
        (4): ReLU()
        (5): Linear(in_features=40, out_features=20, bias=True)
        (6): BatchNorm1d(20, eps=1e-05, momentum=0.1, affine=True, track_running_stats=True)
        (7): Linear(in_features=20, out_features=2, bias=True)
      )
      (stats_pooling): StatisticsPooling()
    )
  )
) loading from model_checkpoints/asr_model.ckpt, the transferred parameters did not have parameters for the key: 0.decoder.4.weight
2022-05-05 23:51:58,638 - speechbrain.utils.checkpoints - WARNING - During parameter transfer to ModuleList(
  (0): FullyConnectedAutoencoder(
    (encoder): Sequential(
      (0): Linear(in_features=80, out_features=60, bias=True)
      (1): ReLU()
      (2): Linear(in_features=60, out_features=40, bias=True)
      (3): ReLU()
      (4): Linear(in_features=40, out_features=20, bias=True)
    )
    (decoder): Sequential(
      (0): Linear(in_features=20, out_features=40, bias=True)
      (1): ReLU()
      (2): Linear(in_features=40, out_features=60, bias=True)
      (3): ReLU()
      (4): Linear(in_features=60, out_features=80, bias=True)
    )
    (sex_classifier): FullyConnSexClassifier(
      (initial): Sequential(
        (0): Linear(in_features=20, out_features=40, bias=True)
        (1): ReLU()
        (2): Linear(in_features=40, out_features=40, bias=True)
        (3): ReLU()
      )
      (norm): BatchNorm1d(20, eps=1e-05, momentum=0.1, affine=True, track_running_stats=True)
      (classify): Sequential(
        (0): Linear(in_features=80, out_features=40, bias=True)
        (1): BatchNorm1d(40, eps=1e-05, momentum=0.1, affine=True, track_running_stats=True)
        (2): ReLU()
        (3): Linear(in_features=40, out_features=40, bias=True)
        (4): ReLU()
        (5): Linear(in_features=40, out_features=20, bias=True)
        (6): BatchNorm1d(20, eps=1e-05, momentum=0.1, affine=True, track_running_stats=True)
        (7): Linear(in_features=20, out_features=2, bias=True)
      )
      (stats_pooling): StatisticsPooling()
    )
  )
) loading from model_checkpoints/asr_model.ckpt, the transferred parameters did not have parameters for the key: 0.decoder.4.bias
2022-05-05 23:51:58,639 - speechbrain.utils.checkpoints - WARNING - During parameter transfer to ModuleList(
  (0): FullyConnectedAutoencoder(
    (encoder): Sequential(
      (0): Linear(in_features=80, out_features=60, bias=True)
      (1): ReLU()
      (2): Linear(in_features=60, out_features=40, bias=True)
      (3): ReLU()
      (4): Linear(in_features=40, out_features=20, bias=True)
    )
    (decoder): Sequential(
      (0): Linear(in_features=20, out_features=40, bias=True)
      (1): ReLU()
      (2): Linear(in_features=40, out_features=60, bias=True)
      (3): ReLU()
      (4): Linear(in_features=60, out_features=80, bias=True)
    )
    (sex_classifier): FullyConnSexClassifier(
      (initial): Sequential(
        (0): Linear(in_features=20, out_features=40, bias=True)
        (1): ReLU()
        (2): Linear(in_features=40, out_features=40, bias=True)
        (3): ReLU()
      )
      (norm): BatchNorm1d(20, eps=1e-05, momentum=0.1, affine=True, track_running_stats=True)
      (classify): Sequential(
        (0): Linear(in_features=80, out_features=40, bias=True)
        (1): BatchNorm1d(40, eps=1e-05, momentum=0.1, affine=True, track_running_stats=True)
        (2): ReLU()
        (3): Linear(in_features=40, out_features=40, bias=True)
        (4): ReLU()
        (5): Linear(in_features=40, out_features=20, bias=True)
        (6): BatchNorm1d(20, eps=1e-05, momentum=0.1, affine=True, track_running_stats=True)
        (7): Linear(in_features=20, out_features=2, bias=True)
      )
      (stats_pooling): StatisticsPooling()
    )
  )
) loading from model_checkpoints/asr_model.ckpt, the transferred parameters did not have parameters for the key: 0.sex_classifier.initial.0.weight
2022-05-05 23:51:58,639 - speechbrain.utils.checkpoints - WARNING - During parameter transfer to ModuleList(
  (0): FullyConnectedAutoencoder(
    (encoder): Sequential(
      (0): Linear(in_features=80, out_features=60, bias=True)
      (1): ReLU()
      (2): Linear(in_features=60, out_features=40, bias=True)
      (3): ReLU()
      (4): Linear(in_features=40, out_features=20, bias=True)
    )
    (decoder): Sequential(
      (0): Linear(in_features=20, out_features=40, bias=True)
      (1): ReLU()
      (2): Linear(in_features=40, out_features=60, bias=True)
      (3): ReLU()
      (4): Linear(in_features=60, out_features=80, bias=True)
    )
    (sex_classifier): FullyConnSexClassifier(
      (initial): Sequential(
        (0): Linear(in_features=20, out_features=40, bias=True)
        (1): ReLU()
        (2): Linear(in_features=40, out_features=40, bias=True)
        (3): ReLU()
      )
      (norm): BatchNorm1d(20, eps=1e-05, momentum=0.1, affine=True, track_running_stats=True)
      (classify): Sequential(
        (0): Linear(in_features=80, out_features=40, bias=True)
        (1): BatchNorm1d(40, eps=1e-05, momentum=0.1, affine=True, track_running_stats=True)
        (2): ReLU()
        (3): Linear(in_features=40, out_features=40, bias=True)
        (4): ReLU()
        (5): Linear(in_features=40, out_features=20, bias=True)
        (6): BatchNorm1d(20, eps=1e-05, momentum=0.1, affine=True, track_running_stats=True)
        (7): Linear(in_features=20, out_features=2, bias=True)
      )
      (stats_pooling): StatisticsPooling()
    )
  )
) loading from model_checkpoints/asr_model.ckpt, the transferred parameters did not have parameters for the key: 0.sex_classifier.initial.0.bias
2022-05-05 23:51:58,639 - speechbrain.utils.checkpoints - WARNING - During parameter transfer to ModuleList(
  (0): FullyConnectedAutoencoder(
    (encoder): Sequential(
      (0): Linear(in_features=80, out_features=60, bias=True)
      (1): ReLU()
      (2): Linear(in_features=60, out_features=40, bias=True)
      (3): ReLU()
      (4): Linear(in_features=40, out_features=20, bias=True)
    )
    (decoder): Sequential(
      (0): Linear(in_features=20, out_features=40, bias=True)
      (1): ReLU()
      (2): Linear(in_features=40, out_features=60, bias=True)
      (3): ReLU()
      (4): Linear(in_features=60, out_features=80, bias=True)
    )
    (sex_classifier): FullyConnSexClassifier(
      (initial): Sequential(
        (0): Linear(in_features=20, out_features=40, bias=True)
        (1): ReLU()
        (2): Linear(in_features=40, out_features=40, bias=True)
        (3): ReLU()
      )
      (norm): BatchNorm1d(20, eps=1e-05, momentum=0.1, affine=True, track_running_stats=True)
      (classify): Sequential(
        (0): Linear(in_features=80, out_features=40, bias=True)
        (1): BatchNorm1d(40, eps=1e-05, momentum=0.1, affine=True, track_running_stats=True)
        (2): ReLU()
        (3): Linear(in_features=40, out_features=40, bias=True)
        (4): ReLU()
        (5): Linear(in_features=40, out_features=20, bias=True)
        (6): BatchNorm1d(20, eps=1e-05, momentum=0.1, affine=True, track_running_stats=True)
        (7): Linear(in_features=20, out_features=2, bias=True)
      )
      (stats_pooling): StatisticsPooling()
    )
  )
) loading from model_checkpoints/asr_model.ckpt, the transferred parameters did not have parameters for the key: 0.sex_classifier.initial.2.weight
2022-05-05 23:51:58,640 - speechbrain.utils.checkpoints - WARNING - During parameter transfer to ModuleList(
  (0): FullyConnectedAutoencoder(
    (encoder): Sequential(
      (0): Linear(in_features=80, out_features=60, bias=True)
      (1): ReLU()
      (2): Linear(in_features=60, out_features=40, bias=True)
      (3): ReLU()
      (4): Linear(in_features=40, out_features=20, bias=True)
    )
    (decoder): Sequential(
      (0): Linear(in_features=20, out_features=40, bias=True)
      (1): ReLU()
      (2): Linear(in_features=40, out_features=60, bias=True)
      (3): ReLU()
      (4): Linear(in_features=60, out_features=80, bias=True)
    )
    (sex_classifier): FullyConnSexClassifier(
      (initial): Sequential(
        (0): Linear(in_features=20, out_features=40, bias=True)
        (1): ReLU()
        (2): Linear(in_features=40, out_features=40, bias=True)
        (3): ReLU()
      )
      (norm): BatchNorm1d(20, eps=1e-05, momentum=0.1, affine=True, track_running_stats=True)
      (classify): Sequential(
        (0): Linear(in_features=80, out_features=40, bias=True)
        (1): BatchNorm1d(40, eps=1e-05, momentum=0.1, affine=True, track_running_stats=True)
        (2): ReLU()
        (3): Linear(in_features=40, out_features=40, bias=True)
        (4): ReLU()
        (5): Linear(in_features=40, out_features=20, bias=True)
        (6): BatchNorm1d(20, eps=1e-05, momentum=0.1, affine=True, track_running_stats=True)
        (7): Linear(in_features=20, out_features=2, bias=True)
      )
      (stats_pooling): StatisticsPooling()
    )
  )
) loading from model_checkpoints/asr_model.ckpt, the transferred parameters did not have parameters for the key: 0.sex_classifier.initial.2.bias
2022-05-05 23:51:58,640 - speechbrain.utils.checkpoints - WARNING - During parameter transfer to ModuleList(
  (0): FullyConnectedAutoencoder(
    (encoder): Sequential(
      (0): Linear(in_features=80, out_features=60, bias=True)
      (1): ReLU()
      (2): Linear(in_features=60, out_features=40, bias=True)
      (3): ReLU()
      (4): Linear(in_features=40, out_features=20, bias=True)
    )
    (decoder): Sequential(
      (0): Linear(in_features=20, out_features=40, bias=True)
      (1): ReLU()
      (2): Linear(in_features=40, out_features=60, bias=True)
      (3): ReLU()
      (4): Linear(in_features=60, out_features=80, bias=True)
    )
    (sex_classifier): FullyConnSexClassifier(
      (initial): Sequential(
        (0): Linear(in_features=20, out_features=40, bias=True)
        (1): ReLU()
        (2): Linear(in_features=40, out_features=40, bias=True)
        (3): ReLU()
      )
      (norm): BatchNorm1d(20, eps=1e-05, momentum=0.1, affine=True, track_running_stats=True)
      (classify): Sequential(
        (0): Linear(in_features=80, out_features=40, bias=True)
        (1): BatchNorm1d(40, eps=1e-05, momentum=0.1, affine=True, track_running_stats=True)
        (2): ReLU()
        (3): Linear(in_features=40, out_features=40, bias=True)
        (4): ReLU()
        (5): Linear(in_features=40, out_features=20, bias=True)
        (6): BatchNorm1d(20, eps=1e-05, momentum=0.1, affine=True, track_running_stats=True)
        (7): Linear(in_features=20, out_features=2, bias=True)
      )
      (stats_pooling): StatisticsPooling()
    )
  )
) loading from model_checkpoints/asr_model.ckpt, the transferred parameters did not have parameters for the key: 0.sex_classifier.norm.weight
2022-05-05 23:51:58,640 - speechbrain.utils.checkpoints - WARNING - During parameter transfer to ModuleList(
  (0): FullyConnectedAutoencoder(
    (encoder): Sequential(
      (0): Linear(in_features=80, out_features=60, bias=True)
      (1): ReLU()
      (2): Linear(in_features=60, out_features=40, bias=True)
      (3): ReLU()
      (4): Linear(in_features=40, out_features=20, bias=True)
    )
    (decoder): Sequential(
      (0): Linear(in_features=20, out_features=40, bias=True)
      (1): ReLU()
      (2): Linear(in_features=40, out_features=60, bias=True)
      (3): ReLU()
      (4): Linear(in_features=60, out_features=80, bias=True)
    )
    (sex_classifier): FullyConnSexClassifier(
      (initial): Sequential(
        (0): Linear(in_features=20, out_features=40, bias=True)
        (1): ReLU()
        (2): Linear(in_features=40, out_features=40, bias=True)
        (3): ReLU()
      )
      (norm): BatchNorm1d(20, eps=1e-05, momentum=0.1, affine=True, track_running_stats=True)
      (classify): Sequential(
        (0): Linear(in_features=80, out_features=40, bias=True)
        (1): BatchNorm1d(40, eps=1e-05, momentum=0.1, affine=True, track_running_stats=True)
        (2): ReLU()
        (3): Linear(in_features=40, out_features=40, bias=True)
        (4): ReLU()
        (5): Linear(in_features=40, out_features=20, bias=True)
        (6): BatchNorm1d(20, eps=1e-05, momentum=0.1, affine=True, track_running_stats=True)
        (7): Linear(in_features=20, out_features=2, bias=True)
      )
      (stats_pooling): StatisticsPooling()
    )
  )
) loading from model_checkpoints/asr_model.ckpt, the transferred parameters did not have parameters for the key: 0.sex_classifier.norm.bias
2022-05-05 23:51:58,641 - speechbrain.utils.checkpoints - WARNING - During parameter transfer to ModuleList(
  (0): FullyConnectedAutoencoder(
    (encoder): Sequential(
      (0): Linear(in_features=80, out_features=60, bias=True)
      (1): ReLU()
      (2): Linear(in_features=60, out_features=40, bias=True)
      (3): ReLU()
      (4): Linear(in_features=40, out_features=20, bias=True)
    )
    (decoder): Sequential(
      (0): Linear(in_features=20, out_features=40, bias=True)
      (1): ReLU()
      (2): Linear(in_features=40, out_features=60, bias=True)
      (3): ReLU()
      (4): Linear(in_features=60, out_features=80, bias=True)
    )
    (sex_classifier): FullyConnSexClassifier(
      (initial): Sequential(
        (0): Linear(in_features=20, out_features=40, bias=True)
        (1): ReLU()
        (2): Linear(in_features=40, out_features=40, bias=True)
        (3): ReLU()
      )
      (norm): BatchNorm1d(20, eps=1e-05, momentum=0.1, affine=True, track_running_stats=True)
      (classify): Sequential(
        (0): Linear(in_features=80, out_features=40, bias=True)
        (1): BatchNorm1d(40, eps=1e-05, momentum=0.1, affine=True, track_running_stats=True)
        (2): ReLU()
        (3): Linear(in_features=40, out_features=40, bias=True)
        (4): ReLU()
        (5): Linear(in_features=40, out_features=20, bias=True)
        (6): BatchNorm1d(20, eps=1e-05, momentum=0.1, affine=True, track_running_stats=True)
        (7): Linear(in_features=20, out_features=2, bias=True)
      )
      (stats_pooling): StatisticsPooling()
    )
  )
) loading from model_checkpoints/asr_model.ckpt, the transferred parameters did not have parameters for the key: 0.sex_classifier.norm.running_mean
2022-05-05 23:51:58,641 - speechbrain.utils.checkpoints - WARNING - During parameter transfer to ModuleList(
  (0): FullyConnectedAutoencoder(
    (encoder): Sequential(
      (0): Linear(in_features=80, out_features=60, bias=True)
      (1): ReLU()
      (2): Linear(in_features=60, out_features=40, bias=True)
      (3): ReLU()
      (4): Linear(in_features=40, out_features=20, bias=True)
    )
    (decoder): Sequential(
      (0): Linear(in_features=20, out_features=40, bias=True)
      (1): ReLU()
      (2): Linear(in_features=40, out_features=60, bias=True)
      (3): ReLU()
      (4): Linear(in_features=60, out_features=80, bias=True)
    )
    (sex_classifier): FullyConnSexClassifier(
      (initial): Sequential(
        (0): Linear(in_features=20, out_features=40, bias=True)
        (1): ReLU()
        (2): Linear(in_features=40, out_features=40, bias=True)
        (3): ReLU()
      )
      (norm): BatchNorm1d(20, eps=1e-05, momentum=0.1, affine=True, track_running_stats=True)
      (classify): Sequential(
        (0): Linear(in_features=80, out_features=40, bias=True)
        (1): BatchNorm1d(40, eps=1e-05, momentum=0.1, affine=True, track_running_stats=True)
        (2): ReLU()
        (3): Linear(in_features=40, out_features=40, bias=True)
        (4): ReLU()
        (5): Linear(in_features=40, out_features=20, bias=True)
        (6): BatchNorm1d(20, eps=1e-05, momentum=0.1, affine=True, track_running_stats=True)
        (7): Linear(in_features=20, out_features=2, bias=True)
      )
      (stats_pooling): StatisticsPooling()
    )
  )
) loading from model_checkpoints/asr_model.ckpt, the transferred parameters did not have parameters for the key: 0.sex_classifier.norm.running_var
2022-05-05 23:51:58,641 - speechbrain.utils.checkpoints - WARNING - During parameter transfer to ModuleList(
  (0): FullyConnectedAutoencoder(
    (encoder): Sequential(
      (0): Linear(in_features=80, out_features=60, bias=True)
      (1): ReLU()
      (2): Linear(in_features=60, out_features=40, bias=True)
      (3): ReLU()
      (4): Linear(in_features=40, out_features=20, bias=True)
    )
    (decoder): Sequential(
      (0): Linear(in_features=20, out_features=40, bias=True)
      (1): ReLU()
      (2): Linear(in_features=40, out_features=60, bias=True)
      (3): ReLU()
      (4): Linear(in_features=60, out_features=80, bias=True)
    )
    (sex_classifier): FullyConnSexClassifier(
      (initial): Sequential(
        (0): Linear(in_features=20, out_features=40, bias=True)
        (1): ReLU()
        (2): Linear(in_features=40, out_features=40, bias=True)
        (3): ReLU()
      )
      (norm): BatchNorm1d(20, eps=1e-05, momentum=0.1, affine=True, track_running_stats=True)
      (classify): Sequential(
        (0): Linear(in_features=80, out_features=40, bias=True)
        (1): BatchNorm1d(40, eps=1e-05, momentum=0.1, affine=True, track_running_stats=True)
        (2): ReLU()
        (3): Linear(in_features=40, out_features=40, bias=True)
        (4): ReLU()
        (5): Linear(in_features=40, out_features=20, bias=True)
        (6): BatchNorm1d(20, eps=1e-05, momentum=0.1, affine=True, track_running_stats=True)
        (7): Linear(in_features=20, out_features=2, bias=True)
      )
      (stats_pooling): StatisticsPooling()
    )
  )
) loading from model_checkpoints/asr_model.ckpt, the transferred parameters did not have parameters for the key: 0.sex_classifier.classify.0.weight
2022-05-05 23:51:58,642 - speechbrain.utils.checkpoints - WARNING - During parameter transfer to ModuleList(
  (0): FullyConnectedAutoencoder(
    (encoder): Sequential(
      (0): Linear(in_features=80, out_features=60, bias=True)
      (1): ReLU()
      (2): Linear(in_features=60, out_features=40, bias=True)
      (3): ReLU()
      (4): Linear(in_features=40, out_features=20, bias=True)
    )
    (decoder): Sequential(
      (0): Linear(in_features=20, out_features=40, bias=True)
      (1): ReLU()
      (2): Linear(in_features=40, out_features=60, bias=True)
      (3): ReLU()
      (4): Linear(in_features=60, out_features=80, bias=True)
    )
    (sex_classifier): FullyConnSexClassifier(
      (initial): Sequential(
        (0): Linear(in_features=20, out_features=40, bias=True)
        (1): ReLU()
        (2): Linear(in_features=40, out_features=40, bias=True)
        (3): ReLU()
      )
      (norm): BatchNorm1d(20, eps=1e-05, momentum=0.1, affine=True, track_running_stats=True)
      (classify): Sequential(
        (0): Linear(in_features=80, out_features=40, bias=True)
        (1): BatchNorm1d(40, eps=1e-05, momentum=0.1, affine=True, track_running_stats=True)
        (2): ReLU()
        (3): Linear(in_features=40, out_features=40, bias=True)
        (4): ReLU()
        (5): Linear(in_features=40, out_features=20, bias=True)
        (6): BatchNorm1d(20, eps=1e-05, momentum=0.1, affine=True, track_running_stats=True)
        (7): Linear(in_features=20, out_features=2, bias=True)
      )
      (stats_pooling): StatisticsPooling()
    )
  )
) loading from model_checkpoints/asr_model.ckpt, the transferred parameters did not have parameters for the key: 0.sex_classifier.classify.0.bias
2022-05-05 23:51:58,642 - speechbrain.utils.checkpoints - WARNING - During parameter transfer to ModuleList(
  (0): FullyConnectedAutoencoder(
    (encoder): Sequential(
      (0): Linear(in_features=80, out_features=60, bias=True)
      (1): ReLU()
      (2): Linear(in_features=60, out_features=40, bias=True)
      (3): ReLU()
      (4): Linear(in_features=40, out_features=20, bias=True)
    )
    (decoder): Sequential(
      (0): Linear(in_features=20, out_features=40, bias=True)
      (1): ReLU()
      (2): Linear(in_features=40, out_features=60, bias=True)
      (3): ReLU()
      (4): Linear(in_features=60, out_features=80, bias=True)
    )
    (sex_classifier): FullyConnSexClassifier(
      (initial): Sequential(
        (0): Linear(in_features=20, out_features=40, bias=True)
        (1): ReLU()
        (2): Linear(in_features=40, out_features=40, bias=True)
        (3): ReLU()
      )
      (norm): BatchNorm1d(20, eps=1e-05, momentum=0.1, affine=True, track_running_stats=True)
      (classify): Sequential(
        (0): Linear(in_features=80, out_features=40, bias=True)
        (1): BatchNorm1d(40, eps=1e-05, momentum=0.1, affine=True, track_running_stats=True)
        (2): ReLU()
        (3): Linear(in_features=40, out_features=40, bias=True)
        (4): ReLU()
        (5): Linear(in_features=40, out_features=20, bias=True)
        (6): BatchNorm1d(20, eps=1e-05, momentum=0.1, affine=True, track_running_stats=True)
        (7): Linear(in_features=20, out_features=2, bias=True)
      )
      (stats_pooling): StatisticsPooling()
    )
  )
) loading from model_checkpoints/asr_model.ckpt, the transferred parameters did not have parameters for the key: 0.sex_classifier.classify.1.weight
2022-05-05 23:51:58,643 - speechbrain.utils.checkpoints - WARNING - During parameter transfer to ModuleList(
  (0): FullyConnectedAutoencoder(
    (encoder): Sequential(
      (0): Linear(in_features=80, out_features=60, bias=True)
      (1): ReLU()
      (2): Linear(in_features=60, out_features=40, bias=True)
      (3): ReLU()
      (4): Linear(in_features=40, out_features=20, bias=True)
    )
    (decoder): Sequential(
      (0): Linear(in_features=20, out_features=40, bias=True)
      (1): ReLU()
      (2): Linear(in_features=40, out_features=60, bias=True)
      (3): ReLU()
      (4): Linear(in_features=60, out_features=80, bias=True)
    )
    (sex_classifier): FullyConnSexClassifier(
      (initial): Sequential(
        (0): Linear(in_features=20, out_features=40, bias=True)
        (1): ReLU()
        (2): Linear(in_features=40, out_features=40, bias=True)
        (3): ReLU()
      )
      (norm): BatchNorm1d(20, eps=1e-05, momentum=0.1, affine=True, track_running_stats=True)
      (classify): Sequential(
        (0): Linear(in_features=80, out_features=40, bias=True)
        (1): BatchNorm1d(40, eps=1e-05, momentum=0.1, affine=True, track_running_stats=True)
        (2): ReLU()
        (3): Linear(in_features=40, out_features=40, bias=True)
        (4): ReLU()
        (5): Linear(in_features=40, out_features=20, bias=True)
        (6): BatchNorm1d(20, eps=1e-05, momentum=0.1, affine=True, track_running_stats=True)
        (7): Linear(in_features=20, out_features=2, bias=True)
      )
      (stats_pooling): StatisticsPooling()
    )
  )
) loading from model_checkpoints/asr_model.ckpt, the transferred parameters did not have parameters for the key: 0.sex_classifier.classify.1.bias
2022-05-05 23:51:58,643 - speechbrain.utils.checkpoints - WARNING - During parameter transfer to ModuleList(
  (0): FullyConnectedAutoencoder(
    (encoder): Sequential(
      (0): Linear(in_features=80, out_features=60, bias=True)
      (1): ReLU()
      (2): Linear(in_features=60, out_features=40, bias=True)
      (3): ReLU()
      (4): Linear(in_features=40, out_features=20, bias=True)
    )
    (decoder): Sequential(
      (0): Linear(in_features=20, out_features=40, bias=True)
      (1): ReLU()
      (2): Linear(in_features=40, out_features=60, bias=True)
      (3): ReLU()
      (4): Linear(in_features=60, out_features=80, bias=True)
    )
    (sex_classifier): FullyConnSexClassifier(
      (initial): Sequential(
        (0): Linear(in_features=20, out_features=40, bias=True)
        (1): ReLU()
        (2): Linear(in_features=40, out_features=40, bias=True)
        (3): ReLU()
      )
      (norm): BatchNorm1d(20, eps=1e-05, momentum=0.1, affine=True, track_running_stats=True)
      (classify): Sequential(
        (0): Linear(in_features=80, out_features=40, bias=True)
        (1): BatchNorm1d(40, eps=1e-05, momentum=0.1, affine=True, track_running_stats=True)
        (2): ReLU()
        (3): Linear(in_features=40, out_features=40, bias=True)
        (4): ReLU()
        (5): Linear(in_features=40, out_features=20, bias=True)
        (6): BatchNorm1d(20, eps=1e-05, momentum=0.1, affine=True, track_running_stats=True)
        (7): Linear(in_features=20, out_features=2, bias=True)
      )
      (stats_pooling): StatisticsPooling()
    )
  )
) loading from model_checkpoints/asr_model.ckpt, the transferred parameters did not have parameters for the key: 0.sex_classifier.classify.1.running_mean
2022-05-05 23:51:58,643 - speechbrain.utils.checkpoints - WARNING - During parameter transfer to ModuleList(
  (0): FullyConnectedAutoencoder(
    (encoder): Sequential(
      (0): Linear(in_features=80, out_features=60, bias=True)
      (1): ReLU()
      (2): Linear(in_features=60, out_features=40, bias=True)
      (3): ReLU()
      (4): Linear(in_features=40, out_features=20, bias=True)
    )
    (decoder): Sequential(
      (0): Linear(in_features=20, out_features=40, bias=True)
      (1): ReLU()
      (2): Linear(in_features=40, out_features=60, bias=True)
      (3): ReLU()
      (4): Linear(in_features=60, out_features=80, bias=True)
    )
    (sex_classifier): FullyConnSexClassifier(
      (initial): Sequential(
        (0): Linear(in_features=20, out_features=40, bias=True)
        (1): ReLU()
        (2): Linear(in_features=40, out_features=40, bias=True)
        (3): ReLU()
      )
      (norm): BatchNorm1d(20, eps=1e-05, momentum=0.1, affine=True, track_running_stats=True)
      (classify): Sequential(
        (0): Linear(in_features=80, out_features=40, bias=True)
        (1): BatchNorm1d(40, eps=1e-05, momentum=0.1, affine=True, track_running_stats=True)
        (2): ReLU()
        (3): Linear(in_features=40, out_features=40, bias=True)
        (4): ReLU()
        (5): Linear(in_features=40, out_features=20, bias=True)
        (6): BatchNorm1d(20, eps=1e-05, momentum=0.1, affine=True, track_running_stats=True)
        (7): Linear(in_features=20, out_features=2, bias=True)
      )
      (stats_pooling): StatisticsPooling()
    )
  )
) loading from model_checkpoints/asr_model.ckpt, the transferred parameters did not have parameters for the key: 0.sex_classifier.classify.1.running_var
2022-05-05 23:51:58,644 - speechbrain.utils.checkpoints - WARNING - During parameter transfer to ModuleList(
  (0): FullyConnectedAutoencoder(
    (encoder): Sequential(
      (0): Linear(in_features=80, out_features=60, bias=True)
      (1): ReLU()
      (2): Linear(in_features=60, out_features=40, bias=True)
      (3): ReLU()
      (4): Linear(in_features=40, out_features=20, bias=True)
    )
    (decoder): Sequential(
      (0): Linear(in_features=20, out_features=40, bias=True)
      (1): ReLU()
      (2): Linear(in_features=40, out_features=60, bias=True)
      (3): ReLU()
      (4): Linear(in_features=60, out_features=80, bias=True)
    )
    (sex_classifier): FullyConnSexClassifier(
      (initial): Sequential(
        (0): Linear(in_features=20, out_features=40, bias=True)
        (1): ReLU()
        (2): Linear(in_features=40, out_features=40, bias=True)
        (3): ReLU()
      )
      (norm): BatchNorm1d(20, eps=1e-05, momentum=0.1, affine=True, track_running_stats=True)
      (classify): Sequential(
        (0): Linear(in_features=80, out_features=40, bias=True)
        (1): BatchNorm1d(40, eps=1e-05, momentum=0.1, affine=True, track_running_stats=True)
        (2): ReLU()
        (3): Linear(in_features=40, out_features=40, bias=True)
        (4): ReLU()
        (5): Linear(in_features=40, out_features=20, bias=True)
        (6): BatchNorm1d(20, eps=1e-05, momentum=0.1, affine=True, track_running_stats=True)
        (7): Linear(in_features=20, out_features=2, bias=True)
      )
      (stats_pooling): StatisticsPooling()
    )
  )
) loading from model_checkpoints/asr_model.ckpt, the transferred parameters did not have parameters for the key: 0.sex_classifier.classify.3.weight
2022-05-05 23:51:58,644 - speechbrain.utils.checkpoints - WARNING - During parameter transfer to ModuleList(
  (0): FullyConnectedAutoencoder(
    (encoder): Sequential(
      (0): Linear(in_features=80, out_features=60, bias=True)
      (1): ReLU()
      (2): Linear(in_features=60, out_features=40, bias=True)
      (3): ReLU()
      (4): Linear(in_features=40, out_features=20, bias=True)
    )
    (decoder): Sequential(
      (0): Linear(in_features=20, out_features=40, bias=True)
      (1): ReLU()
      (2): Linear(in_features=40, out_features=60, bias=True)
      (3): ReLU()
      (4): Linear(in_features=60, out_features=80, bias=True)
    )
    (sex_classifier): FullyConnSexClassifier(
      (initial): Sequential(
        (0): Linear(in_features=20, out_features=40, bias=True)
        (1): ReLU()
        (2): Linear(in_features=40, out_features=40, bias=True)
        (3): ReLU()
      )
      (norm): BatchNorm1d(20, eps=1e-05, momentum=0.1, affine=True, track_running_stats=True)
      (classify): Sequential(
        (0): Linear(in_features=80, out_features=40, bias=True)
        (1): BatchNorm1d(40, eps=1e-05, momentum=0.1, affine=True, track_running_stats=True)
        (2): ReLU()
        (3): Linear(in_features=40, out_features=40, bias=True)
        (4): ReLU()
        (5): Linear(in_features=40, out_features=20, bias=True)
        (6): BatchNorm1d(20, eps=1e-05, momentum=0.1, affine=True, track_running_stats=True)
        (7): Linear(in_features=20, out_features=2, bias=True)
      )
      (stats_pooling): StatisticsPooling()
    )
  )
) loading from model_checkpoints/asr_model.ckpt, the transferred parameters did not have parameters for the key: 0.sex_classifier.classify.3.bias
2022-05-05 23:51:58,644 - speechbrain.utils.checkpoints - WARNING - During parameter transfer to ModuleList(
  (0): FullyConnectedAutoencoder(
    (encoder): Sequential(
      (0): Linear(in_features=80, out_features=60, bias=True)
      (1): ReLU()
      (2): Linear(in_features=60, out_features=40, bias=True)
      (3): ReLU()
      (4): Linear(in_features=40, out_features=20, bias=True)
    )
    (decoder): Sequential(
      (0): Linear(in_features=20, out_features=40, bias=True)
      (1): ReLU()
      (2): Linear(in_features=40, out_features=60, bias=True)
      (3): ReLU()
      (4): Linear(in_features=60, out_features=80, bias=True)
    )
    (sex_classifier): FullyConnSexClassifier(
      (initial): Sequential(
        (0): Linear(in_features=20, out_features=40, bias=True)
        (1): ReLU()
        (2): Linear(in_features=40, out_features=40, bias=True)
        (3): ReLU()
      )
      (norm): BatchNorm1d(20, eps=1e-05, momentum=0.1, affine=True, track_running_stats=True)
      (classify): Sequential(
        (0): Linear(in_features=80, out_features=40, bias=True)
        (1): BatchNorm1d(40, eps=1e-05, momentum=0.1, affine=True, track_running_stats=True)
        (2): ReLU()
        (3): Linear(in_features=40, out_features=40, bias=True)
        (4): ReLU()
        (5): Linear(in_features=40, out_features=20, bias=True)
        (6): BatchNorm1d(20, eps=1e-05, momentum=0.1, affine=True, track_running_stats=True)
        (7): Linear(in_features=20, out_features=2, bias=True)
      )
      (stats_pooling): StatisticsPooling()
    )
  )
) loading from model_checkpoints/asr_model.ckpt, the transferred parameters did not have parameters for the key: 0.sex_classifier.classify.5.weight
2022-05-05 23:51:58,645 - speechbrain.utils.checkpoints - WARNING - During parameter transfer to ModuleList(
  (0): FullyConnectedAutoencoder(
    (encoder): Sequential(
      (0): Linear(in_features=80, out_features=60, bias=True)
      (1): ReLU()
      (2): Linear(in_features=60, out_features=40, bias=True)
      (3): ReLU()
      (4): Linear(in_features=40, out_features=20, bias=True)
    )
    (decoder): Sequential(
      (0): Linear(in_features=20, out_features=40, bias=True)
      (1): ReLU()
      (2): Linear(in_features=40, out_features=60, bias=True)
      (3): ReLU()
      (4): Linear(in_features=60, out_features=80, bias=True)
    )
    (sex_classifier): FullyConnSexClassifier(
      (initial): Sequential(
        (0): Linear(in_features=20, out_features=40, bias=True)
        (1): ReLU()
        (2): Linear(in_features=40, out_features=40, bias=True)
        (3): ReLU()
      )
      (norm): BatchNorm1d(20, eps=1e-05, momentum=0.1, affine=True, track_running_stats=True)
      (classify): Sequential(
        (0): Linear(in_features=80, out_features=40, bias=True)
        (1): BatchNorm1d(40, eps=1e-05, momentum=0.1, affine=True, track_running_stats=True)
        (2): ReLU()
        (3): Linear(in_features=40, out_features=40, bias=True)
        (4): ReLU()
        (5): Linear(in_features=40, out_features=20, bias=True)
        (6): BatchNorm1d(20, eps=1e-05, momentum=0.1, affine=True, track_running_stats=True)
        (7): Linear(in_features=20, out_features=2, bias=True)
      )
      (stats_pooling): StatisticsPooling()
    )
  )
) loading from model_checkpoints/asr_model.ckpt, the transferred parameters did not have parameters for the key: 0.sex_classifier.classify.5.bias
2022-05-05 23:51:58,645 - speechbrain.utils.checkpoints - WARNING - During parameter transfer to ModuleList(
  (0): FullyConnectedAutoencoder(
    (encoder): Sequential(
      (0): Linear(in_features=80, out_features=60, bias=True)
      (1): ReLU()
      (2): Linear(in_features=60, out_features=40, bias=True)
      (3): ReLU()
      (4): Linear(in_features=40, out_features=20, bias=True)
    )
    (decoder): Sequential(
      (0): Linear(in_features=20, out_features=40, bias=True)
      (1): ReLU()
      (2): Linear(in_features=40, out_features=60, bias=True)
      (3): ReLU()
      (4): Linear(in_features=60, out_features=80, bias=True)
    )
    (sex_classifier): FullyConnSexClassifier(
      (initial): Sequential(
        (0): Linear(in_features=20, out_features=40, bias=True)
        (1): ReLU()
        (2): Linear(in_features=40, out_features=40, bias=True)
        (3): ReLU()
      )
      (norm): BatchNorm1d(20, eps=1e-05, momentum=0.1, affine=True, track_running_stats=True)
      (classify): Sequential(
        (0): Linear(in_features=80, out_features=40, bias=True)
        (1): BatchNorm1d(40, eps=1e-05, momentum=0.1, affine=True, track_running_stats=True)
        (2): ReLU()
        (3): Linear(in_features=40, out_features=40, bias=True)
        (4): ReLU()
        (5): Linear(in_features=40, out_features=20, bias=True)
        (6): BatchNorm1d(20, eps=1e-05, momentum=0.1, affine=True, track_running_stats=True)
        (7): Linear(in_features=20, out_features=2, bias=True)
      )
      (stats_pooling): StatisticsPooling()
    )
  )
) loading from model_checkpoints/asr_model.ckpt, the transferred parameters did not have parameters for the key: 0.sex_classifier.classify.6.weight
2022-05-05 23:51:58,646 - speechbrain.utils.checkpoints - WARNING - During parameter transfer to ModuleList(
  (0): FullyConnectedAutoencoder(
    (encoder): Sequential(
      (0): Linear(in_features=80, out_features=60, bias=True)
      (1): ReLU()
      (2): Linear(in_features=60, out_features=40, bias=True)
      (3): ReLU()
      (4): Linear(in_features=40, out_features=20, bias=True)
    )
    (decoder): Sequential(
      (0): Linear(in_features=20, out_features=40, bias=True)
      (1): ReLU()
      (2): Linear(in_features=40, out_features=60, bias=True)
      (3): ReLU()
      (4): Linear(in_features=60, out_features=80, bias=True)
    )
    (sex_classifier): FullyConnSexClassifier(
      (initial): Sequential(
        (0): Linear(in_features=20, out_features=40, bias=True)
        (1): ReLU()
        (2): Linear(in_features=40, out_features=40, bias=True)
        (3): ReLU()
      )
      (norm): BatchNorm1d(20, eps=1e-05, momentum=0.1, affine=True, track_running_stats=True)
      (classify): Sequential(
        (0): Linear(in_features=80, out_features=40, bias=True)
        (1): BatchNorm1d(40, eps=1e-05, momentum=0.1, affine=True, track_running_stats=True)
        (2): ReLU()
        (3): Linear(in_features=40, out_features=40, bias=True)
        (4): ReLU()
        (5): Linear(in_features=40, out_features=20, bias=True)
        (6): BatchNorm1d(20, eps=1e-05, momentum=0.1, affine=True, track_running_stats=True)
        (7): Linear(in_features=20, out_features=2, bias=True)
      )
      (stats_pooling): StatisticsPooling()
    )
  )
) loading from model_checkpoints/asr_model.ckpt, the transferred parameters did not have parameters for the key: 0.sex_classifier.classify.6.bias
2022-05-05 23:51:58,646 - speechbrain.utils.checkpoints - WARNING - During parameter transfer to ModuleList(
  (0): FullyConnectedAutoencoder(
    (encoder): Sequential(
      (0): Linear(in_features=80, out_features=60, bias=True)
      (1): ReLU()
      (2): Linear(in_features=60, out_features=40, bias=True)
      (3): ReLU()
      (4): Linear(in_features=40, out_features=20, bias=True)
    )
    (decoder): Sequential(
      (0): Linear(in_features=20, out_features=40, bias=True)
      (1): ReLU()
      (2): Linear(in_features=40, out_features=60, bias=True)
      (3): ReLU()
      (4): Linear(in_features=60, out_features=80, bias=True)
    )
    (sex_classifier): FullyConnSexClassifier(
      (initial): Sequential(
        (0): Linear(in_features=20, out_features=40, bias=True)
        (1): ReLU()
        (2): Linear(in_features=40, out_features=40, bias=True)
        (3): ReLU()
      )
      (norm): BatchNorm1d(20, eps=1e-05, momentum=0.1, affine=True, track_running_stats=True)
      (classify): Sequential(
        (0): Linear(in_features=80, out_features=40, bias=True)
        (1): BatchNorm1d(40, eps=1e-05, momentum=0.1, affine=True, track_running_stats=True)
        (2): ReLU()
        (3): Linear(in_features=40, out_features=40, bias=True)
        (4): ReLU()
        (5): Linear(in_features=40, out_features=20, bias=True)
        (6): BatchNorm1d(20, eps=1e-05, momentum=0.1, affine=True, track_running_stats=True)
        (7): Linear(in_features=20, out_features=2, bias=True)
      )
      (stats_pooling): StatisticsPooling()
    )
  )
) loading from model_checkpoints/asr_model.ckpt, the transferred parameters did not have parameters for the key: 0.sex_classifier.classify.6.running_mean
2022-05-05 23:51:58,646 - speechbrain.utils.checkpoints - WARNING - During parameter transfer to ModuleList(
  (0): FullyConnectedAutoencoder(
    (encoder): Sequential(
      (0): Linear(in_features=80, out_features=60, bias=True)
      (1): ReLU()
      (2): Linear(in_features=60, out_features=40, bias=True)
      (3): ReLU()
      (4): Linear(in_features=40, out_features=20, bias=True)
    )
    (decoder): Sequential(
      (0): Linear(in_features=20, out_features=40, bias=True)
      (1): ReLU()
      (2): Linear(in_features=40, out_features=60, bias=True)
      (3): ReLU()
      (4): Linear(in_features=60, out_features=80, bias=True)
    )
    (sex_classifier): FullyConnSexClassifier(
      (initial): Sequential(
        (0): Linear(in_features=20, out_features=40, bias=True)
        (1): ReLU()
        (2): Linear(in_features=40, out_features=40, bias=True)
        (3): ReLU()
      )
      (norm): BatchNorm1d(20, eps=1e-05, momentum=0.1, affine=True, track_running_stats=True)
      (classify): Sequential(
        (0): Linear(in_features=80, out_features=40, bias=True)
        (1): BatchNorm1d(40, eps=1e-05, momentum=0.1, affine=True, track_running_stats=True)
        (2): ReLU()
        (3): Linear(in_features=40, out_features=40, bias=True)
        (4): ReLU()
        (5): Linear(in_features=40, out_features=20, bias=True)
        (6): BatchNorm1d(20, eps=1e-05, momentum=0.1, affine=True, track_running_stats=True)
        (7): Linear(in_features=20, out_features=2, bias=True)
      )
      (stats_pooling): StatisticsPooling()
    )
  )
) loading from model_checkpoints/asr_model.ckpt, the transferred parameters did not have parameters for the key: 0.sex_classifier.classify.6.running_var
2022-05-05 23:51:58,647 - speechbrain.utils.checkpoints - WARNING - During parameter transfer to ModuleList(
  (0): FullyConnectedAutoencoder(
    (encoder): Sequential(
      (0): Linear(in_features=80, out_features=60, bias=True)
      (1): ReLU()
      (2): Linear(in_features=60, out_features=40, bias=True)
      (3): ReLU()
      (4): Linear(in_features=40, out_features=20, bias=True)
    )
    (decoder): Sequential(
      (0): Linear(in_features=20, out_features=40, bias=True)
      (1): ReLU()
      (2): Linear(in_features=40, out_features=60, bias=True)
      (3): ReLU()
      (4): Linear(in_features=60, out_features=80, bias=True)
    )
    (sex_classifier): FullyConnSexClassifier(
      (initial): Sequential(
        (0): Linear(in_features=20, out_features=40, bias=True)
        (1): ReLU()
        (2): Linear(in_features=40, out_features=40, bias=True)
        (3): ReLU()
      )
      (norm): BatchNorm1d(20, eps=1e-05, momentum=0.1, affine=True, track_running_stats=True)
      (classify): Sequential(
        (0): Linear(in_features=80, out_features=40, bias=True)
        (1): BatchNorm1d(40, eps=1e-05, momentum=0.1, affine=True, track_running_stats=True)
        (2): ReLU()
        (3): Linear(in_features=40, out_features=40, bias=True)
        (4): ReLU()
        (5): Linear(in_features=40, out_features=20, bias=True)
        (6): BatchNorm1d(20, eps=1e-05, momentum=0.1, affine=True, track_running_stats=True)
        (7): Linear(in_features=20, out_features=2, bias=True)
      )
      (stats_pooling): StatisticsPooling()
    )
  )
) loading from model_checkpoints/asr_model.ckpt, the transferred parameters did not have parameters for the key: 0.sex_classifier.classify.7.weight
2022-05-05 23:51:58,647 - speechbrain.utils.checkpoints - WARNING - During parameter transfer to ModuleList(
  (0): FullyConnectedAutoencoder(
    (encoder): Sequential(
      (0): Linear(in_features=80, out_features=60, bias=True)
      (1): ReLU()
      (2): Linear(in_features=60, out_features=40, bias=True)
      (3): ReLU()
      (4): Linear(in_features=40, out_features=20, bias=True)
    )
    (decoder): Sequential(
      (0): Linear(in_features=20, out_features=40, bias=True)
      (1): ReLU()
      (2): Linear(in_features=40, out_features=60, bias=True)
      (3): ReLU()
      (4): Linear(in_features=60, out_features=80, bias=True)
    )
    (sex_classifier): FullyConnSexClassifier(
      (initial): Sequential(
        (0): Linear(in_features=20, out_features=40, bias=True)
        (1): ReLU()
        (2): Linear(in_features=40, out_features=40, bias=True)
        (3): ReLU()
      )
      (norm): BatchNorm1d(20, eps=1e-05, momentum=0.1, affine=True, track_running_stats=True)
      (classify): Sequential(
        (0): Linear(in_features=80, out_features=40, bias=True)
        (1): BatchNorm1d(40, eps=1e-05, momentum=0.1, affine=True, track_running_stats=True)
        (2): ReLU()
        (3): Linear(in_features=40, out_features=40, bias=True)
        (4): ReLU()
        (5): Linear(in_features=40, out_features=20, bias=True)
        (6): BatchNorm1d(20, eps=1e-05, momentum=0.1, affine=True, track_running_stats=True)
        (7): Linear(in_features=20, out_features=2, bias=True)
      )
      (stats_pooling): StatisticsPooling()
    )
  )
) loading from model_checkpoints/asr_model.ckpt, the transferred parameters did not have parameters for the key: 0.sex_classifier.classify.7.bias
2022-05-05 23:51:58,647 - speechbrain.utils.checkpoints - WARNING - During parameter transfer to ModuleList(
  (0): FullyConnectedAutoencoder(
    (encoder): Sequential(
      (0): Linear(in_features=80, out_features=60, bias=True)
      (1): ReLU()
      (2): Linear(in_features=60, out_features=40, bias=True)
      (3): ReLU()
      (4): Linear(in_features=40, out_features=20, bias=True)
    )
    (decoder): Sequential(
      (0): Linear(in_features=20, out_features=40, bias=True)
      (1): ReLU()
      (2): Linear(in_features=40, out_features=60, bias=True)
      (3): ReLU()
      (4): Linear(in_features=60, out_features=80, bias=True)
    )
    (sex_classifier): FullyConnSexClassifier(
      (initial): Sequential(
        (0): Linear(in_features=20, out_features=40, bias=True)
        (1): ReLU()
        (2): Linear(in_features=40, out_features=40, bias=True)
        (3): ReLU()
      )
      (norm): BatchNorm1d(20, eps=1e-05, momentum=0.1, affine=True, track_running_stats=True)
      (classify): Sequential(
        (0): Linear(in_features=80, out_features=40, bias=True)
        (1): BatchNorm1d(40, eps=1e-05, momentum=0.1, affine=True, track_running_stats=True)
        (2): ReLU()
        (3): Linear(in_features=40, out_features=40, bias=True)
        (4): ReLU()
        (5): Linear(in_features=40, out_features=20, bias=True)
        (6): BatchNorm1d(20, eps=1e-05, momentum=0.1, affine=True, track_running_stats=True)
        (7): Linear(in_features=20, out_features=2, bias=True)
      )
      (stats_pooling): StatisticsPooling()
    )
  )
) loading from model_checkpoints/asr_model.ckpt, the object could not use the parameters loaded with the key: 1.positional_encoding.pe
2022-05-05 23:51:58,648 - speechbrain.utils.checkpoints - WARNING - During parameter transfer to ModuleList(
  (0): FullyConnectedAutoencoder(
    (encoder): Sequential(
      (0): Linear(in_features=80, out_features=60, bias=True)
      (1): ReLU()
      (2): Linear(in_features=60, out_features=40, bias=True)
      (3): ReLU()
      (4): Linear(in_features=40, out_features=20, bias=True)
    )
    (decoder): Sequential(
      (0): Linear(in_features=20, out_features=40, bias=True)
      (1): ReLU()
      (2): Linear(in_features=40, out_features=60, bias=True)
      (3): ReLU()
      (4): Linear(in_features=60, out_features=80, bias=True)
    )
    (sex_classifier): FullyConnSexClassifier(
      (initial): Sequential(
        (0): Linear(in_features=20, out_features=40, bias=True)
        (1): ReLU()
        (2): Linear(in_features=40, out_features=40, bias=True)
        (3): ReLU()
      )
      (norm): BatchNorm1d(20, eps=1e-05, momentum=0.1, affine=True, track_running_stats=True)
      (classify): Sequential(
        (0): Linear(in_features=80, out_features=40, bias=True)
        (1): BatchNorm1d(40, eps=1e-05, momentum=0.1, affine=True, track_running_stats=True)
        (2): ReLU()
        (3): Linear(in_features=40, out_features=40, bias=True)
        (4): ReLU()
        (5): Linear(in_features=40, out_features=20, bias=True)
        (6): BatchNorm1d(20, eps=1e-05, momentum=0.1, affine=True, track_running_stats=True)
        (7): Linear(in_features=20, out_features=2, bias=True)
      )
      (stats_pooling): StatisticsPooling()
    )
  )
) loading from model_checkpoints/asr_model.ckpt, the object could not use the parameters loaded with the key: 1.encoder.layers.0.self_att.att.in_proj_weight
2022-05-05 23:51:58,648 - speechbrain.utils.checkpoints - WARNING - During parameter transfer to ModuleList(
  (0): FullyConnectedAutoencoder(
    (encoder): Sequential(
      (0): Linear(in_features=80, out_features=60, bias=True)
      (1): ReLU()
      (2): Linear(in_features=60, out_features=40, bias=True)
      (3): ReLU()
      (4): Linear(in_features=40, out_features=20, bias=True)
    )
    (decoder): Sequential(
      (0): Linear(in_features=20, out_features=40, bias=True)
      (1): ReLU()
      (2): Linear(in_features=40, out_features=60, bias=True)
      (3): ReLU()
      (4): Linear(in_features=60, out_features=80, bias=True)
    )
    (sex_classifier): FullyConnSexClassifier(
      (initial): Sequential(
        (0): Linear(in_features=20, out_features=40, bias=True)
        (1): ReLU()
        (2): Linear(in_features=40, out_features=40, bias=True)
        (3): ReLU()
      )
      (norm): BatchNorm1d(20, eps=1e-05, momentum=0.1, affine=True, track_running_stats=True)
      (classify): Sequential(
        (0): Linear(in_features=80, out_features=40, bias=True)
        (1): BatchNorm1d(40, eps=1e-05, momentum=0.1, affine=True, track_running_stats=True)
        (2): ReLU()
        (3): Linear(in_features=40, out_features=40, bias=True)
        (4): ReLU()
        (5): Linear(in_features=40, out_features=20, bias=True)
        (6): BatchNorm1d(20, eps=1e-05, momentum=0.1, affine=True, track_running_stats=True)
        (7): Linear(in_features=20, out_features=2, bias=True)
      )
      (stats_pooling): StatisticsPooling()
    )
  )
) loading from model_checkpoints/asr_model.ckpt, the object could not use the parameters loaded with the key: 1.encoder.layers.0.self_att.att.in_proj_bias
2022-05-05 23:51:58,648 - speechbrain.utils.checkpoints - WARNING - During parameter transfer to ModuleList(
  (0): FullyConnectedAutoencoder(
    (encoder): Sequential(
      (0): Linear(in_features=80, out_features=60, bias=True)
      (1): ReLU()
      (2): Linear(in_features=60, out_features=40, bias=True)
      (3): ReLU()
      (4): Linear(in_features=40, out_features=20, bias=True)
    )
    (decoder): Sequential(
      (0): Linear(in_features=20, out_features=40, bias=True)
      (1): ReLU()
      (2): Linear(in_features=40, out_features=60, bias=True)
      (3): ReLU()
      (4): Linear(in_features=60, out_features=80, bias=True)
    )
    (sex_classifier): FullyConnSexClassifier(
      (initial): Sequential(
        (0): Linear(in_features=20, out_features=40, bias=True)
        (1): ReLU()
        (2): Linear(in_features=40, out_features=40, bias=True)
        (3): ReLU()
      )
      (norm): BatchNorm1d(20, eps=1e-05, momentum=0.1, affine=True, track_running_stats=True)
      (classify): Sequential(
        (0): Linear(in_features=80, out_features=40, bias=True)
        (1): BatchNorm1d(40, eps=1e-05, momentum=0.1, affine=True, track_running_stats=True)
        (2): ReLU()
        (3): Linear(in_features=40, out_features=40, bias=True)
        (4): ReLU()
        (5): Linear(in_features=40, out_features=20, bias=True)
        (6): BatchNorm1d(20, eps=1e-05, momentum=0.1, affine=True, track_running_stats=True)
        (7): Linear(in_features=20, out_features=2, bias=True)
      )
      (stats_pooling): StatisticsPooling()
    )
  )
) loading from model_checkpoints/asr_model.ckpt, the object could not use the parameters loaded with the key: 1.encoder.layers.0.self_att.att.out_proj.weight
2022-05-05 23:51:58,649 - speechbrain.utils.checkpoints - WARNING - During parameter transfer to ModuleList(
  (0): FullyConnectedAutoencoder(
    (encoder): Sequential(
      (0): Linear(in_features=80, out_features=60, bias=True)
      (1): ReLU()
      (2): Linear(in_features=60, out_features=40, bias=True)
      (3): ReLU()
      (4): Linear(in_features=40, out_features=20, bias=True)
    )
    (decoder): Sequential(
      (0): Linear(in_features=20, out_features=40, bias=True)
      (1): ReLU()
      (2): Linear(in_features=40, out_features=60, bias=True)
      (3): ReLU()
      (4): Linear(in_features=60, out_features=80, bias=True)
    )
    (sex_classifier): FullyConnSexClassifier(
      (initial): Sequential(
        (0): Linear(in_features=20, out_features=40, bias=True)
        (1): ReLU()
        (2): Linear(in_features=40, out_features=40, bias=True)
        (3): ReLU()
      )
      (norm): BatchNorm1d(20, eps=1e-05, momentum=0.1, affine=True, track_running_stats=True)
      (classify): Sequential(
        (0): Linear(in_features=80, out_features=40, bias=True)
        (1): BatchNorm1d(40, eps=1e-05, momentum=0.1, affine=True, track_running_stats=True)
        (2): ReLU()
        (3): Linear(in_features=40, out_features=40, bias=True)
        (4): ReLU()
        (5): Linear(in_features=40, out_features=20, bias=True)
        (6): BatchNorm1d(20, eps=1e-05, momentum=0.1, affine=True, track_running_stats=True)
        (7): Linear(in_features=20, out_features=2, bias=True)
      )
      (stats_pooling): StatisticsPooling()
    )
  )
) loading from model_checkpoints/asr_model.ckpt, the object could not use the parameters loaded with the key: 1.encoder.layers.0.self_att.att.out_proj.bias
2022-05-05 23:51:58,649 - speechbrain.utils.checkpoints - WARNING - During parameter transfer to ModuleList(
  (0): FullyConnectedAutoencoder(
    (encoder): Sequential(
      (0): Linear(in_features=80, out_features=60, bias=True)
      (1): ReLU()
      (2): Linear(in_features=60, out_features=40, bias=True)
      (3): ReLU()
      (4): Linear(in_features=40, out_features=20, bias=True)
    )
    (decoder): Sequential(
      (0): Linear(in_features=20, out_features=40, bias=True)
      (1): ReLU()
      (2): Linear(in_features=40, out_features=60, bias=True)
      (3): ReLU()
      (4): Linear(in_features=60, out_features=80, bias=True)
    )
    (sex_classifier): FullyConnSexClassifier(
      (initial): Sequential(
        (0): Linear(in_features=20, out_features=40, bias=True)
        (1): ReLU()
        (2): Linear(in_features=40, out_features=40, bias=True)
        (3): ReLU()
      )
      (norm): BatchNorm1d(20, eps=1e-05, momentum=0.1, affine=True, track_running_stats=True)
      (classify): Sequential(
        (0): Linear(in_features=80, out_features=40, bias=True)
        (1): BatchNorm1d(40, eps=1e-05, momentum=0.1, affine=True, track_running_stats=True)
        (2): ReLU()
        (3): Linear(in_features=40, out_features=40, bias=True)
        (4): ReLU()
        (5): Linear(in_features=40, out_features=20, bias=True)
        (6): BatchNorm1d(20, eps=1e-05, momentum=0.1, affine=True, track_running_stats=True)
        (7): Linear(in_features=20, out_features=2, bias=True)
      )
      (stats_pooling): StatisticsPooling()
    )
  )
) loading from model_checkpoints/asr_model.ckpt, the object could not use the parameters loaded with the key: 1.encoder.layers.0.pos_ffn.ffn.0.weight
2022-05-05 23:51:58,650 - speechbrain.utils.checkpoints - WARNING - During parameter transfer to ModuleList(
  (0): FullyConnectedAutoencoder(
    (encoder): Sequential(
      (0): Linear(in_features=80, out_features=60, bias=True)
      (1): ReLU()
      (2): Linear(in_features=60, out_features=40, bias=True)
      (3): ReLU()
      (4): Linear(in_features=40, out_features=20, bias=True)
    )
    (decoder): Sequential(
      (0): Linear(in_features=20, out_features=40, bias=True)
      (1): ReLU()
      (2): Linear(in_features=40, out_features=60, bias=True)
      (3): ReLU()
      (4): Linear(in_features=60, out_features=80, bias=True)
    )
    (sex_classifier): FullyConnSexClassifier(
      (initial): Sequential(
        (0): Linear(in_features=20, out_features=40, bias=True)
        (1): ReLU()
        (2): Linear(in_features=40, out_features=40, bias=True)
        (3): ReLU()
      )
      (norm): BatchNorm1d(20, eps=1e-05, momentum=0.1, affine=True, track_running_stats=True)
      (classify): Sequential(
        (0): Linear(in_features=80, out_features=40, bias=True)
        (1): BatchNorm1d(40, eps=1e-05, momentum=0.1, affine=True, track_running_stats=True)
        (2): ReLU()
        (3): Linear(in_features=40, out_features=40, bias=True)
        (4): ReLU()
        (5): Linear(in_features=40, out_features=20, bias=True)
        (6): BatchNorm1d(20, eps=1e-05, momentum=0.1, affine=True, track_running_stats=True)
        (7): Linear(in_features=20, out_features=2, bias=True)
      )
      (stats_pooling): StatisticsPooling()
    )
  )
) loading from model_checkpoints/asr_model.ckpt, the object could not use the parameters loaded with the key: 1.encoder.layers.0.pos_ffn.ffn.0.bias
2022-05-05 23:51:58,650 - speechbrain.utils.checkpoints - WARNING - During parameter transfer to ModuleList(
  (0): FullyConnectedAutoencoder(
    (encoder): Sequential(
      (0): Linear(in_features=80, out_features=60, bias=True)
      (1): ReLU()
      (2): Linear(in_features=60, out_features=40, bias=True)
      (3): ReLU()
      (4): Linear(in_features=40, out_features=20, bias=True)
    )
    (decoder): Sequential(
      (0): Linear(in_features=20, out_features=40, bias=True)
      (1): ReLU()
      (2): Linear(in_features=40, out_features=60, bias=True)
      (3): ReLU()
      (4): Linear(in_features=60, out_features=80, bias=True)
    )
    (sex_classifier): FullyConnSexClassifier(
      (initial): Sequential(
        (0): Linear(in_features=20, out_features=40, bias=True)
        (1): ReLU()
        (2): Linear(in_features=40, out_features=40, bias=True)
        (3): ReLU()
      )
      (norm): BatchNorm1d(20, eps=1e-05, momentum=0.1, affine=True, track_running_stats=True)
      (classify): Sequential(
        (0): Linear(in_features=80, out_features=40, bias=True)
        (1): BatchNorm1d(40, eps=1e-05, momentum=0.1, affine=True, track_running_stats=True)
        (2): ReLU()
        (3): Linear(in_features=40, out_features=40, bias=True)
        (4): ReLU()
        (5): Linear(in_features=40, out_features=20, bias=True)
        (6): BatchNorm1d(20, eps=1e-05, momentum=0.1, affine=True, track_running_stats=True)
        (7): Linear(in_features=20, out_features=2, bias=True)
      )
      (stats_pooling): StatisticsPooling()
    )
  )
) loading from model_checkpoints/asr_model.ckpt, the object could not use the parameters loaded with the key: 1.encoder.layers.0.pos_ffn.ffn.3.weight
2022-05-05 23:51:58,650 - speechbrain.utils.checkpoints - WARNING - During parameter transfer to ModuleList(
  (0): FullyConnectedAutoencoder(
    (encoder): Sequential(
      (0): Linear(in_features=80, out_features=60, bias=True)
      (1): ReLU()
      (2): Linear(in_features=60, out_features=40, bias=True)
      (3): ReLU()
      (4): Linear(in_features=40, out_features=20, bias=True)
    )
    (decoder): Sequential(
      (0): Linear(in_features=20, out_features=40, bias=True)
      (1): ReLU()
      (2): Linear(in_features=40, out_features=60, bias=True)
      (3): ReLU()
      (4): Linear(in_features=60, out_features=80, bias=True)
    )
    (sex_classifier): FullyConnSexClassifier(
      (initial): Sequential(
        (0): Linear(in_features=20, out_features=40, bias=True)
        (1): ReLU()
        (2): Linear(in_features=40, out_features=40, bias=True)
        (3): ReLU()
      )
      (norm): BatchNorm1d(20, eps=1e-05, momentum=0.1, affine=True, track_running_stats=True)
      (classify): Sequential(
        (0): Linear(in_features=80, out_features=40, bias=True)
        (1): BatchNorm1d(40, eps=1e-05, momentum=0.1, affine=True, track_running_stats=True)
        (2): ReLU()
        (3): Linear(in_features=40, out_features=40, bias=True)
        (4): ReLU()
        (5): Linear(in_features=40, out_features=20, bias=True)
        (6): BatchNorm1d(20, eps=1e-05, momentum=0.1, affine=True, track_running_stats=True)
        (7): Linear(in_features=20, out_features=2, bias=True)
      )
      (stats_pooling): StatisticsPooling()
    )
  )
) loading from model_checkpoints/asr_model.ckpt, the object could not use the parameters loaded with the key: 1.encoder.layers.0.pos_ffn.ffn.3.bias
2022-05-05 23:51:58,651 - speechbrain.utils.checkpoints - WARNING - During parameter transfer to ModuleList(
  (0): FullyConnectedAutoencoder(
    (encoder): Sequential(
      (0): Linear(in_features=80, out_features=60, bias=True)
      (1): ReLU()
      (2): Linear(in_features=60, out_features=40, bias=True)
      (3): ReLU()
      (4): Linear(in_features=40, out_features=20, bias=True)
    )
    (decoder): Sequential(
      (0): Linear(in_features=20, out_features=40, bias=True)
      (1): ReLU()
      (2): Linear(in_features=40, out_features=60, bias=True)
      (3): ReLU()
      (4): Linear(in_features=60, out_features=80, bias=True)
    )
    (sex_classifier): FullyConnSexClassifier(
      (initial): Sequential(
        (0): Linear(in_features=20, out_features=40, bias=True)
        (1): ReLU()
        (2): Linear(in_features=40, out_features=40, bias=True)
        (3): ReLU()
      )
      (norm): BatchNorm1d(20, eps=1e-05, momentum=0.1, affine=True, track_running_stats=True)
      (classify): Sequential(
        (0): Linear(in_features=80, out_features=40, bias=True)
        (1): BatchNorm1d(40, eps=1e-05, momentum=0.1, affine=True, track_running_stats=True)
        (2): ReLU()
        (3): Linear(in_features=40, out_features=40, bias=True)
        (4): ReLU()
        (5): Linear(in_features=40, out_features=20, bias=True)
        (6): BatchNorm1d(20, eps=1e-05, momentum=0.1, affine=True, track_running_stats=True)
        (7): Linear(in_features=20, out_features=2, bias=True)
      )
      (stats_pooling): StatisticsPooling()
    )
  )
) loading from model_checkpoints/asr_model.ckpt, the object could not use the parameters loaded with the key: 1.encoder.layers.0.norm1.norm.weight
2022-05-05 23:51:58,651 - speechbrain.utils.checkpoints - WARNING - During parameter transfer to ModuleList(
  (0): FullyConnectedAutoencoder(
    (encoder): Sequential(
      (0): Linear(in_features=80, out_features=60, bias=True)
      (1): ReLU()
      (2): Linear(in_features=60, out_features=40, bias=True)
      (3): ReLU()
      (4): Linear(in_features=40, out_features=20, bias=True)
    )
    (decoder): Sequential(
      (0): Linear(in_features=20, out_features=40, bias=True)
      (1): ReLU()
      (2): Linear(in_features=40, out_features=60, bias=True)
      (3): ReLU()
      (4): Linear(in_features=60, out_features=80, bias=True)
    )
    (sex_classifier): FullyConnSexClassifier(
      (initial): Sequential(
        (0): Linear(in_features=20, out_features=40, bias=True)
        (1): ReLU()
        (2): Linear(in_features=40, out_features=40, bias=True)
        (3): ReLU()
      )
      (norm): BatchNorm1d(20, eps=1e-05, momentum=0.1, affine=True, track_running_stats=True)
      (classify): Sequential(
        (0): Linear(in_features=80, out_features=40, bias=True)
        (1): BatchNorm1d(40, eps=1e-05, momentum=0.1, affine=True, track_running_stats=True)
        (2): ReLU()
        (3): Linear(in_features=40, out_features=40, bias=True)
        (4): ReLU()
        (5): Linear(in_features=40, out_features=20, bias=True)
        (6): BatchNorm1d(20, eps=1e-05, momentum=0.1, affine=True, track_running_stats=True)
        (7): Linear(in_features=20, out_features=2, bias=True)
      )
      (stats_pooling): StatisticsPooling()
    )
  )
) loading from model_checkpoints/asr_model.ckpt, the object could not use the parameters loaded with the key: 1.encoder.layers.0.norm1.norm.bias
2022-05-05 23:51:58,651 - speechbrain.utils.checkpoints - WARNING - During parameter transfer to ModuleList(
  (0): FullyConnectedAutoencoder(
    (encoder): Sequential(
      (0): Linear(in_features=80, out_features=60, bias=True)
      (1): ReLU()
      (2): Linear(in_features=60, out_features=40, bias=True)
      (3): ReLU()
      (4): Linear(in_features=40, out_features=20, bias=True)
    )
    (decoder): Sequential(
      (0): Linear(in_features=20, out_features=40, bias=True)
      (1): ReLU()
      (2): Linear(in_features=40, out_features=60, bias=True)
      (3): ReLU()
      (4): Linear(in_features=60, out_features=80, bias=True)
    )
    (sex_classifier): FullyConnSexClassifier(
      (initial): Sequential(
        (0): Linear(in_features=20, out_features=40, bias=True)
        (1): ReLU()
        (2): Linear(in_features=40, out_features=40, bias=True)
        (3): ReLU()
      )
      (norm): BatchNorm1d(20, eps=1e-05, momentum=0.1, affine=True, track_running_stats=True)
      (classify): Sequential(
        (0): Linear(in_features=80, out_features=40, bias=True)
        (1): BatchNorm1d(40, eps=1e-05, momentum=0.1, affine=True, track_running_stats=True)
        (2): ReLU()
        (3): Linear(in_features=40, out_features=40, bias=True)
        (4): ReLU()
        (5): Linear(in_features=40, out_features=20, bias=True)
        (6): BatchNorm1d(20, eps=1e-05, momentum=0.1, affine=True, track_running_stats=True)
        (7): Linear(in_features=20, out_features=2, bias=True)
      )
      (stats_pooling): StatisticsPooling()
    )
  )
) loading from model_checkpoints/asr_model.ckpt, the object could not use the parameters loaded with the key: 1.encoder.layers.0.norm2.norm.weight
2022-05-05 23:51:58,652 - speechbrain.utils.checkpoints - WARNING - During parameter transfer to ModuleList(
  (0): FullyConnectedAutoencoder(
    (encoder): Sequential(
      (0): Linear(in_features=80, out_features=60, bias=True)
      (1): ReLU()
      (2): Linear(in_features=60, out_features=40, bias=True)
      (3): ReLU()
      (4): Linear(in_features=40, out_features=20, bias=True)
    )
    (decoder): Sequential(
      (0): Linear(in_features=20, out_features=40, bias=True)
      (1): ReLU()
      (2): Linear(in_features=40, out_features=60, bias=True)
      (3): ReLU()
      (4): Linear(in_features=60, out_features=80, bias=True)
    )
    (sex_classifier): FullyConnSexClassifier(
      (initial): Sequential(
        (0): Linear(in_features=20, out_features=40, bias=True)
        (1): ReLU()
        (2): Linear(in_features=40, out_features=40, bias=True)
        (3): ReLU()
      )
      (norm): BatchNorm1d(20, eps=1e-05, momentum=0.1, affine=True, track_running_stats=True)
      (classify): Sequential(
        (0): Linear(in_features=80, out_features=40, bias=True)
        (1): BatchNorm1d(40, eps=1e-05, momentum=0.1, affine=True, track_running_stats=True)
        (2): ReLU()
        (3): Linear(in_features=40, out_features=40, bias=True)
        (4): ReLU()
        (5): Linear(in_features=40, out_features=20, bias=True)
        (6): BatchNorm1d(20, eps=1e-05, momentum=0.1, affine=True, track_running_stats=True)
        (7): Linear(in_features=20, out_features=2, bias=True)
      )
      (stats_pooling): StatisticsPooling()
    )
  )
) loading from model_checkpoints/asr_model.ckpt, the object could not use the parameters loaded with the key: 1.encoder.layers.0.norm2.norm.bias
2022-05-05 23:51:58,652 - speechbrain.utils.checkpoints - WARNING - During parameter transfer to ModuleList(
  (0): FullyConnectedAutoencoder(
    (encoder): Sequential(
      (0): Linear(in_features=80, out_features=60, bias=True)
      (1): ReLU()
      (2): Linear(in_features=60, out_features=40, bias=True)
      (3): ReLU()
      (4): Linear(in_features=40, out_features=20, bias=True)
    )
    (decoder): Sequential(
      (0): Linear(in_features=20, out_features=40, bias=True)
      (1): ReLU()
      (2): Linear(in_features=40, out_features=60, bias=True)
      (3): ReLU()
      (4): Linear(in_features=60, out_features=80, bias=True)
    )
    (sex_classifier): FullyConnSexClassifier(
      (initial): Sequential(
        (0): Linear(in_features=20, out_features=40, bias=True)
        (1): ReLU()
        (2): Linear(in_features=40, out_features=40, bias=True)
        (3): ReLU()
      )
      (norm): BatchNorm1d(20, eps=1e-05, momentum=0.1, affine=True, track_running_stats=True)
      (classify): Sequential(
        (0): Linear(in_features=80, out_features=40, bias=True)
        (1): BatchNorm1d(40, eps=1e-05, momentum=0.1, affine=True, track_running_stats=True)
        (2): ReLU()
        (3): Linear(in_features=40, out_features=40, bias=True)
        (4): ReLU()
        (5): Linear(in_features=40, out_features=20, bias=True)
        (6): BatchNorm1d(20, eps=1e-05, momentum=0.1, affine=True, track_running_stats=True)
        (7): Linear(in_features=20, out_features=2, bias=True)
      )
      (stats_pooling): StatisticsPooling()
    )
  )
) loading from model_checkpoints/asr_model.ckpt, the object could not use the parameters loaded with the key: 1.encoder.layers.1.self_att.att.in_proj_weight
2022-05-05 23:51:58,653 - speechbrain.utils.checkpoints - WARNING - During parameter transfer to ModuleList(
  (0): FullyConnectedAutoencoder(
    (encoder): Sequential(
      (0): Linear(in_features=80, out_features=60, bias=True)
      (1): ReLU()
      (2): Linear(in_features=60, out_features=40, bias=True)
      (3): ReLU()
      (4): Linear(in_features=40, out_features=20, bias=True)
    )
    (decoder): Sequential(
      (0): Linear(in_features=20, out_features=40, bias=True)
      (1): ReLU()
      (2): Linear(in_features=40, out_features=60, bias=True)
      (3): ReLU()
      (4): Linear(in_features=60, out_features=80, bias=True)
    )
    (sex_classifier): FullyConnSexClassifier(
      (initial): Sequential(
        (0): Linear(in_features=20, out_features=40, bias=True)
        (1): ReLU()
        (2): Linear(in_features=40, out_features=40, bias=True)
        (3): ReLU()
      )
      (norm): BatchNorm1d(20, eps=1e-05, momentum=0.1, affine=True, track_running_stats=True)
      (classify): Sequential(
        (0): Linear(in_features=80, out_features=40, bias=True)
        (1): BatchNorm1d(40, eps=1e-05, momentum=0.1, affine=True, track_running_stats=True)
        (2): ReLU()
        (3): Linear(in_features=40, out_features=40, bias=True)
        (4): ReLU()
        (5): Linear(in_features=40, out_features=20, bias=True)
        (6): BatchNorm1d(20, eps=1e-05, momentum=0.1, affine=True, track_running_stats=True)
        (7): Linear(in_features=20, out_features=2, bias=True)
      )
      (stats_pooling): StatisticsPooling()
    )
  )
) loading from model_checkpoints/asr_model.ckpt, the object could not use the parameters loaded with the key: 1.encoder.layers.1.self_att.att.in_proj_bias
2022-05-05 23:51:58,653 - speechbrain.utils.checkpoints - WARNING - During parameter transfer to ModuleList(
  (0): FullyConnectedAutoencoder(
    (encoder): Sequential(
      (0): Linear(in_features=80, out_features=60, bias=True)
      (1): ReLU()
      (2): Linear(in_features=60, out_features=40, bias=True)
      (3): ReLU()
      (4): Linear(in_features=40, out_features=20, bias=True)
    )
    (decoder): Sequential(
      (0): Linear(in_features=20, out_features=40, bias=True)
      (1): ReLU()
      (2): Linear(in_features=40, out_features=60, bias=True)
      (3): ReLU()
      (4): Linear(in_features=60, out_features=80, bias=True)
    )
    (sex_classifier): FullyConnSexClassifier(
      (initial): Sequential(
        (0): Linear(in_features=20, out_features=40, bias=True)
        (1): ReLU()
        (2): Linear(in_features=40, out_features=40, bias=True)
        (3): ReLU()
      )
      (norm): BatchNorm1d(20, eps=1e-05, momentum=0.1, affine=True, track_running_stats=True)
      (classify): Sequential(
        (0): Linear(in_features=80, out_features=40, bias=True)
        (1): BatchNorm1d(40, eps=1e-05, momentum=0.1, affine=True, track_running_stats=True)
        (2): ReLU()
        (3): Linear(in_features=40, out_features=40, bias=True)
        (4): ReLU()
        (5): Linear(in_features=40, out_features=20, bias=True)
        (6): BatchNorm1d(20, eps=1e-05, momentum=0.1, affine=True, track_running_stats=True)
        (7): Linear(in_features=20, out_features=2, bias=True)
      )
      (stats_pooling): StatisticsPooling()
    )
  )
) loading from model_checkpoints/asr_model.ckpt, the object could not use the parameters loaded with the key: 1.encoder.layers.1.self_att.att.out_proj.weight
2022-05-05 23:51:58,653 - speechbrain.utils.checkpoints - WARNING - During parameter transfer to ModuleList(
  (0): FullyConnectedAutoencoder(
    (encoder): Sequential(
      (0): Linear(in_features=80, out_features=60, bias=True)
      (1): ReLU()
      (2): Linear(in_features=60, out_features=40, bias=True)
      (3): ReLU()
      (4): Linear(in_features=40, out_features=20, bias=True)
    )
    (decoder): Sequential(
      (0): Linear(in_features=20, out_features=40, bias=True)
      (1): ReLU()
      (2): Linear(in_features=40, out_features=60, bias=True)
      (3): ReLU()
      (4): Linear(in_features=60, out_features=80, bias=True)
    )
    (sex_classifier): FullyConnSexClassifier(
      (initial): Sequential(
        (0): Linear(in_features=20, out_features=40, bias=True)
        (1): ReLU()
        (2): Linear(in_features=40, out_features=40, bias=True)
        (3): ReLU()
      )
      (norm): BatchNorm1d(20, eps=1e-05, momentum=0.1, affine=True, track_running_stats=True)
      (classify): Sequential(
        (0): Linear(in_features=80, out_features=40, bias=True)
        (1): BatchNorm1d(40, eps=1e-05, momentum=0.1, affine=True, track_running_stats=True)
        (2): ReLU()
        (3): Linear(in_features=40, out_features=40, bias=True)
        (4): ReLU()
        (5): Linear(in_features=40, out_features=20, bias=True)
        (6): BatchNorm1d(20, eps=1e-05, momentum=0.1, affine=True, track_running_stats=True)
        (7): Linear(in_features=20, out_features=2, bias=True)
      )
      (stats_pooling): StatisticsPooling()
    )
  )
) loading from model_checkpoints/asr_model.ckpt, the object could not use the parameters loaded with the key: 1.encoder.layers.1.self_att.att.out_proj.bias
2022-05-05 23:51:58,654 - speechbrain.utils.checkpoints - WARNING - During parameter transfer to ModuleList(
  (0): FullyConnectedAutoencoder(
    (encoder): Sequential(
      (0): Linear(in_features=80, out_features=60, bias=True)
      (1): ReLU()
      (2): Linear(in_features=60, out_features=40, bias=True)
      (3): ReLU()
      (4): Linear(in_features=40, out_features=20, bias=True)
    )
    (decoder): Sequential(
      (0): Linear(in_features=20, out_features=40, bias=True)
      (1): ReLU()
      (2): Linear(in_features=40, out_features=60, bias=True)
      (3): ReLU()
      (4): Linear(in_features=60, out_features=80, bias=True)
    )
    (sex_classifier): FullyConnSexClassifier(
      (initial): Sequential(
        (0): Linear(in_features=20, out_features=40, bias=True)
        (1): ReLU()
        (2): Linear(in_features=40, out_features=40, bias=True)
        (3): ReLU()
      )
      (norm): BatchNorm1d(20, eps=1e-05, momentum=0.1, affine=True, track_running_stats=True)
      (classify): Sequential(
        (0): Linear(in_features=80, out_features=40, bias=True)
        (1): BatchNorm1d(40, eps=1e-05, momentum=0.1, affine=True, track_running_stats=True)
        (2): ReLU()
        (3): Linear(in_features=40, out_features=40, bias=True)
        (4): ReLU()
        (5): Linear(in_features=40, out_features=20, bias=True)
        (6): BatchNorm1d(20, eps=1e-05, momentum=0.1, affine=True, track_running_stats=True)
        (7): Linear(in_features=20, out_features=2, bias=True)
      )
      (stats_pooling): StatisticsPooling()
    )
  )
) loading from model_checkpoints/asr_model.ckpt, the object could not use the parameters loaded with the key: 1.encoder.layers.1.pos_ffn.ffn.0.weight
2022-05-05 23:51:58,654 - speechbrain.utils.checkpoints - WARNING - During parameter transfer to ModuleList(
  (0): FullyConnectedAutoencoder(
    (encoder): Sequential(
      (0): Linear(in_features=80, out_features=60, bias=True)
      (1): ReLU()
      (2): Linear(in_features=60, out_features=40, bias=True)
      (3): ReLU()
      (4): Linear(in_features=40, out_features=20, bias=True)
    )
    (decoder): Sequential(
      (0): Linear(in_features=20, out_features=40, bias=True)
      (1): ReLU()
      (2): Linear(in_features=40, out_features=60, bias=True)
      (3): ReLU()
      (4): Linear(in_features=60, out_features=80, bias=True)
    )
    (sex_classifier): FullyConnSexClassifier(
      (initial): Sequential(
        (0): Linear(in_features=20, out_features=40, bias=True)
        (1): ReLU()
        (2): Linear(in_features=40, out_features=40, bias=True)
        (3): ReLU()
      )
      (norm): BatchNorm1d(20, eps=1e-05, momentum=0.1, affine=True, track_running_stats=True)
      (classify): Sequential(
        (0): Linear(in_features=80, out_features=40, bias=True)
        (1): BatchNorm1d(40, eps=1e-05, momentum=0.1, affine=True, track_running_stats=True)
        (2): ReLU()
        (3): Linear(in_features=40, out_features=40, bias=True)
        (4): ReLU()
        (5): Linear(in_features=40, out_features=20, bias=True)
        (6): BatchNorm1d(20, eps=1e-05, momentum=0.1, affine=True, track_running_stats=True)
        (7): Linear(in_features=20, out_features=2, bias=True)
      )
      (stats_pooling): StatisticsPooling()
    )
  )
) loading from model_checkpoints/asr_model.ckpt, the object could not use the parameters loaded with the key: 1.encoder.layers.1.pos_ffn.ffn.0.bias
2022-05-05 23:51:58,654 - speechbrain.utils.checkpoints - WARNING - During parameter transfer to ModuleList(
  (0): FullyConnectedAutoencoder(
    (encoder): Sequential(
      (0): Linear(in_features=80, out_features=60, bias=True)
      (1): ReLU()
      (2): Linear(in_features=60, out_features=40, bias=True)
      (3): ReLU()
      (4): Linear(in_features=40, out_features=20, bias=True)
    )
    (decoder): Sequential(
      (0): Linear(in_features=20, out_features=40, bias=True)
      (1): ReLU()
      (2): Linear(in_features=40, out_features=60, bias=True)
      (3): ReLU()
      (4): Linear(in_features=60, out_features=80, bias=True)
    )
    (sex_classifier): FullyConnSexClassifier(
      (initial): Sequential(
        (0): Linear(in_features=20, out_features=40, bias=True)
        (1): ReLU()
        (2): Linear(in_features=40, out_features=40, bias=True)
        (3): ReLU()
      )
      (norm): BatchNorm1d(20, eps=1e-05, momentum=0.1, affine=True, track_running_stats=True)
      (classify): Sequential(
        (0): Linear(in_features=80, out_features=40, bias=True)
        (1): BatchNorm1d(40, eps=1e-05, momentum=0.1, affine=True, track_running_stats=True)
        (2): ReLU()
        (3): Linear(in_features=40, out_features=40, bias=True)
        (4): ReLU()
        (5): Linear(in_features=40, out_features=20, bias=True)
        (6): BatchNorm1d(20, eps=1e-05, momentum=0.1, affine=True, track_running_stats=True)
        (7): Linear(in_features=20, out_features=2, bias=True)
      )
      (stats_pooling): StatisticsPooling()
    )
  )
) loading from model_checkpoints/asr_model.ckpt, the object could not use the parameters loaded with the key: 1.encoder.layers.1.pos_ffn.ffn.3.weight
2022-05-05 23:51:58,655 - speechbrain.utils.checkpoints - WARNING - During parameter transfer to ModuleList(
  (0): FullyConnectedAutoencoder(
    (encoder): Sequential(
      (0): Linear(in_features=80, out_features=60, bias=True)
      (1): ReLU()
      (2): Linear(in_features=60, out_features=40, bias=True)
      (3): ReLU()
      (4): Linear(in_features=40, out_features=20, bias=True)
    )
    (decoder): Sequential(
      (0): Linear(in_features=20, out_features=40, bias=True)
      (1): ReLU()
      (2): Linear(in_features=40, out_features=60, bias=True)
      (3): ReLU()
      (4): Linear(in_features=60, out_features=80, bias=True)
    )
    (sex_classifier): FullyConnSexClassifier(
      (initial): Sequential(
        (0): Linear(in_features=20, out_features=40, bias=True)
        (1): ReLU()
        (2): Linear(in_features=40, out_features=40, bias=True)
        (3): ReLU()
      )
      (norm): BatchNorm1d(20, eps=1e-05, momentum=0.1, affine=True, track_running_stats=True)
      (classify): Sequential(
        (0): Linear(in_features=80, out_features=40, bias=True)
        (1): BatchNorm1d(40, eps=1e-05, momentum=0.1, affine=True, track_running_stats=True)
        (2): ReLU()
        (3): Linear(in_features=40, out_features=40, bias=True)
        (4): ReLU()
        (5): Linear(in_features=40, out_features=20, bias=True)
        (6): BatchNorm1d(20, eps=1e-05, momentum=0.1, affine=True, track_running_stats=True)
        (7): Linear(in_features=20, out_features=2, bias=True)
      )
      (stats_pooling): StatisticsPooling()
    )
  )
) loading from model_checkpoints/asr_model.ckpt, the object could not use the parameters loaded with the key: 1.encoder.layers.1.pos_ffn.ffn.3.bias
2022-05-05 23:51:58,655 - speechbrain.utils.checkpoints - WARNING - During parameter transfer to ModuleList(
  (0): FullyConnectedAutoencoder(
    (encoder): Sequential(
      (0): Linear(in_features=80, out_features=60, bias=True)
      (1): ReLU()
      (2): Linear(in_features=60, out_features=40, bias=True)
      (3): ReLU()
      (4): Linear(in_features=40, out_features=20, bias=True)
    )
    (decoder): Sequential(
      (0): Linear(in_features=20, out_features=40, bias=True)
      (1): ReLU()
      (2): Linear(in_features=40, out_features=60, bias=True)
      (3): ReLU()
      (4): Linear(in_features=60, out_features=80, bias=True)
    )
    (sex_classifier): FullyConnSexClassifier(
      (initial): Sequential(
        (0): Linear(in_features=20, out_features=40, bias=True)
        (1): ReLU()
        (2): Linear(in_features=40, out_features=40, bias=True)
        (3): ReLU()
      )
      (norm): BatchNorm1d(20, eps=1e-05, momentum=0.1, affine=True, track_running_stats=True)
      (classify): Sequential(
        (0): Linear(in_features=80, out_features=40, bias=True)
        (1): BatchNorm1d(40, eps=1e-05, momentum=0.1, affine=True, track_running_stats=True)
        (2): ReLU()
        (3): Linear(in_features=40, out_features=40, bias=True)
        (4): ReLU()
        (5): Linear(in_features=40, out_features=20, bias=True)
        (6): BatchNorm1d(20, eps=1e-05, momentum=0.1, affine=True, track_running_stats=True)
        (7): Linear(in_features=20, out_features=2, bias=True)
      )
      (stats_pooling): StatisticsPooling()
    )
  )
) loading from model_checkpoints/asr_model.ckpt, the object could not use the parameters loaded with the key: 1.encoder.layers.1.norm1.norm.weight
2022-05-05 23:51:58,655 - speechbrain.utils.checkpoints - WARNING - During parameter transfer to ModuleList(
  (0): FullyConnectedAutoencoder(
    (encoder): Sequential(
      (0): Linear(in_features=80, out_features=60, bias=True)
      (1): ReLU()
      (2): Linear(in_features=60, out_features=40, bias=True)
      (3): ReLU()
      (4): Linear(in_features=40, out_features=20, bias=True)
    )
    (decoder): Sequential(
      (0): Linear(in_features=20, out_features=40, bias=True)
      (1): ReLU()
      (2): Linear(in_features=40, out_features=60, bias=True)
      (3): ReLU()
      (4): Linear(in_features=60, out_features=80, bias=True)
    )
    (sex_classifier): FullyConnSexClassifier(
      (initial): Sequential(
        (0): Linear(in_features=20, out_features=40, bias=True)
        (1): ReLU()
        (2): Linear(in_features=40, out_features=40, bias=True)
        (3): ReLU()
      )
      (norm): BatchNorm1d(20, eps=1e-05, momentum=0.1, affine=True, track_running_stats=True)
      (classify): Sequential(
        (0): Linear(in_features=80, out_features=40, bias=True)
        (1): BatchNorm1d(40, eps=1e-05, momentum=0.1, affine=True, track_running_stats=True)
        (2): ReLU()
        (3): Linear(in_features=40, out_features=40, bias=True)
        (4): ReLU()
        (5): Linear(in_features=40, out_features=20, bias=True)
        (6): BatchNorm1d(20, eps=1e-05, momentum=0.1, affine=True, track_running_stats=True)
        (7): Linear(in_features=20, out_features=2, bias=True)
      )
      (stats_pooling): StatisticsPooling()
    )
  )
) loading from model_checkpoints/asr_model.ckpt, the object could not use the parameters loaded with the key: 1.encoder.layers.1.norm1.norm.bias
2022-05-05 23:51:58,656 - speechbrain.utils.checkpoints - WARNING - During parameter transfer to ModuleList(
  (0): FullyConnectedAutoencoder(
    (encoder): Sequential(
      (0): Linear(in_features=80, out_features=60, bias=True)
      (1): ReLU()
      (2): Linear(in_features=60, out_features=40, bias=True)
      (3): ReLU()
      (4): Linear(in_features=40, out_features=20, bias=True)
    )
    (decoder): Sequential(
      (0): Linear(in_features=20, out_features=40, bias=True)
      (1): ReLU()
      (2): Linear(in_features=40, out_features=60, bias=True)
      (3): ReLU()
      (4): Linear(in_features=60, out_features=80, bias=True)
    )
    (sex_classifier): FullyConnSexClassifier(
      (initial): Sequential(
        (0): Linear(in_features=20, out_features=40, bias=True)
        (1): ReLU()
        (2): Linear(in_features=40, out_features=40, bias=True)
        (3): ReLU()
      )
      (norm): BatchNorm1d(20, eps=1e-05, momentum=0.1, affine=True, track_running_stats=True)
      (classify): Sequential(
        (0): Linear(in_features=80, out_features=40, bias=True)
        (1): BatchNorm1d(40, eps=1e-05, momentum=0.1, affine=True, track_running_stats=True)
        (2): ReLU()
        (3): Linear(in_features=40, out_features=40, bias=True)
        (4): ReLU()
        (5): Linear(in_features=40, out_features=20, bias=True)
        (6): BatchNorm1d(20, eps=1e-05, momentum=0.1, affine=True, track_running_stats=True)
        (7): Linear(in_features=20, out_features=2, bias=True)
      )
      (stats_pooling): StatisticsPooling()
    )
  )
) loading from model_checkpoints/asr_model.ckpt, the object could not use the parameters loaded with the key: 1.encoder.layers.1.norm2.norm.weight
2022-05-05 23:51:58,656 - speechbrain.utils.checkpoints - WARNING - During parameter transfer to ModuleList(
  (0): FullyConnectedAutoencoder(
    (encoder): Sequential(
      (0): Linear(in_features=80, out_features=60, bias=True)
      (1): ReLU()
      (2): Linear(in_features=60, out_features=40, bias=True)
      (3): ReLU()
      (4): Linear(in_features=40, out_features=20, bias=True)
    )
    (decoder): Sequential(
      (0): Linear(in_features=20, out_features=40, bias=True)
      (1): ReLU()
      (2): Linear(in_features=40, out_features=60, bias=True)
      (3): ReLU()
      (4): Linear(in_features=60, out_features=80, bias=True)
    )
    (sex_classifier): FullyConnSexClassifier(
      (initial): Sequential(
        (0): Linear(in_features=20, out_features=40, bias=True)
        (1): ReLU()
        (2): Linear(in_features=40, out_features=40, bias=True)
        (3): ReLU()
      )
      (norm): BatchNorm1d(20, eps=1e-05, momentum=0.1, affine=True, track_running_stats=True)
      (classify): Sequential(
        (0): Linear(in_features=80, out_features=40, bias=True)
        (1): BatchNorm1d(40, eps=1e-05, momentum=0.1, affine=True, track_running_stats=True)
        (2): ReLU()
        (3): Linear(in_features=40, out_features=40, bias=True)
        (4): ReLU()
        (5): Linear(in_features=40, out_features=20, bias=True)
        (6): BatchNorm1d(20, eps=1e-05, momentum=0.1, affine=True, track_running_stats=True)
        (7): Linear(in_features=20, out_features=2, bias=True)
      )
      (stats_pooling): StatisticsPooling()
    )
  )
) loading from model_checkpoints/asr_model.ckpt, the object could not use the parameters loaded with the key: 1.encoder.layers.1.norm2.norm.bias
2022-05-05 23:51:58,656 - speechbrain.utils.checkpoints - WARNING - During parameter transfer to ModuleList(
  (0): FullyConnectedAutoencoder(
    (encoder): Sequential(
      (0): Linear(in_features=80, out_features=60, bias=True)
      (1): ReLU()
      (2): Linear(in_features=60, out_features=40, bias=True)
      (3): ReLU()
      (4): Linear(in_features=40, out_features=20, bias=True)
    )
    (decoder): Sequential(
      (0): Linear(in_features=20, out_features=40, bias=True)
      (1): ReLU()
      (2): Linear(in_features=40, out_features=60, bias=True)
      (3): ReLU()
      (4): Linear(in_features=60, out_features=80, bias=True)
    )
    (sex_classifier): FullyConnSexClassifier(
      (initial): Sequential(
        (0): Linear(in_features=20, out_features=40, bias=True)
        (1): ReLU()
        (2): Linear(in_features=40, out_features=40, bias=True)
        (3): ReLU()
      )
      (norm): BatchNorm1d(20, eps=1e-05, momentum=0.1, affine=True, track_running_stats=True)
      (classify): Sequential(
        (0): Linear(in_features=80, out_features=40, bias=True)
        (1): BatchNorm1d(40, eps=1e-05, momentum=0.1, affine=True, track_running_stats=True)
        (2): ReLU()
        (3): Linear(in_features=40, out_features=40, bias=True)
        (4): ReLU()
        (5): Linear(in_features=40, out_features=20, bias=True)
        (6): BatchNorm1d(20, eps=1e-05, momentum=0.1, affine=True, track_running_stats=True)
        (7): Linear(in_features=20, out_features=2, bias=True)
      )
      (stats_pooling): StatisticsPooling()
    )
  )
) loading from model_checkpoints/asr_model.ckpt, the object could not use the parameters loaded with the key: 1.encoder.layers.2.self_att.att.in_proj_weight
2022-05-05 23:51:58,657 - speechbrain.utils.checkpoints - WARNING - During parameter transfer to ModuleList(
  (0): FullyConnectedAutoencoder(
    (encoder): Sequential(
      (0): Linear(in_features=80, out_features=60, bias=True)
      (1): ReLU()
      (2): Linear(in_features=60, out_features=40, bias=True)
      (3): ReLU()
      (4): Linear(in_features=40, out_features=20, bias=True)
    )
    (decoder): Sequential(
      (0): Linear(in_features=20, out_features=40, bias=True)
      (1): ReLU()
      (2): Linear(in_features=40, out_features=60, bias=True)
      (3): ReLU()
      (4): Linear(in_features=60, out_features=80, bias=True)
    )
    (sex_classifier): FullyConnSexClassifier(
      (initial): Sequential(
        (0): Linear(in_features=20, out_features=40, bias=True)
        (1): ReLU()
        (2): Linear(in_features=40, out_features=40, bias=True)
        (3): ReLU()
      )
      (norm): BatchNorm1d(20, eps=1e-05, momentum=0.1, affine=True, track_running_stats=True)
      (classify): Sequential(
        (0): Linear(in_features=80, out_features=40, bias=True)
        (1): BatchNorm1d(40, eps=1e-05, momentum=0.1, affine=True, track_running_stats=True)
        (2): ReLU()
        (3): Linear(in_features=40, out_features=40, bias=True)
        (4): ReLU()
        (5): Linear(in_features=40, out_features=20, bias=True)
        (6): BatchNorm1d(20, eps=1e-05, momentum=0.1, affine=True, track_running_stats=True)
        (7): Linear(in_features=20, out_features=2, bias=True)
      )
      (stats_pooling): StatisticsPooling()
    )
  )
) loading from model_checkpoints/asr_model.ckpt, the object could not use the parameters loaded with the key: 1.encoder.layers.2.self_att.att.in_proj_bias
2022-05-05 23:51:58,657 - speechbrain.utils.checkpoints - WARNING - During parameter transfer to ModuleList(
  (0): FullyConnectedAutoencoder(
    (encoder): Sequential(
      (0): Linear(in_features=80, out_features=60, bias=True)
      (1): ReLU()
      (2): Linear(in_features=60, out_features=40, bias=True)
      (3): ReLU()
      (4): Linear(in_features=40, out_features=20, bias=True)
    )
    (decoder): Sequential(
      (0): Linear(in_features=20, out_features=40, bias=True)
      (1): ReLU()
      (2): Linear(in_features=40, out_features=60, bias=True)
      (3): ReLU()
      (4): Linear(in_features=60, out_features=80, bias=True)
    )
    (sex_classifier): FullyConnSexClassifier(
      (initial): Sequential(
        (0): Linear(in_features=20, out_features=40, bias=True)
        (1): ReLU()
        (2): Linear(in_features=40, out_features=40, bias=True)
        (3): ReLU()
      )
      (norm): BatchNorm1d(20, eps=1e-05, momentum=0.1, affine=True, track_running_stats=True)
      (classify): Sequential(
        (0): Linear(in_features=80, out_features=40, bias=True)
        (1): BatchNorm1d(40, eps=1e-05, momentum=0.1, affine=True, track_running_stats=True)
        (2): ReLU()
        (3): Linear(in_features=40, out_features=40, bias=True)
        (4): ReLU()
        (5): Linear(in_features=40, out_features=20, bias=True)
        (6): BatchNorm1d(20, eps=1e-05, momentum=0.1, affine=True, track_running_stats=True)
        (7): Linear(in_features=20, out_features=2, bias=True)
      )
      (stats_pooling): StatisticsPooling()
    )
  )
) loading from model_checkpoints/asr_model.ckpt, the object could not use the parameters loaded with the key: 1.encoder.layers.2.self_att.att.out_proj.weight
2022-05-05 23:51:58,658 - speechbrain.utils.checkpoints - WARNING - During parameter transfer to ModuleList(
  (0): FullyConnectedAutoencoder(
    (encoder): Sequential(
      (0): Linear(in_features=80, out_features=60, bias=True)
      (1): ReLU()
      (2): Linear(in_features=60, out_features=40, bias=True)
      (3): ReLU()
      (4): Linear(in_features=40, out_features=20, bias=True)
    )
    (decoder): Sequential(
      (0): Linear(in_features=20, out_features=40, bias=True)
      (1): ReLU()
      (2): Linear(in_features=40, out_features=60, bias=True)
      (3): ReLU()
      (4): Linear(in_features=60, out_features=80, bias=True)
    )
    (sex_classifier): FullyConnSexClassifier(
      (initial): Sequential(
        (0): Linear(in_features=20, out_features=40, bias=True)
        (1): ReLU()
        (2): Linear(in_features=40, out_features=40, bias=True)
        (3): ReLU()
      )
      (norm): BatchNorm1d(20, eps=1e-05, momentum=0.1, affine=True, track_running_stats=True)
      (classify): Sequential(
        (0): Linear(in_features=80, out_features=40, bias=True)
        (1): BatchNorm1d(40, eps=1e-05, momentum=0.1, affine=True, track_running_stats=True)
        (2): ReLU()
        (3): Linear(in_features=40, out_features=40, bias=True)
        (4): ReLU()
        (5): Linear(in_features=40, out_features=20, bias=True)
        (6): BatchNorm1d(20, eps=1e-05, momentum=0.1, affine=True, track_running_stats=True)
        (7): Linear(in_features=20, out_features=2, bias=True)
      )
      (stats_pooling): StatisticsPooling()
    )
  )
) loading from model_checkpoints/asr_model.ckpt, the object could not use the parameters loaded with the key: 1.encoder.layers.2.self_att.att.out_proj.bias
2022-05-05 23:51:58,658 - speechbrain.utils.checkpoints - WARNING - During parameter transfer to ModuleList(
  (0): FullyConnectedAutoencoder(
    (encoder): Sequential(
      (0): Linear(in_features=80, out_features=60, bias=True)
      (1): ReLU()
      (2): Linear(in_features=60, out_features=40, bias=True)
      (3): ReLU()
      (4): Linear(in_features=40, out_features=20, bias=True)
    )
    (decoder): Sequential(
      (0): Linear(in_features=20, out_features=40, bias=True)
      (1): ReLU()
      (2): Linear(in_features=40, out_features=60, bias=True)
      (3): ReLU()
      (4): Linear(in_features=60, out_features=80, bias=True)
    )
    (sex_classifier): FullyConnSexClassifier(
      (initial): Sequential(
        (0): Linear(in_features=20, out_features=40, bias=True)
        (1): ReLU()
        (2): Linear(in_features=40, out_features=40, bias=True)
        (3): ReLU()
      )
      (norm): BatchNorm1d(20, eps=1e-05, momentum=0.1, affine=True, track_running_stats=True)
      (classify): Sequential(
        (0): Linear(in_features=80, out_features=40, bias=True)
        (1): BatchNorm1d(40, eps=1e-05, momentum=0.1, affine=True, track_running_stats=True)
        (2): ReLU()
        (3): Linear(in_features=40, out_features=40, bias=True)
        (4): ReLU()
        (5): Linear(in_features=40, out_features=20, bias=True)
        (6): BatchNorm1d(20, eps=1e-05, momentum=0.1, affine=True, track_running_stats=True)
        (7): Linear(in_features=20, out_features=2, bias=True)
      )
      (stats_pooling): StatisticsPooling()
    )
  )
) loading from model_checkpoints/asr_model.ckpt, the object could not use the parameters loaded with the key: 1.encoder.layers.2.pos_ffn.ffn.0.weight
2022-05-05 23:51:58,658 - speechbrain.utils.checkpoints - WARNING - During parameter transfer to ModuleList(
  (0): FullyConnectedAutoencoder(
    (encoder): Sequential(
      (0): Linear(in_features=80, out_features=60, bias=True)
      (1): ReLU()
      (2): Linear(in_features=60, out_features=40, bias=True)
      (3): ReLU()
      (4): Linear(in_features=40, out_features=20, bias=True)
    )
    (decoder): Sequential(
      (0): Linear(in_features=20, out_features=40, bias=True)
      (1): ReLU()
      (2): Linear(in_features=40, out_features=60, bias=True)
      (3): ReLU()
      (4): Linear(in_features=60, out_features=80, bias=True)
    )
    (sex_classifier): FullyConnSexClassifier(
      (initial): Sequential(
        (0): Linear(in_features=20, out_features=40, bias=True)
        (1): ReLU()
        (2): Linear(in_features=40, out_features=40, bias=True)
        (3): ReLU()
      )
      (norm): BatchNorm1d(20, eps=1e-05, momentum=0.1, affine=True, track_running_stats=True)
      (classify): Sequential(
        (0): Linear(in_features=80, out_features=40, bias=True)
        (1): BatchNorm1d(40, eps=1e-05, momentum=0.1, affine=True, track_running_stats=True)
        (2): ReLU()
        (3): Linear(in_features=40, out_features=40, bias=True)
        (4): ReLU()
        (5): Linear(in_features=40, out_features=20, bias=True)
        (6): BatchNorm1d(20, eps=1e-05, momentum=0.1, affine=True, track_running_stats=True)
        (7): Linear(in_features=20, out_features=2, bias=True)
      )
      (stats_pooling): StatisticsPooling()
    )
  )
) loading from model_checkpoints/asr_model.ckpt, the object could not use the parameters loaded with the key: 1.encoder.layers.2.pos_ffn.ffn.0.bias
2022-05-05 23:51:58,659 - speechbrain.utils.checkpoints - WARNING - During parameter transfer to ModuleList(
  (0): FullyConnectedAutoencoder(
    (encoder): Sequential(
      (0): Linear(in_features=80, out_features=60, bias=True)
      (1): ReLU()
      (2): Linear(in_features=60, out_features=40, bias=True)
      (3): ReLU()
      (4): Linear(in_features=40, out_features=20, bias=True)
    )
    (decoder): Sequential(
      (0): Linear(in_features=20, out_features=40, bias=True)
      (1): ReLU()
      (2): Linear(in_features=40, out_features=60, bias=True)
      (3): ReLU()
      (4): Linear(in_features=60, out_features=80, bias=True)
    )
    (sex_classifier): FullyConnSexClassifier(
      (initial): Sequential(
        (0): Linear(in_features=20, out_features=40, bias=True)
        (1): ReLU()
        (2): Linear(in_features=40, out_features=40, bias=True)
        (3): ReLU()
      )
      (norm): BatchNorm1d(20, eps=1e-05, momentum=0.1, affine=True, track_running_stats=True)
      (classify): Sequential(
        (0): Linear(in_features=80, out_features=40, bias=True)
        (1): BatchNorm1d(40, eps=1e-05, momentum=0.1, affine=True, track_running_stats=True)
        (2): ReLU()
        (3): Linear(in_features=40, out_features=40, bias=True)
        (4): ReLU()
        (5): Linear(in_features=40, out_features=20, bias=True)
        (6): BatchNorm1d(20, eps=1e-05, momentum=0.1, affine=True, track_running_stats=True)
        (7): Linear(in_features=20, out_features=2, bias=True)
      )
      (stats_pooling): StatisticsPooling()
    )
  )
) loading from model_checkpoints/asr_model.ckpt, the object could not use the parameters loaded with the key: 1.encoder.layers.2.pos_ffn.ffn.3.weight
2022-05-05 23:51:58,659 - speechbrain.utils.checkpoints - WARNING - During parameter transfer to ModuleList(
  (0): FullyConnectedAutoencoder(
    (encoder): Sequential(
      (0): Linear(in_features=80, out_features=60, bias=True)
      (1): ReLU()
      (2): Linear(in_features=60, out_features=40, bias=True)
      (3): ReLU()
      (4): Linear(in_features=40, out_features=20, bias=True)
    )
    (decoder): Sequential(
      (0): Linear(in_features=20, out_features=40, bias=True)
      (1): ReLU()
      (2): Linear(in_features=40, out_features=60, bias=True)
      (3): ReLU()
      (4): Linear(in_features=60, out_features=80, bias=True)
    )
    (sex_classifier): FullyConnSexClassifier(
      (initial): Sequential(
        (0): Linear(in_features=20, out_features=40, bias=True)
        (1): ReLU()
        (2): Linear(in_features=40, out_features=40, bias=True)
        (3): ReLU()
      )
      (norm): BatchNorm1d(20, eps=1e-05, momentum=0.1, affine=True, track_running_stats=True)
      (classify): Sequential(
        (0): Linear(in_features=80, out_features=40, bias=True)
        (1): BatchNorm1d(40, eps=1e-05, momentum=0.1, affine=True, track_running_stats=True)
        (2): ReLU()
        (3): Linear(in_features=40, out_features=40, bias=True)
        (4): ReLU()
        (5): Linear(in_features=40, out_features=20, bias=True)
        (6): BatchNorm1d(20, eps=1e-05, momentum=0.1, affine=True, track_running_stats=True)
        (7): Linear(in_features=20, out_features=2, bias=True)
      )
      (stats_pooling): StatisticsPooling()
    )
  )
) loading from model_checkpoints/asr_model.ckpt, the object could not use the parameters loaded with the key: 1.encoder.layers.2.pos_ffn.ffn.3.bias
2022-05-05 23:51:58,659 - speechbrain.utils.checkpoints - WARNING - During parameter transfer to ModuleList(
  (0): FullyConnectedAutoencoder(
    (encoder): Sequential(
      (0): Linear(in_features=80, out_features=60, bias=True)
      (1): ReLU()
      (2): Linear(in_features=60, out_features=40, bias=True)
      (3): ReLU()
      (4): Linear(in_features=40, out_features=20, bias=True)
    )
    (decoder): Sequential(
      (0): Linear(in_features=20, out_features=40, bias=True)
      (1): ReLU()
      (2): Linear(in_features=40, out_features=60, bias=True)
      (3): ReLU()
      (4): Linear(in_features=60, out_features=80, bias=True)
    )
    (sex_classifier): FullyConnSexClassifier(
      (initial): Sequential(
        (0): Linear(in_features=20, out_features=40, bias=True)
        (1): ReLU()
        (2): Linear(in_features=40, out_features=40, bias=True)
        (3): ReLU()
      )
      (norm): BatchNorm1d(20, eps=1e-05, momentum=0.1, affine=True, track_running_stats=True)
      (classify): Sequential(
        (0): Linear(in_features=80, out_features=40, bias=True)
        (1): BatchNorm1d(40, eps=1e-05, momentum=0.1, affine=True, track_running_stats=True)
        (2): ReLU()
        (3): Linear(in_features=40, out_features=40, bias=True)
        (4): ReLU()
        (5): Linear(in_features=40, out_features=20, bias=True)
        (6): BatchNorm1d(20, eps=1e-05, momentum=0.1, affine=True, track_running_stats=True)
        (7): Linear(in_features=20, out_features=2, bias=True)
      )
      (stats_pooling): StatisticsPooling()
    )
  )
) loading from model_checkpoints/asr_model.ckpt, the object could not use the parameters loaded with the key: 1.encoder.layers.2.norm1.norm.weight
2022-05-05 23:51:58,660 - speechbrain.utils.checkpoints - WARNING - During parameter transfer to ModuleList(
  (0): FullyConnectedAutoencoder(
    (encoder): Sequential(
      (0): Linear(in_features=80, out_features=60, bias=True)
      (1): ReLU()
      (2): Linear(in_features=60, out_features=40, bias=True)
      (3): ReLU()
      (4): Linear(in_features=40, out_features=20, bias=True)
    )
    (decoder): Sequential(
      (0): Linear(in_features=20, out_features=40, bias=True)
      (1): ReLU()
      (2): Linear(in_features=40, out_features=60, bias=True)
      (3): ReLU()
      (4): Linear(in_features=60, out_features=80, bias=True)
    )
    (sex_classifier): FullyConnSexClassifier(
      (initial): Sequential(
        (0): Linear(in_features=20, out_features=40, bias=True)
        (1): ReLU()
        (2): Linear(in_features=40, out_features=40, bias=True)
        (3): ReLU()
      )
      (norm): BatchNorm1d(20, eps=1e-05, momentum=0.1, affine=True, track_running_stats=True)
      (classify): Sequential(
        (0): Linear(in_features=80, out_features=40, bias=True)
        (1): BatchNorm1d(40, eps=1e-05, momentum=0.1, affine=True, track_running_stats=True)
        (2): ReLU()
        (3): Linear(in_features=40, out_features=40, bias=True)
        (4): ReLU()
        (5): Linear(in_features=40, out_features=20, bias=True)
        (6): BatchNorm1d(20, eps=1e-05, momentum=0.1, affine=True, track_running_stats=True)
        (7): Linear(in_features=20, out_features=2, bias=True)
      )
      (stats_pooling): StatisticsPooling()
    )
  )
) loading from model_checkpoints/asr_model.ckpt, the object could not use the parameters loaded with the key: 1.encoder.layers.2.norm1.norm.bias
2022-05-05 23:51:58,660 - speechbrain.utils.checkpoints - WARNING - During parameter transfer to ModuleList(
  (0): FullyConnectedAutoencoder(
    (encoder): Sequential(
      (0): Linear(in_features=80, out_features=60, bias=True)
      (1): ReLU()
      (2): Linear(in_features=60, out_features=40, bias=True)
      (3): ReLU()
      (4): Linear(in_features=40, out_features=20, bias=True)
    )
    (decoder): Sequential(
      (0): Linear(in_features=20, out_features=40, bias=True)
      (1): ReLU()
      (2): Linear(in_features=40, out_features=60, bias=True)
      (3): ReLU()
      (4): Linear(in_features=60, out_features=80, bias=True)
    )
    (sex_classifier): FullyConnSexClassifier(
      (initial): Sequential(
        (0): Linear(in_features=20, out_features=40, bias=True)
        (1): ReLU()
        (2): Linear(in_features=40, out_features=40, bias=True)
        (3): ReLU()
      )
      (norm): BatchNorm1d(20, eps=1e-05, momentum=0.1, affine=True, track_running_stats=True)
      (classify): Sequential(
        (0): Linear(in_features=80, out_features=40, bias=True)
        (1): BatchNorm1d(40, eps=1e-05, momentum=0.1, affine=True, track_running_stats=True)
        (2): ReLU()
        (3): Linear(in_features=40, out_features=40, bias=True)
        (4): ReLU()
        (5): Linear(in_features=40, out_features=20, bias=True)
        (6): BatchNorm1d(20, eps=1e-05, momentum=0.1, affine=True, track_running_stats=True)
        (7): Linear(in_features=20, out_features=2, bias=True)
      )
      (stats_pooling): StatisticsPooling()
    )
  )
) loading from model_checkpoints/asr_model.ckpt, the object could not use the parameters loaded with the key: 1.encoder.layers.2.norm2.norm.weight
2022-05-05 23:51:58,660 - speechbrain.utils.checkpoints - WARNING - During parameter transfer to ModuleList(
  (0): FullyConnectedAutoencoder(
    (encoder): Sequential(
      (0): Linear(in_features=80, out_features=60, bias=True)
      (1): ReLU()
      (2): Linear(in_features=60, out_features=40, bias=True)
      (3): ReLU()
      (4): Linear(in_features=40, out_features=20, bias=True)
    )
    (decoder): Sequential(
      (0): Linear(in_features=20, out_features=40, bias=True)
      (1): ReLU()
      (2): Linear(in_features=40, out_features=60, bias=True)
      (3): ReLU()
      (4): Linear(in_features=60, out_features=80, bias=True)
    )
    (sex_classifier): FullyConnSexClassifier(
      (initial): Sequential(
        (0): Linear(in_features=20, out_features=40, bias=True)
        (1): ReLU()
        (2): Linear(in_features=40, out_features=40, bias=True)
        (3): ReLU()
      )
      (norm): BatchNorm1d(20, eps=1e-05, momentum=0.1, affine=True, track_running_stats=True)
      (classify): Sequential(
        (0): Linear(in_features=80, out_features=40, bias=True)
        (1): BatchNorm1d(40, eps=1e-05, momentum=0.1, affine=True, track_running_stats=True)
        (2): ReLU()
        (3): Linear(in_features=40, out_features=40, bias=True)
        (4): ReLU()
        (5): Linear(in_features=40, out_features=20, bias=True)
        (6): BatchNorm1d(20, eps=1e-05, momentum=0.1, affine=True, track_running_stats=True)
        (7): Linear(in_features=20, out_features=2, bias=True)
      )
      (stats_pooling): StatisticsPooling()
    )
  )
) loading from model_checkpoints/asr_model.ckpt, the object could not use the parameters loaded with the key: 1.encoder.layers.2.norm2.norm.bias
2022-05-05 23:51:58,661 - speechbrain.utils.checkpoints - WARNING - During parameter transfer to ModuleList(
  (0): FullyConnectedAutoencoder(
    (encoder): Sequential(
      (0): Linear(in_features=80, out_features=60, bias=True)
      (1): ReLU()
      (2): Linear(in_features=60, out_features=40, bias=True)
      (3): ReLU()
      (4): Linear(in_features=40, out_features=20, bias=True)
    )
    (decoder): Sequential(
      (0): Linear(in_features=20, out_features=40, bias=True)
      (1): ReLU()
      (2): Linear(in_features=40, out_features=60, bias=True)
      (3): ReLU()
      (4): Linear(in_features=60, out_features=80, bias=True)
    )
    (sex_classifier): FullyConnSexClassifier(
      (initial): Sequential(
        (0): Linear(in_features=20, out_features=40, bias=True)
        (1): ReLU()
        (2): Linear(in_features=40, out_features=40, bias=True)
        (3): ReLU()
      )
      (norm): BatchNorm1d(20, eps=1e-05, momentum=0.1, affine=True, track_running_stats=True)
      (classify): Sequential(
        (0): Linear(in_features=80, out_features=40, bias=True)
        (1): BatchNorm1d(40, eps=1e-05, momentum=0.1, affine=True, track_running_stats=True)
        (2): ReLU()
        (3): Linear(in_features=40, out_features=40, bias=True)
        (4): ReLU()
        (5): Linear(in_features=40, out_features=20, bias=True)
        (6): BatchNorm1d(20, eps=1e-05, momentum=0.1, affine=True, track_running_stats=True)
        (7): Linear(in_features=20, out_features=2, bias=True)
      )
      (stats_pooling): StatisticsPooling()
    )
  )
) loading from model_checkpoints/asr_model.ckpt, the object could not use the parameters loaded with the key: 1.encoder.layers.3.self_att.att.in_proj_weight
2022-05-05 23:51:58,661 - speechbrain.utils.checkpoints - WARNING - During parameter transfer to ModuleList(
  (0): FullyConnectedAutoencoder(
    (encoder): Sequential(
      (0): Linear(in_features=80, out_features=60, bias=True)
      (1): ReLU()
      (2): Linear(in_features=60, out_features=40, bias=True)
      (3): ReLU()
      (4): Linear(in_features=40, out_features=20, bias=True)
    )
    (decoder): Sequential(
      (0): Linear(in_features=20, out_features=40, bias=True)
      (1): ReLU()
      (2): Linear(in_features=40, out_features=60, bias=True)
      (3): ReLU()
      (4): Linear(in_features=60, out_features=80, bias=True)
    )
    (sex_classifier): FullyConnSexClassifier(
      (initial): Sequential(
        (0): Linear(in_features=20, out_features=40, bias=True)
        (1): ReLU()
        (2): Linear(in_features=40, out_features=40, bias=True)
        (3): ReLU()
      )
      (norm): BatchNorm1d(20, eps=1e-05, momentum=0.1, affine=True, track_running_stats=True)
      (classify): Sequential(
        (0): Linear(in_features=80, out_features=40, bias=True)
        (1): BatchNorm1d(40, eps=1e-05, momentum=0.1, affine=True, track_running_stats=True)
        (2): ReLU()
        (3): Linear(in_features=40, out_features=40, bias=True)
        (4): ReLU()
        (5): Linear(in_features=40, out_features=20, bias=True)
        (6): BatchNorm1d(20, eps=1e-05, momentum=0.1, affine=True, track_running_stats=True)
        (7): Linear(in_features=20, out_features=2, bias=True)
      )
      (stats_pooling): StatisticsPooling()
    )
  )
) loading from model_checkpoints/asr_model.ckpt, the object could not use the parameters loaded with the key: 1.encoder.layers.3.self_att.att.in_proj_bias
2022-05-05 23:51:58,661 - speechbrain.utils.checkpoints - WARNING - During parameter transfer to ModuleList(
  (0): FullyConnectedAutoencoder(
    (encoder): Sequential(
      (0): Linear(in_features=80, out_features=60, bias=True)
      (1): ReLU()
      (2): Linear(in_features=60, out_features=40, bias=True)
      (3): ReLU()
      (4): Linear(in_features=40, out_features=20, bias=True)
    )
    (decoder): Sequential(
      (0): Linear(in_features=20, out_features=40, bias=True)
      (1): ReLU()
      (2): Linear(in_features=40, out_features=60, bias=True)
      (3): ReLU()
      (4): Linear(in_features=60, out_features=80, bias=True)
    )
    (sex_classifier): FullyConnSexClassifier(
      (initial): Sequential(
        (0): Linear(in_features=20, out_features=40, bias=True)
        (1): ReLU()
        (2): Linear(in_features=40, out_features=40, bias=True)
        (3): ReLU()
      )
      (norm): BatchNorm1d(20, eps=1e-05, momentum=0.1, affine=True, track_running_stats=True)
      (classify): Sequential(
        (0): Linear(in_features=80, out_features=40, bias=True)
        (1): BatchNorm1d(40, eps=1e-05, momentum=0.1, affine=True, track_running_stats=True)
        (2): ReLU()
        (3): Linear(in_features=40, out_features=40, bias=True)
        (4): ReLU()
        (5): Linear(in_features=40, out_features=20, bias=True)
        (6): BatchNorm1d(20, eps=1e-05, momentum=0.1, affine=True, track_running_stats=True)
        (7): Linear(in_features=20, out_features=2, bias=True)
      )
      (stats_pooling): StatisticsPooling()
    )
  )
) loading from model_checkpoints/asr_model.ckpt, the object could not use the parameters loaded with the key: 1.encoder.layers.3.self_att.att.out_proj.weight
2022-05-05 23:51:58,662 - speechbrain.utils.checkpoints - WARNING - During parameter transfer to ModuleList(
  (0): FullyConnectedAutoencoder(
    (encoder): Sequential(
      (0): Linear(in_features=80, out_features=60, bias=True)
      (1): ReLU()
      (2): Linear(in_features=60, out_features=40, bias=True)
      (3): ReLU()
      (4): Linear(in_features=40, out_features=20, bias=True)
    )
    (decoder): Sequential(
      (0): Linear(in_features=20, out_features=40, bias=True)
      (1): ReLU()
      (2): Linear(in_features=40, out_features=60, bias=True)
      (3): ReLU()
      (4): Linear(in_features=60, out_features=80, bias=True)
    )
    (sex_classifier): FullyConnSexClassifier(
      (initial): Sequential(
        (0): Linear(in_features=20, out_features=40, bias=True)
        (1): ReLU()
        (2): Linear(in_features=40, out_features=40, bias=True)
        (3): ReLU()
      )
      (norm): BatchNorm1d(20, eps=1e-05, momentum=0.1, affine=True, track_running_stats=True)
      (classify): Sequential(
        (0): Linear(in_features=80, out_features=40, bias=True)
        (1): BatchNorm1d(40, eps=1e-05, momentum=0.1, affine=True, track_running_stats=True)
        (2): ReLU()
        (3): Linear(in_features=40, out_features=40, bias=True)
        (4): ReLU()
        (5): Linear(in_features=40, out_features=20, bias=True)
        (6): BatchNorm1d(20, eps=1e-05, momentum=0.1, affine=True, track_running_stats=True)
        (7): Linear(in_features=20, out_features=2, bias=True)
      )
      (stats_pooling): StatisticsPooling()
    )
  )
) loading from model_checkpoints/asr_model.ckpt, the object could not use the parameters loaded with the key: 1.encoder.layers.3.self_att.att.out_proj.bias
2022-05-05 23:51:58,662 - speechbrain.utils.checkpoints - WARNING - During parameter transfer to ModuleList(
  (0): FullyConnectedAutoencoder(
    (encoder): Sequential(
      (0): Linear(in_features=80, out_features=60, bias=True)
      (1): ReLU()
      (2): Linear(in_features=60, out_features=40, bias=True)
      (3): ReLU()
      (4): Linear(in_features=40, out_features=20, bias=True)
    )
    (decoder): Sequential(
      (0): Linear(in_features=20, out_features=40, bias=True)
      (1): ReLU()
      (2): Linear(in_features=40, out_features=60, bias=True)
      (3): ReLU()
      (4): Linear(in_features=60, out_features=80, bias=True)
    )
    (sex_classifier): FullyConnSexClassifier(
      (initial): Sequential(
        (0): Linear(in_features=20, out_features=40, bias=True)
        (1): ReLU()
        (2): Linear(in_features=40, out_features=40, bias=True)
        (3): ReLU()
      )
      (norm): BatchNorm1d(20, eps=1e-05, momentum=0.1, affine=True, track_running_stats=True)
      (classify): Sequential(
        (0): Linear(in_features=80, out_features=40, bias=True)
        (1): BatchNorm1d(40, eps=1e-05, momentum=0.1, affine=True, track_running_stats=True)
        (2): ReLU()
        (3): Linear(in_features=40, out_features=40, bias=True)
        (4): ReLU()
        (5): Linear(in_features=40, out_features=20, bias=True)
        (6): BatchNorm1d(20, eps=1e-05, momentum=0.1, affine=True, track_running_stats=True)
        (7): Linear(in_features=20, out_features=2, bias=True)
      )
      (stats_pooling): StatisticsPooling()
    )
  )
) loading from model_checkpoints/asr_model.ckpt, the object could not use the parameters loaded with the key: 1.encoder.layers.3.pos_ffn.ffn.0.weight
2022-05-05 23:51:58,662 - speechbrain.utils.checkpoints - WARNING - During parameter transfer to ModuleList(
  (0): FullyConnectedAutoencoder(
    (encoder): Sequential(
      (0): Linear(in_features=80, out_features=60, bias=True)
      (1): ReLU()
      (2): Linear(in_features=60, out_features=40, bias=True)
      (3): ReLU()
      (4): Linear(in_features=40, out_features=20, bias=True)
    )
    (decoder): Sequential(
      (0): Linear(in_features=20, out_features=40, bias=True)
      (1): ReLU()
      (2): Linear(in_features=40, out_features=60, bias=True)
      (3): ReLU()
      (4): Linear(in_features=60, out_features=80, bias=True)
    )
    (sex_classifier): FullyConnSexClassifier(
      (initial): Sequential(
        (0): Linear(in_features=20, out_features=40, bias=True)
        (1): ReLU()
        (2): Linear(in_features=40, out_features=40, bias=True)
        (3): ReLU()
      )
      (norm): BatchNorm1d(20, eps=1e-05, momentum=0.1, affine=True, track_running_stats=True)
      (classify): Sequential(
        (0): Linear(in_features=80, out_features=40, bias=True)
        (1): BatchNorm1d(40, eps=1e-05, momentum=0.1, affine=True, track_running_stats=True)
        (2): ReLU()
        (3): Linear(in_features=40, out_features=40, bias=True)
        (4): ReLU()
        (5): Linear(in_features=40, out_features=20, bias=True)
        (6): BatchNorm1d(20, eps=1e-05, momentum=0.1, affine=True, track_running_stats=True)
        (7): Linear(in_features=20, out_features=2, bias=True)
      )
      (stats_pooling): StatisticsPooling()
    )
  )
) loading from model_checkpoints/asr_model.ckpt, the object could not use the parameters loaded with the key: 1.encoder.layers.3.pos_ffn.ffn.0.bias
2022-05-05 23:51:58,663 - speechbrain.utils.checkpoints - WARNING - During parameter transfer to ModuleList(
  (0): FullyConnectedAutoencoder(
    (encoder): Sequential(
      (0): Linear(in_features=80, out_features=60, bias=True)
      (1): ReLU()
      (2): Linear(in_features=60, out_features=40, bias=True)
      (3): ReLU()
      (4): Linear(in_features=40, out_features=20, bias=True)
    )
    (decoder): Sequential(
      (0): Linear(in_features=20, out_features=40, bias=True)
      (1): ReLU()
      (2): Linear(in_features=40, out_features=60, bias=True)
      (3): ReLU()
      (4): Linear(in_features=60, out_features=80, bias=True)
    )
    (sex_classifier): FullyConnSexClassifier(
      (initial): Sequential(
        (0): Linear(in_features=20, out_features=40, bias=True)
        (1): ReLU()
        (2): Linear(in_features=40, out_features=40, bias=True)
        (3): ReLU()
      )
      (norm): BatchNorm1d(20, eps=1e-05, momentum=0.1, affine=True, track_running_stats=True)
      (classify): Sequential(
        (0): Linear(in_features=80, out_features=40, bias=True)
        (1): BatchNorm1d(40, eps=1e-05, momentum=0.1, affine=True, track_running_stats=True)
        (2): ReLU()
        (3): Linear(in_features=40, out_features=40, bias=True)
        (4): ReLU()
        (5): Linear(in_features=40, out_features=20, bias=True)
        (6): BatchNorm1d(20, eps=1e-05, momentum=0.1, affine=True, track_running_stats=True)
        (7): Linear(in_features=20, out_features=2, bias=True)
      )
      (stats_pooling): StatisticsPooling()
    )
  )
) loading from model_checkpoints/asr_model.ckpt, the object could not use the parameters loaded with the key: 1.encoder.layers.3.pos_ffn.ffn.3.weight
2022-05-05 23:51:58,663 - speechbrain.utils.checkpoints - WARNING - During parameter transfer to ModuleList(
  (0): FullyConnectedAutoencoder(
    (encoder): Sequential(
      (0): Linear(in_features=80, out_features=60, bias=True)
      (1): ReLU()
      (2): Linear(in_features=60, out_features=40, bias=True)
      (3): ReLU()
      (4): Linear(in_features=40, out_features=20, bias=True)
    )
    (decoder): Sequential(
      (0): Linear(in_features=20, out_features=40, bias=True)
      (1): ReLU()
      (2): Linear(in_features=40, out_features=60, bias=True)
      (3): ReLU()
      (4): Linear(in_features=60, out_features=80, bias=True)
    )
    (sex_classifier): FullyConnSexClassifier(
      (initial): Sequential(
        (0): Linear(in_features=20, out_features=40, bias=True)
        (1): ReLU()
        (2): Linear(in_features=40, out_features=40, bias=True)
        (3): ReLU()
      )
      (norm): BatchNorm1d(20, eps=1e-05, momentum=0.1, affine=True, track_running_stats=True)
      (classify): Sequential(
        (0): Linear(in_features=80, out_features=40, bias=True)
        (1): BatchNorm1d(40, eps=1e-05, momentum=0.1, affine=True, track_running_stats=True)
        (2): ReLU()
        (3): Linear(in_features=40, out_features=40, bias=True)
        (4): ReLU()
        (5): Linear(in_features=40, out_features=20, bias=True)
        (6): BatchNorm1d(20, eps=1e-05, momentum=0.1, affine=True, track_running_stats=True)
        (7): Linear(in_features=20, out_features=2, bias=True)
      )
      (stats_pooling): StatisticsPooling()
    )
  )
) loading from model_checkpoints/asr_model.ckpt, the object could not use the parameters loaded with the key: 1.encoder.layers.3.pos_ffn.ffn.3.bias
2022-05-05 23:51:58,663 - speechbrain.utils.checkpoints - WARNING - During parameter transfer to ModuleList(
  (0): FullyConnectedAutoencoder(
    (encoder): Sequential(
      (0): Linear(in_features=80, out_features=60, bias=True)
      (1): ReLU()
      (2): Linear(in_features=60, out_features=40, bias=True)
      (3): ReLU()
      (4): Linear(in_features=40, out_features=20, bias=True)
    )
    (decoder): Sequential(
      (0): Linear(in_features=20, out_features=40, bias=True)
      (1): ReLU()
      (2): Linear(in_features=40, out_features=60, bias=True)
      (3): ReLU()
      (4): Linear(in_features=60, out_features=80, bias=True)
    )
    (sex_classifier): FullyConnSexClassifier(
      (initial): Sequential(
        (0): Linear(in_features=20, out_features=40, bias=True)
        (1): ReLU()
        (2): Linear(in_features=40, out_features=40, bias=True)
        (3): ReLU()
      )
      (norm): BatchNorm1d(20, eps=1e-05, momentum=0.1, affine=True, track_running_stats=True)
      (classify): Sequential(
        (0): Linear(in_features=80, out_features=40, bias=True)
        (1): BatchNorm1d(40, eps=1e-05, momentum=0.1, affine=True, track_running_stats=True)
        (2): ReLU()
        (3): Linear(in_features=40, out_features=40, bias=True)
        (4): ReLU()
        (5): Linear(in_features=40, out_features=20, bias=True)
        (6): BatchNorm1d(20, eps=1e-05, momentum=0.1, affine=True, track_running_stats=True)
        (7): Linear(in_features=20, out_features=2, bias=True)
      )
      (stats_pooling): StatisticsPooling()
    )
  )
) loading from model_checkpoints/asr_model.ckpt, the object could not use the parameters loaded with the key: 1.encoder.layers.3.norm1.norm.weight
2022-05-05 23:51:58,664 - speechbrain.utils.checkpoints - WARNING - During parameter transfer to ModuleList(
  (0): FullyConnectedAutoencoder(
    (encoder): Sequential(
      (0): Linear(in_features=80, out_features=60, bias=True)
      (1): ReLU()
      (2): Linear(in_features=60, out_features=40, bias=True)
      (3): ReLU()
      (4): Linear(in_features=40, out_features=20, bias=True)
    )
    (decoder): Sequential(
      (0): Linear(in_features=20, out_features=40, bias=True)
      (1): ReLU()
      (2): Linear(in_features=40, out_features=60, bias=True)
      (3): ReLU()
      (4): Linear(in_features=60, out_features=80, bias=True)
    )
    (sex_classifier): FullyConnSexClassifier(
      (initial): Sequential(
        (0): Linear(in_features=20, out_features=40, bias=True)
        (1): ReLU()
        (2): Linear(in_features=40, out_features=40, bias=True)
        (3): ReLU()
      )
      (norm): BatchNorm1d(20, eps=1e-05, momentum=0.1, affine=True, track_running_stats=True)
      (classify): Sequential(
        (0): Linear(in_features=80, out_features=40, bias=True)
        (1): BatchNorm1d(40, eps=1e-05, momentum=0.1, affine=True, track_running_stats=True)
        (2): ReLU()
        (3): Linear(in_features=40, out_features=40, bias=True)
        (4): ReLU()
        (5): Linear(in_features=40, out_features=20, bias=True)
        (6): BatchNorm1d(20, eps=1e-05, momentum=0.1, affine=True, track_running_stats=True)
        (7): Linear(in_features=20, out_features=2, bias=True)
      )
      (stats_pooling): StatisticsPooling()
    )
  )
) loading from model_checkpoints/asr_model.ckpt, the object could not use the parameters loaded with the key: 1.encoder.layers.3.norm1.norm.bias
2022-05-05 23:51:58,664 - speechbrain.utils.checkpoints - WARNING - During parameter transfer to ModuleList(
  (0): FullyConnectedAutoencoder(
    (encoder): Sequential(
      (0): Linear(in_features=80, out_features=60, bias=True)
      (1): ReLU()
      (2): Linear(in_features=60, out_features=40, bias=True)
      (3): ReLU()
      (4): Linear(in_features=40, out_features=20, bias=True)
    )
    (decoder): Sequential(
      (0): Linear(in_features=20, out_features=40, bias=True)
      (1): ReLU()
      (2): Linear(in_features=40, out_features=60, bias=True)
      (3): ReLU()
      (4): Linear(in_features=60, out_features=80, bias=True)
    )
    (sex_classifier): FullyConnSexClassifier(
      (initial): Sequential(
        (0): Linear(in_features=20, out_features=40, bias=True)
        (1): ReLU()
        (2): Linear(in_features=40, out_features=40, bias=True)
        (3): ReLU()
      )
      (norm): BatchNorm1d(20, eps=1e-05, momentum=0.1, affine=True, track_running_stats=True)
      (classify): Sequential(
        (0): Linear(in_features=80, out_features=40, bias=True)
        (1): BatchNorm1d(40, eps=1e-05, momentum=0.1, affine=True, track_running_stats=True)
        (2): ReLU()
        (3): Linear(in_features=40, out_features=40, bias=True)
        (4): ReLU()
        (5): Linear(in_features=40, out_features=20, bias=True)
        (6): BatchNorm1d(20, eps=1e-05, momentum=0.1, affine=True, track_running_stats=True)
        (7): Linear(in_features=20, out_features=2, bias=True)
      )
      (stats_pooling): StatisticsPooling()
    )
  )
) loading from model_checkpoints/asr_model.ckpt, the object could not use the parameters loaded with the key: 1.encoder.layers.3.norm2.norm.weight
2022-05-05 23:51:58,665 - speechbrain.utils.checkpoints - WARNING - During parameter transfer to ModuleList(
  (0): FullyConnectedAutoencoder(
    (encoder): Sequential(
      (0): Linear(in_features=80, out_features=60, bias=True)
      (1): ReLU()
      (2): Linear(in_features=60, out_features=40, bias=True)
      (3): ReLU()
      (4): Linear(in_features=40, out_features=20, bias=True)
    )
    (decoder): Sequential(
      (0): Linear(in_features=20, out_features=40, bias=True)
      (1): ReLU()
      (2): Linear(in_features=40, out_features=60, bias=True)
      (3): ReLU()
      (4): Linear(in_features=60, out_features=80, bias=True)
    )
    (sex_classifier): FullyConnSexClassifier(
      (initial): Sequential(
        (0): Linear(in_features=20, out_features=40, bias=True)
        (1): ReLU()
        (2): Linear(in_features=40, out_features=40, bias=True)
        (3): ReLU()
      )
      (norm): BatchNorm1d(20, eps=1e-05, momentum=0.1, affine=True, track_running_stats=True)
      (classify): Sequential(
        (0): Linear(in_features=80, out_features=40, bias=True)
        (1): BatchNorm1d(40, eps=1e-05, momentum=0.1, affine=True, track_running_stats=True)
        (2): ReLU()
        (3): Linear(in_features=40, out_features=40, bias=True)
        (4): ReLU()
        (5): Linear(in_features=40, out_features=20, bias=True)
        (6): BatchNorm1d(20, eps=1e-05, momentum=0.1, affine=True, track_running_stats=True)
        (7): Linear(in_features=20, out_features=2, bias=True)
      )
      (stats_pooling): StatisticsPooling()
    )
  )
) loading from model_checkpoints/asr_model.ckpt, the object could not use the parameters loaded with the key: 1.encoder.layers.3.norm2.norm.bias
2022-05-05 23:51:58,665 - speechbrain.utils.checkpoints - WARNING - During parameter transfer to ModuleList(
  (0): FullyConnectedAutoencoder(
    (encoder): Sequential(
      (0): Linear(in_features=80, out_features=60, bias=True)
      (1): ReLU()
      (2): Linear(in_features=60, out_features=40, bias=True)
      (3): ReLU()
      (4): Linear(in_features=40, out_features=20, bias=True)
    )
    (decoder): Sequential(
      (0): Linear(in_features=20, out_features=40, bias=True)
      (1): ReLU()
      (2): Linear(in_features=40, out_features=60, bias=True)
      (3): ReLU()
      (4): Linear(in_features=60, out_features=80, bias=True)
    )
    (sex_classifier): FullyConnSexClassifier(
      (initial): Sequential(
        (0): Linear(in_features=20, out_features=40, bias=True)
        (1): ReLU()
        (2): Linear(in_features=40, out_features=40, bias=True)
        (3): ReLU()
      )
      (norm): BatchNorm1d(20, eps=1e-05, momentum=0.1, affine=True, track_running_stats=True)
      (classify): Sequential(
        (0): Linear(in_features=80, out_features=40, bias=True)
        (1): BatchNorm1d(40, eps=1e-05, momentum=0.1, affine=True, track_running_stats=True)
        (2): ReLU()
        (3): Linear(in_features=40, out_features=40, bias=True)
        (4): ReLU()
        (5): Linear(in_features=40, out_features=20, bias=True)
        (6): BatchNorm1d(20, eps=1e-05, momentum=0.1, affine=True, track_running_stats=True)
        (7): Linear(in_features=20, out_features=2, bias=True)
      )
      (stats_pooling): StatisticsPooling()
    )
  )
) loading from model_checkpoints/asr_model.ckpt, the object could not use the parameters loaded with the key: 1.encoder.layers.4.self_att.att.in_proj_weight
2022-05-05 23:51:58,665 - speechbrain.utils.checkpoints - WARNING - During parameter transfer to ModuleList(
  (0): FullyConnectedAutoencoder(
    (encoder): Sequential(
      (0): Linear(in_features=80, out_features=60, bias=True)
      (1): ReLU()
      (2): Linear(in_features=60, out_features=40, bias=True)
      (3): ReLU()
      (4): Linear(in_features=40, out_features=20, bias=True)
    )
    (decoder): Sequential(
      (0): Linear(in_features=20, out_features=40, bias=True)
      (1): ReLU()
      (2): Linear(in_features=40, out_features=60, bias=True)
      (3): ReLU()
      (4): Linear(in_features=60, out_features=80, bias=True)
    )
    (sex_classifier): FullyConnSexClassifier(
      (initial): Sequential(
        (0): Linear(in_features=20, out_features=40, bias=True)
        (1): ReLU()
        (2): Linear(in_features=40, out_features=40, bias=True)
        (3): ReLU()
      )
      (norm): BatchNorm1d(20, eps=1e-05, momentum=0.1, affine=True, track_running_stats=True)
      (classify): Sequential(
        (0): Linear(in_features=80, out_features=40, bias=True)
        (1): BatchNorm1d(40, eps=1e-05, momentum=0.1, affine=True, track_running_stats=True)
        (2): ReLU()
        (3): Linear(in_features=40, out_features=40, bias=True)
        (4): ReLU()
        (5): Linear(in_features=40, out_features=20, bias=True)
        (6): BatchNorm1d(20, eps=1e-05, momentum=0.1, affine=True, track_running_stats=True)
        (7): Linear(in_features=20, out_features=2, bias=True)
      )
      (stats_pooling): StatisticsPooling()
    )
  )
) loading from model_checkpoints/asr_model.ckpt, the object could not use the parameters loaded with the key: 1.encoder.layers.4.self_att.att.in_proj_bias
2022-05-05 23:51:58,666 - speechbrain.utils.checkpoints - WARNING - During parameter transfer to ModuleList(
  (0): FullyConnectedAutoencoder(
    (encoder): Sequential(
…
) loading from model_checkpoints/asr_model.ckpt, the object could not use the parameters loaded with the key: 1.decoder.layers.5.norm1.norm.bias
2022-05-05 23:51:58,719 - speechbrain.utils.checkpoints - WARNING - During parameter transfer to ModuleList(
  (0): FullyConnectedAutoencoder(
    (encoder): Sequential(
      (0): Linear(in_features=80, out_features=60, bias=True)
      (1): ReLU()
      (2): Linear(in_features=60, out_features=40, bias=True)
      (3): ReLU()
      (4): Linear(in_features=40, out_features=20, bias=True)
    )
    (decoder): Sequential(
      (0): Linear(in_features=20, out_features=40, bias=True)
      (1): ReLU()
      (2): Linear(in_features=40, out_features=60, bias=True)
      (3): ReLU()
      (4): Linear(in_features=60, out_features=80, bias=True)
    )
    (sex_classifier): FullyConnSexClassifier(
      (initial): Sequential(
        (0): Linear(in_features=20, out_features=40, bias=True)
        (1): ReLU()
        (2): Linear(in_features=40, out_features=40, bias=True)
        (3): ReLU()
      )
      (norm): BatchNorm1d(20, eps=1e-05, momentum=0.1, affine=True, track_running_stats=True)
      (classify): Sequential(
        (0): Linear(in_features=80, out_features=40, bias=True)
        (1): BatchNorm1d(40, eps=1e-05, momentum=0.1, affine=True, track_running_stats=True)
        (2): ReLU()
        (3): Linear(in_features=40, out_features=40, bias=True)
        (4): ReLU()
        (5): Linear(in_features=40, out_features=20, bias=True)
        (6): BatchNorm1d(20, eps=1e-05, momentum=0.1, affine=True, track_running_stats=True)
        (7): Linear(in_features=20, out_features=2, bias=True)
      )
      (stats_pooling): StatisticsPooling()
    )
  )
) loading from model_checkpoints/asr_model.ckpt, the object could not use the parameters loaded with the key: 1.decoder.layers.5.norm2.norm.weight
2022-05-05 23:51:58,719 - speechbrain.utils.checkpoints - WARNING - During parameter transfer to ModuleList(
  (0): FullyConnectedAutoencoder(
    (encoder): Sequential(
      (0): Linear(in_features=80, out_features=60, bias=True)
      (1): ReLU()
      (2): Linear(in_features=60, out_features=40, bias=True)
      (3): ReLU()
      (4): Linear(in_features=40, out_features=20, bias=True)
    )
    (decoder): Sequential(
      (0): Linear(in_features=20, out_features=40, bias=True)
      (1): ReLU()
      (2): Linear(in_features=40, out_features=60, bias=True)
      (3): ReLU()
      (4): Linear(in_features=60, out_features=80, bias=True)
    )
    (sex_classifier): FullyConnSexClassifier(
      (initial): Sequential(
        (0): Linear(in_features=20, out_features=40, bias=True)
        (1): ReLU()
        (2): Linear(in_features=40, out_features=40, bias=True)
        (3): ReLU()
      )
      (norm): BatchNorm1d(20, eps=1e-05, momentum=0.1, affine=True, track_running_stats=True)
      (classify): Sequential(
        (0): Linear(in_features=80, out_features=40, bias=True)
        (1): BatchNorm1d(40, eps=1e-05, momentum=0.1, affine=True, track_running_stats=True)
        (2): ReLU()
        (3): Linear(in_features=40, out_features=40, bias=True)
        (4): ReLU()
        (5): Linear(in_features=40, out_features=20, bias=True)
        (6): BatchNorm1d(20, eps=1e-05, momentum=0.1, affine=True, track_running_stats=True)
        (7): Linear(in_features=20, out_features=2, bias=True)
      )
      (stats_pooling): StatisticsPooling()
    )
  )
) loading from model_checkpoints/asr_model.ckpt, the object could not use the parameters loaded with the key: 1.decoder.layers.5.norm2.norm.bias
2022-05-05 23:51:58,720 - speechbrain.utils.checkpoints - WARNING - During parameter transfer to ModuleList(
  (0): FullyConnectedAutoencoder(
    (encoder): Sequential(
      (0): Linear(in_features=80, out_features=60, bias=True)
      (1): ReLU()
      (2): Linear(in_features=60, out_features=40, bias=True)
      (3): ReLU()
      (4): Linear(in_features=40, out_features=20, bias=True)
    )
    (decoder): Sequential(
      (0): Linear(in_features=20, out_features=40, bias=True)
      (1): ReLU()
      (2): Linear(in_features=40, out_features=60, bias=True)
      (3): ReLU()
      (4): Linear(in_features=60, out_features=80, bias=True)
    )
    (sex_classifier): FullyConnSexClassifier(
      (initial): Sequential(
        (0): Linear(in_features=20, out_features=40, bias=True)
        (1): ReLU()
        (2): Linear(in_features=40, out_features=40, bias=True)
        (3): ReLU()
      )
      (norm): BatchNorm1d(20, eps=1e-05, momentum=0.1, affine=True, track_running_stats=True)
      (classify): Sequential(
        (0): Linear(in_features=80, out_features=40, bias=True)
        (1): BatchNorm1d(40, eps=1e-05, momentum=0.1, affine=True, track_running_stats=True)
        (2): ReLU()
        (3): Linear(in_features=40, out_features=40, bias=True)
        (4): ReLU()
        (5): Linear(in_features=40, out_features=20, bias=True)
        (6): BatchNorm1d(20, eps=1e-05, momentum=0.1, affine=True, track_running_stats=True)
        (7): Linear(in_features=20, out_features=2, bias=True)
      )
      (stats_pooling): StatisticsPooling()
    )
  )
) loading from model_checkpoints/asr_model.ckpt, the object could not use the parameters loaded with the key: 1.decoder.layers.5.norm3.norm.weight
2022-05-05 23:51:58,720 - speechbrain.utils.checkpoints - WARNING - During parameter transfer to ModuleList(
  (0): FullyConnectedAutoencoder(
    (encoder): Sequential(
      (0): Linear(in_features=80, out_features=60, bias=True)
      (1): ReLU()
      (2): Linear(in_features=60, out_features=40, bias=True)
      (3): ReLU()
      (4): Linear(in_features=40, out_features=20, bias=True)
    )
    (decoder): Sequential(
      (0): Linear(in_features=20, out_features=40, bias=True)
      (1): ReLU()
      (2): Linear(in_features=40, out_features=60, bias=True)
      (3): ReLU()
      (4): Linear(in_features=60, out_features=80, bias=True)
    )
    (sex_classifier): FullyConnSexClassifier(
      (initial): Sequential(
        (0): Linear(in_features=20, out_features=40, bias=True)
        (1): ReLU()
        (2): Linear(in_features=40, out_features=40, bias=True)
        (3): ReLU()
      )
      (norm): BatchNorm1d(20, eps=1e-05, momentum=0.1, affine=True, track_running_stats=True)
      (classify): Sequential(
        (0): Linear(in_features=80, out_features=40, bias=True)
        (1): BatchNorm1d(40, eps=1e-05, momentum=0.1, affine=True, track_running_stats=True)
        (2): ReLU()
        (3): Linear(in_features=40, out_features=40, bias=True)
        (4): ReLU()
        (5): Linear(in_features=40, out_features=20, bias=True)
        (6): BatchNorm1d(20, eps=1e-05, momentum=0.1, affine=True, track_running_stats=True)
        (7): Linear(in_features=20, out_features=2, bias=True)
      )
      (stats_pooling): StatisticsPooling()
    )
  )
) loading from model_checkpoints/asr_model.ckpt, the object could not use the parameters loaded with the key: 1.decoder.layers.5.norm3.norm.bias
2022-05-05 23:51:58,720 - speechbrain.utils.checkpoints - WARNING - During parameter transfer to ModuleList(
  (0): FullyConnectedAutoencoder(
    (encoder): Sequential(
      (0): Linear(in_features=80, out_features=60, bias=True)
      (1): ReLU()
      (2): Linear(in_features=60, out_features=40, bias=True)
      (3): ReLU()
      (4): Linear(in_features=40, out_features=20, bias=True)
    )
    (decoder): Sequential(
      (0): Linear(in_features=20, out_features=40, bias=True)
      (1): ReLU()
      (2): Linear(in_features=40, out_features=60, bias=True)
      (3): ReLU()
      (4): Linear(in_features=60, out_features=80, bias=True)
    )
    (sex_classifier): FullyConnSexClassifier(
      (initial): Sequential(
        (0): Linear(in_features=20, out_features=40, bias=True)
        (1): ReLU()
        (2): Linear(in_features=40, out_features=40, bias=True)
        (3): ReLU()
      )
      (norm): BatchNorm1d(20, eps=1e-05, momentum=0.1, affine=True, track_running_stats=True)
      (classify): Sequential(
        (0): Linear(in_features=80, out_features=40, bias=True)
        (1): BatchNorm1d(40, eps=1e-05, momentum=0.1, affine=True, track_running_stats=True)
        (2): ReLU()
        (3): Linear(in_features=40, out_features=40, bias=True)
        (4): ReLU()
        (5): Linear(in_features=40, out_features=20, bias=True)
        (6): BatchNorm1d(20, eps=1e-05, momentum=0.1, affine=True, track_running_stats=True)
        (7): Linear(in_features=20, out_features=2, bias=True)
      )
      (stats_pooling): StatisticsPooling()
    )
  )
) loading from model_checkpoints/asr_model.ckpt, the object could not use the parameters loaded with the key: 1.decoder.norm.norm.weight
2022-05-05 23:51:58,721 - speechbrain.utils.checkpoints - WARNING - During parameter transfer to ModuleList(
  (0): FullyConnectedAutoencoder(
    (encoder): Sequential(
      (0): Linear(in_features=80, out_features=60, bias=True)
      (1): ReLU()
      (2): Linear(in_features=60, out_features=40, bias=True)
      (3): ReLU()
      (4): Linear(in_features=40, out_features=20, bias=True)
    )
    (decoder): Sequential(
      (0): Linear(in_features=20, out_features=40, bias=True)
      (1): ReLU()
      (2): Linear(in_features=40, out_features=60, bias=True)
      (3): ReLU()
      (4): Linear(in_features=60, out_features=80, bias=True)
    )
    (sex_classifier): FullyConnSexClassifier(
      (initial): Sequential(
        (0): Linear(in_features=20, out_features=40, bias=True)
        (1): ReLU()
        (2): Linear(in_features=40, out_features=40, bias=True)
        (3): ReLU()
      )
      (norm): BatchNorm1d(20, eps=1e-05, momentum=0.1, affine=True, track_running_stats=True)
      (classify): Sequential(
        (0): Linear(in_features=80, out_features=40, bias=True)
        (1): BatchNorm1d(40, eps=1e-05, momentum=0.1, affine=True, track_running_stats=True)
        (2): ReLU()
        (3): Linear(in_features=40, out_features=40, bias=True)
        (4): ReLU()
        (5): Linear(in_features=40, out_features=20, bias=True)
        (6): BatchNorm1d(20, eps=1e-05, momentum=0.1, affine=True, track_running_stats=True)
        (7): Linear(in_features=20, out_features=2, bias=True)
      )
      (stats_pooling): StatisticsPooling()
    )
  )
) loading from model_checkpoints/asr_model.ckpt, the object could not use the parameters loaded with the key: 1.decoder.norm.norm.bias
2022-05-05 23:51:58,721 - speechbrain.utils.checkpoints - WARNING - During parameter transfer to ModuleList(
  (0): FullyConnectedAutoencoder(
    (encoder): Sequential(
      (0): Linear(in_features=80, out_features=60, bias=True)
      (1): ReLU()
      (2): Linear(in_features=60, out_features=40, bias=True)
      (3): ReLU()
      (4): Linear(in_features=40, out_features=20, bias=True)
    )
    (decoder): Sequential(
      (0): Linear(in_features=20, out_features=40, bias=True)
      (1): ReLU()
      (2): Linear(in_features=40, out_features=60, bias=True)
      (3): ReLU()
      (4): Linear(in_features=60, out_features=80, bias=True)
    )
    (sex_classifier): FullyConnSexClassifier(
      (initial): Sequential(
        (0): Linear(in_features=20, out_features=40, bias=True)
        (1): ReLU()
        (2): Linear(in_features=40, out_features=40, bias=True)
        (3): ReLU()
      )
      (norm): BatchNorm1d(20, eps=1e-05, momentum=0.1, affine=True, track_running_stats=True)
      (classify): Sequential(
        (0): Linear(in_features=80, out_features=40, bias=True)
        (1): BatchNorm1d(40, eps=1e-05, momentum=0.1, affine=True, track_running_stats=True)
        (2): ReLU()
        (3): Linear(in_features=40, out_features=40, bias=True)
        (4): ReLU()
        (5): Linear(in_features=40, out_features=20, bias=True)
        (6): BatchNorm1d(20, eps=1e-05, momentum=0.1, affine=True, track_running_stats=True)
        (7): Linear(in_features=20, out_features=2, bias=True)
      )
      (stats_pooling): StatisticsPooling()
    )
  )
) loading from model_checkpoints/asr_model.ckpt, the object could not use the parameters loaded with the key: 1.custom_src_module.layers.0.w.weight
2022-05-05 23:51:58,721 - speechbrain.utils.checkpoints - WARNING - During parameter transfer to ModuleList(
  (0): FullyConnectedAutoencoder(
    (encoder): Sequential(
      (0): Linear(in_features=80, out_features=60, bias=True)
      (1): ReLU()
      (2): Linear(in_features=60, out_features=40, bias=True)
      (3): ReLU()
      (4): Linear(in_features=40, out_features=20, bias=True)
    )
    (decoder): Sequential(
      (0): Linear(in_features=20, out_features=40, bias=True)
      (1): ReLU()
      (2): Linear(in_features=40, out_features=60, bias=True)
      (3): ReLU()
      (4): Linear(in_features=60, out_features=80, bias=True)
    )
    (sex_classifier): FullyConnSexClassifier(
      (initial): Sequential(
        (0): Linear(in_features=20, out_features=40, bias=True)
        (1): ReLU()
        (2): Linear(in_features=40, out_features=40, bias=True)
        (3): ReLU()
      )
      (norm): BatchNorm1d(20, eps=1e-05, momentum=0.1, affine=True, track_running_stats=True)
      (classify): Sequential(
        (0): Linear(in_features=80, out_features=40, bias=True)
        (1): BatchNorm1d(40, eps=1e-05, momentum=0.1, affine=True, track_running_stats=True)
        (2): ReLU()
        (3): Linear(in_features=40, out_features=40, bias=True)
        (4): ReLU()
        (5): Linear(in_features=40, out_features=20, bias=True)
        (6): BatchNorm1d(20, eps=1e-05, momentum=0.1, affine=True, track_running_stats=True)
        (7): Linear(in_features=20, out_features=2, bias=True)
      )
      (stats_pooling): StatisticsPooling()
    )
  )
) loading from model_checkpoints/asr_model.ckpt, the object could not use the parameters loaded with the key: 1.custom_src_module.layers.0.w.bias
2022-05-05 23:51:58,722 - speechbrain.utils.checkpoints - WARNING - During parameter transfer to ModuleList(
  (0): FullyConnectedAutoencoder(
    (encoder): Sequential(
      (0): Linear(in_features=80, out_features=60, bias=True)
      (1): ReLU()
      (2): Linear(in_features=60, out_features=40, bias=True)
      (3): ReLU()
      (4): Linear(in_features=40, out_features=20, bias=True)
    )
    (decoder): Sequential(
      (0): Linear(in_features=20, out_features=40, bias=True)
      (1): ReLU()
      (2): Linear(in_features=40, out_features=60, bias=True)
      (3): ReLU()
      (4): Linear(in_features=60, out_features=80, bias=True)
    )
    (sex_classifier): FullyConnSexClassifier(
      (initial): Sequential(
        (0): Linear(in_features=20, out_features=40, bias=True)
        (1): ReLU()
        (2): Linear(in_features=40, out_features=40, bias=True)
        (3): ReLU()
      )
      (norm): BatchNorm1d(20, eps=1e-05, momentum=0.1, affine=True, track_running_stats=True)
      (classify): Sequential(
        (0): Linear(in_features=80, out_features=40, bias=True)
        (1): BatchNorm1d(40, eps=1e-05, momentum=0.1, affine=True, track_running_stats=True)
        (2): ReLU()
        (3): Linear(in_features=40, out_features=40, bias=True)
        (4): ReLU()
        (5): Linear(in_features=40, out_features=20, bias=True)
        (6): BatchNorm1d(20, eps=1e-05, momentum=0.1, affine=True, track_running_stats=True)
        (7): Linear(in_features=20, out_features=2, bias=True)
      )
      (stats_pooling): StatisticsPooling()
    )
  )
) loading from model_checkpoints/asr_model.ckpt, the object could not use the parameters loaded with the key: 1.custom_tgt_module.layers.0.emb.Embedding.weight
2022-05-05 23:51:58,722 - speechbrain.utils.checkpoints - WARNING - During parameter transfer to ModuleList(
  (0): FullyConnectedAutoencoder(
    (encoder): Sequential(
      (0): Linear(in_features=80, out_features=60, bias=True)
      (1): ReLU()
      (2): Linear(in_features=60, out_features=40, bias=True)
      (3): ReLU()
      (4): Linear(in_features=40, out_features=20, bias=True)
    )
    (decoder): Sequential(
      (0): Linear(in_features=20, out_features=40, bias=True)
      (1): ReLU()
      (2): Linear(in_features=40, out_features=60, bias=True)
      (3): ReLU()
      (4): Linear(in_features=60, out_features=80, bias=True)
    )
    (sex_classifier): FullyConnSexClassifier(
      (initial): Sequential(
        (0): Linear(in_features=20, out_features=40, bias=True)
        (1): ReLU()
        (2): Linear(in_features=40, out_features=40, bias=True)
        (3): ReLU()
      )
      (norm): BatchNorm1d(20, eps=1e-05, momentum=0.1, affine=True, track_running_stats=True)
      (classify): Sequential(
        (0): Linear(in_features=80, out_features=40, bias=True)
        (1): BatchNorm1d(40, eps=1e-05, momentum=0.1, affine=True, track_running_stats=True)
        (2): ReLU()
        (3): Linear(in_features=40, out_features=40, bias=True)
        (4): ReLU()
        (5): Linear(in_features=40, out_features=20, bias=True)
        (6): BatchNorm1d(20, eps=1e-05, momentum=0.1, affine=True, track_running_stats=True)
        (7): Linear(in_features=20, out_features=2, bias=True)
      )
      (stats_pooling): StatisticsPooling()
    )
  )
) loading from model_checkpoints/asr_model.ckpt, the object could not use the parameters loaded with the key: 2.w.weight
2022-05-05 23:51:58,722 - speechbrain.utils.checkpoints - WARNING - During parameter transfer to ModuleList(
  (0): FullyConnectedAutoencoder(
    (encoder): Sequential(
      (0): Linear(in_features=80, out_features=60, bias=True)
      (1): ReLU()
      (2): Linear(in_features=60, out_features=40, bias=True)
      (3): ReLU()
      (4): Linear(in_features=40, out_features=20, bias=True)
    )
    (decoder): Sequential(
      (0): Linear(in_features=20, out_features=40, bias=True)
      (1): ReLU()
      (2): Linear(in_features=40, out_features=60, bias=True)
      (3): ReLU()
      (4): Linear(in_features=60, out_features=80, bias=True)
    )
    (sex_classifier): FullyConnSexClassifier(
      (initial): Sequential(
        (0): Linear(in_features=20, out_features=40, bias=True)
        (1): ReLU()
        (2): Linear(in_features=40, out_features=40, bias=True)
        (3): ReLU()
      )
      (norm): BatchNorm1d(20, eps=1e-05, momentum=0.1, affine=True, track_running_stats=True)
      (classify): Sequential(
        (0): Linear(in_features=80, out_features=40, bias=True)
        (1): BatchNorm1d(40, eps=1e-05, momentum=0.1, affine=True, track_running_stats=True)
        (2): ReLU()
        (3): Linear(in_features=40, out_features=40, bias=True)
        (4): ReLU()
        (5): Linear(in_features=40, out_features=20, bias=True)
        (6): BatchNorm1d(20, eps=1e-05, momentum=0.1, affine=True, track_running_stats=True)
        (7): Linear(in_features=20, out_features=2, bias=True)
      )
      (stats_pooling): StatisticsPooling()
    )
  )
) loading from model_checkpoints/asr_model.ckpt, the object could not use the parameters loaded with the key: 2.w.bias
2022-05-05 23:51:58,722 - speechbrain.utils.checkpoints - WARNING - During parameter transfer to ModuleList(
  (0): FullyConnectedAutoencoder(
    (encoder): Sequential(
      (0): Linear(in_features=80, out_features=60, bias=True)
      (1): ReLU()
      (2): Linear(in_features=60, out_features=40, bias=True)
      (3): ReLU()
      (4): Linear(in_features=40, out_features=20, bias=True)
    )
    (decoder): Sequential(
      (0): Linear(in_features=20, out_features=40, bias=True)
      (1): ReLU()
      (2): Linear(in_features=40, out_features=60, bias=True)
      (3): ReLU()
      (4): Linear(in_features=60, out_features=80, bias=True)
    )
    (sex_classifier): FullyConnSexClassifier(
      (initial): Sequential(
        (0): Linear(in_features=20, out_features=40, bias=True)
        (1): ReLU()
        (2): Linear(in_features=40, out_features=40, bias=True)
        (3): ReLU()
      )
      (norm): BatchNorm1d(20, eps=1e-05, momentum=0.1, affine=True, track_running_stats=True)
      (classify): Sequential(
        (0): Linear(in_features=80, out_features=40, bias=True)
        (1): BatchNorm1d(40, eps=1e-05, momentum=0.1, affine=True, track_running_stats=True)
        (2): ReLU()
        (3): Linear(in_features=40, out_features=40, bias=True)
        (4): ReLU()
        (5): Linear(in_features=40, out_features=20, bias=True)
        (6): BatchNorm1d(20, eps=1e-05, momentum=0.1, affine=True, track_running_stats=True)
        (7): Linear(in_features=20, out_features=2, bias=True)
      )
      (stats_pooling): StatisticsPooling()
    )
  )
) loading from model_checkpoints/asr_model.ckpt, the object could not use the parameters loaded with the key: 3.w.weight
2022-05-05 23:51:58,723 - speechbrain.utils.checkpoints - WARNING - During parameter transfer to ModuleList(
  (0): FullyConnectedAutoencoder(
    (encoder): Sequential(
      (0): Linear(in_features=80, out_features=60, bias=True)
      (1): ReLU()
      (2): Linear(in_features=60, out_features=40, bias=True)
      (3): ReLU()
      (4): Linear(in_features=40, out_features=20, bias=True)
    )
    (decoder): Sequential(
      (0): Linear(in_features=20, out_features=40, bias=True)
      (1): ReLU()
      (2): Linear(in_features=40, out_features=60, bias=True)
      (3): ReLU()
      (4): Linear(in_features=60, out_features=80, bias=True)
    )
    (sex_classifier): FullyConnSexClassifier(
      (initial): Sequential(
        (0): Linear(in_features=20, out_features=40, bias=True)
        (1): ReLU()
        (2): Linear(in_features=40, out_features=40, bias=True)
        (3): ReLU()
      )
      (norm): BatchNorm1d(20, eps=1e-05, momentum=0.1, affine=True, track_running_stats=True)
      (classify): Sequential(
        (0): Linear(in_features=80, out_features=40, bias=True)
        (1): BatchNorm1d(40, eps=1e-05, momentum=0.1, affine=True, track_running_stats=True)
        (2): ReLU()
        (3): Linear(in_features=40, out_features=40, bias=True)
        (4): ReLU()
        (5): Linear(in_features=40, out_features=20, bias=True)
        (6): BatchNorm1d(20, eps=1e-05, momentum=0.1, affine=True, track_running_stats=True)
        (7): Linear(in_features=20, out_features=2, bias=True)
      )
      (stats_pooling): StatisticsPooling()
    )
  )
) loading from model_checkpoints/asr_model.ckpt, the object could not use the parameters loaded with the key: 3.w.bias
2022-05-05 23:51:58,723 - speechbrain.utils.checkpoints - WARNING - During parameter transfer to ModuleList(
  (0): FullyConnectedAutoencoder(
    (encoder): Sequential(
      (0): Linear(in_features=80, out_features=60, bias=True)
      (1): ReLU()
      (2): Linear(in_features=60, out_features=40, bias=True)
      (3): ReLU()
      (4): Linear(in_features=40, out_features=20, bias=True)
    )
    (decoder): Sequential(
      (0): Linear(in_features=20, out_features=40, bias=True)
      (1): ReLU()
      (2): Linear(in_features=40, out_features=60, bias=True)
      (3): ReLU()
      (4): Linear(in_features=60, out_features=80, bias=True)
    )
    (sex_classifier): FullyConnSexClassifier(
      (initial): Sequential(
        (0): Linear(in_features=20, out_features=40, bias=True)
        (1): ReLU()
        (2): Linear(in_features=40, out_features=40, bias=True)
        (3): ReLU()
      )
      (norm): BatchNorm1d(20, eps=1e-05, momentum=0.1, affine=True, track_running_stats=True)
      (classify): Sequential(
        (0): Linear(in_features=80, out_features=40, bias=True)
        (1): BatchNorm1d(40, eps=1e-05, momentum=0.1, affine=True, track_running_stats=True)
        (2): ReLU()
        (3): Linear(in_features=40, out_features=40, bias=True)
        (4): ReLU()
        (5): Linear(in_features=40, out_features=20, bias=True)
        (6): BatchNorm1d(20, eps=1e-05, momentum=0.1, affine=True, track_running_stats=True)
        (7): Linear(in_features=20, out_features=2, bias=True)
      )
      (stats_pooling): StatisticsPooling()
    )
  )
) loading from model_checkpoints/asr_model.ckpt, the object could not use the parameters loaded with the key: 0.convblock_0.convs.conv_0.conv.weight
2022-05-05 23:51:58,723 - speechbrain.utils.checkpoints - WARNING - During parameter transfer to ModuleList(
  (0): FullyConnectedAutoencoder(
    (encoder): Sequential(
      (0): Linear(in_features=80, out_features=60, bias=True)
      (1): ReLU()
      (2): Linear(in_features=60, out_features=40, bias=True)
      (3): ReLU()
      (4): Linear(in_features=40, out_features=20, bias=True)
    )
    (decoder): Sequential(
      (0): Linear(in_features=20, out_features=40, bias=True)
      (1): ReLU()
      (2): Linear(in_features=40, out_features=60, bias=True)
      (3): ReLU()
      (4): Linear(in_features=60, out_features=80, bias=True)
    )
    (sex_classifier): FullyConnSexClassifier(
      (initial): Sequential(
        (0): Linear(in_features=20, out_features=40, bias=True)
        (1): ReLU()
        (2): Linear(in_features=40, out_features=40, bias=True)
        (3): ReLU()
      )
      (norm): BatchNorm1d(20, eps=1e-05, momentum=0.1, affine=True, track_running_stats=True)
      (classify): Sequential(
        (0): Linear(in_features=80, out_features=40, bias=True)
        (1): BatchNorm1d(40, eps=1e-05, momentum=0.1, affine=True, track_running_stats=True)
        (2): ReLU()
        (3): Linear(in_features=40, out_features=40, bias=True)
        (4): ReLU()
        (5): Linear(in_features=40, out_features=20, bias=True)
        (6): BatchNorm1d(20, eps=1e-05, momentum=0.1, affine=True, track_running_stats=True)
        (7): Linear(in_features=20, out_features=2, bias=True)
      )
      (stats_pooling): StatisticsPooling()
    )
  )
) loading from model_checkpoints/asr_model.ckpt, the object could not use the parameters loaded with the key: 0.convblock_0.convs.conv_0.conv.bias
2022-05-05 23:51:58,724 - speechbrain.utils.checkpoints - WARNING - During parameter transfer to ModuleList(
  (0): FullyConnectedAutoencoder(
    (encoder): Sequential(
      (0): Linear(in_features=80, out_features=60, bias=True)
      (1): ReLU()
      (2): Linear(in_features=60, out_features=40, bias=True)
      (3): ReLU()
      (4): Linear(in_features=40, out_features=20, bias=True)
    )
    (decoder): Sequential(
      (0): Linear(in_features=20, out_features=40, bias=True)
      (1): ReLU()
      (2): Linear(in_features=40, out_features=60, bias=True)
      (3): ReLU()
      (4): Linear(in_features=60, out_features=80, bias=True)
    )
    (sex_classifier): FullyConnSexClassifier(
      (initial): Sequential(
        (0): Linear(in_features=20, out_features=40, bias=True)
        (1): ReLU()
        (2): Linear(in_features=40, out_features=40, bias=True)
        (3): ReLU()
      )
      (norm): BatchNorm1d(20, eps=1e-05, momentum=0.1, affine=True, track_running_stats=True)
      (classify): Sequential(
        (0): Linear(in_features=80, out_features=40, bias=True)
        (1): BatchNorm1d(40, eps=1e-05, momentum=0.1, affine=True, track_running_stats=True)
        (2): ReLU()
        (3): Linear(in_features=40, out_features=40, bias=True)
        (4): ReLU()
        (5): Linear(in_features=40, out_features=20, bias=True)
        (6): BatchNorm1d(20, eps=1e-05, momentum=0.1, affine=True, track_running_stats=True)
        (7): Linear(in_features=20, out_features=2, bias=True)
      )
      (stats_pooling): StatisticsPooling()
    )
  )
) loading from model_checkpoints/asr_model.ckpt, the object could not use the parameters loaded with the key: 0.convblock_0.convs.norm_0.norm.weight
2022-05-05 23:51:58,724 - speechbrain.utils.checkpoints - WARNING - During parameter transfer to ModuleList(
  (0): FullyConnectedAutoencoder(
    (encoder): Sequential(
      (0): Linear(in_features=80, out_features=60, bias=True)
      (1): ReLU()
      (2): Linear(in_features=60, out_features=40, bias=True)
      (3): ReLU()
      (4): Linear(in_features=40, out_features=20, bias=True)
    )
    (decoder): Sequential(
      (0): Linear(in_features=20, out_features=40, bias=True)
      (1): ReLU()
      (2): Linear(in_features=40, out_features=60, bias=True)
      (3): ReLU()
      (4): Linear(in_features=60, out_features=80, bias=True)
    )
    (sex_classifier): FullyConnSexClassifier(
      (initial): Sequential(
        (0): Linear(in_features=20, out_features=40, bias=True)
        (1): ReLU()
        (2): Linear(in_features=40, out_features=40, bias=True)
        (3): ReLU()
      )
      (norm): BatchNorm1d(20, eps=1e-05, momentum=0.1, affine=True, track_running_stats=True)
      (classify): Sequential(
        (0): Linear(in_features=80, out_features=40, bias=True)
        (1): BatchNorm1d(40, eps=1e-05, momentum=0.1, affine=True, track_running_stats=True)
        (2): ReLU()
        (3): Linear(in_features=40, out_features=40, bias=True)
        (4): ReLU()
        (5): Linear(in_features=40, out_features=20, bias=True)
        (6): BatchNorm1d(20, eps=1e-05, momentum=0.1, affine=True, track_running_stats=True)
        (7): Linear(in_features=20, out_features=2, bias=True)
      )
      (stats_pooling): StatisticsPooling()
    )
  )
) loading from model_checkpoints/asr_model.ckpt, the object could not use the parameters loaded with the key: 0.convblock_0.convs.norm_0.norm.bias
2022-05-05 23:51:58,724 - speechbrain.utils.checkpoints - WARNING - During parameter transfer to ModuleList(
  (0): FullyConnectedAutoencoder(
    (encoder): Sequential(
      (0): Linear(in_features=80, out_features=60, bias=True)
      (1): ReLU()
      (2): Linear(in_features=60, out_features=40, bias=True)
      (3): ReLU()
      (4): Linear(in_features=40, out_features=20, bias=True)
    )
    (decoder): Sequential(
      (0): Linear(in_features=20, out_features=40, bias=True)
      (1): ReLU()
      (2): Linear(in_features=40, out_features=60, bias=True)
      (3): ReLU()
      (4): Linear(in_features=60, out_features=80, bias=True)
    )
    (sex_classifier): FullyConnSexClassifier(
      (initial): Sequential(
        (0): Linear(in_features=20, out_features=40, bias=True)
        (1): ReLU()
        (2): Linear(in_features=40, out_features=40, bias=True)
        (3): ReLU()
      )
      (norm): BatchNorm1d(20, eps=1e-05, momentum=0.1, affine=True, track_running_stats=True)
      (classify): Sequential(
        (0): Linear(in_features=80, out_features=40, bias=True)
        (1): BatchNorm1d(40, eps=1e-05, momentum=0.1, affine=True, track_running_stats=True)
        (2): ReLU()
        (3): Linear(in_features=40, out_features=40, bias=True)
        (4): ReLU()
        (5): Linear(in_features=40, out_features=20, bias=True)
        (6): BatchNorm1d(20, eps=1e-05, momentum=0.1, affine=True, track_running_stats=True)
        (7): Linear(in_features=20, out_features=2, bias=True)
      )
      (stats_pooling): StatisticsPooling()
    )
  )
) loading from model_checkpoints/asr_model.ckpt, the object could not use the parameters loaded with the key: 0.convblock_1.convs.conv_0.conv.weight
2022-05-05 23:51:58,725 - speechbrain.utils.checkpoints - WARNING - During parameter transfer to ModuleList(
  (0): FullyConnectedAutoencoder(
    (encoder): Sequential(
      (0): Linear(in_features=80, out_features=60, bias=True)
      (1): ReLU()
      (2): Linear(in_features=60, out_features=40, bias=True)
      (3): ReLU()
      (4): Linear(in_features=40, out_features=20, bias=True)
    )
    (decoder): Sequential(
      (0): Linear(in_features=20, out_features=40, bias=True)
      (1): ReLU()
      (2): Linear(in_features=40, out_features=60, bias=True)
      (3): ReLU()
      (4): Linear(in_features=60, out_features=80, bias=True)
    )
    (sex_classifier): FullyConnSexClassifier(
      (initial): Sequential(
        (0): Linear(in_features=20, out_features=40, bias=True)
        (1): ReLU()
        (2): Linear(in_features=40, out_features=40, bias=True)
        (3): ReLU()
      )
      (norm): BatchNorm1d(20, eps=1e-05, momentum=0.1, affine=True, track_running_stats=True)
      (classify): Sequential(
        (0): Linear(in_features=80, out_features=40, bias=True)
        (1): BatchNorm1d(40, eps=1e-05, momentum=0.1, affine=True, track_running_stats=True)
        (2): ReLU()
        (3): Linear(in_features=40, out_features=40, bias=True)
        (4): ReLU()
        (5): Linear(in_features=40, out_features=20, bias=True)
        (6): BatchNorm1d(20, eps=1e-05, momentum=0.1, affine=True, track_running_stats=True)
        (7): Linear(in_features=20, out_features=2, bias=True)
      )
      (stats_pooling): StatisticsPooling()
    )
  )
) loading from model_checkpoints/asr_model.ckpt, the object could not use the parameters loaded with the key: 0.convblock_1.convs.conv_0.conv.bias
2022-05-05 23:51:58,725 - speechbrain.utils.checkpoints - WARNING - During parameter transfer to ModuleList(
  (0): FullyConnectedAutoencoder(
    (encoder): Sequential(
      (0): Linear(in_features=80, out_features=60, bias=True)
      (1): ReLU()
      (2): Linear(in_features=60, out_features=40, bias=True)
      (3): ReLU()
      (4): Linear(in_features=40, out_features=20, bias=True)
    )
    (decoder): Sequential(
      (0): Linear(in_features=20, out_features=40, bias=True)
      (1): ReLU()
      (2): Linear(in_features=40, out_features=60, bias=True)
      (3): ReLU()
      (4): Linear(in_features=60, out_features=80, bias=True)
    )
    (sex_classifier): FullyConnSexClassifier(
      (initial): Sequential(
        (0): Linear(in_features=20, out_features=40, bias=True)
        (1): ReLU()
        (2): Linear(in_features=40, out_features=40, bias=True)
        (3): ReLU()
      )
      (norm): BatchNorm1d(20, eps=1e-05, momentum=0.1, affine=True, track_running_stats=True)
      (classify): Sequential(
        (0): Linear(in_features=80, out_features=40, bias=True)
        (1): BatchNorm1d(40, eps=1e-05, momentum=0.1, affine=True, track_running_stats=True)
        (2): ReLU()
        (3): Linear(in_features=40, out_features=40, bias=True)
        (4): ReLU()
        (5): Linear(in_features=40, out_features=20, bias=True)
        (6): BatchNorm1d(20, eps=1e-05, momentum=0.1, affine=True, track_running_stats=True)
        (7): Linear(in_features=20, out_features=2, bias=True)
      )
      (stats_pooling): StatisticsPooling()
    )
  )
) loading from model_checkpoints/asr_model.ckpt, the object could not use the parameters loaded with the key: 0.convblock_1.convs.norm_0.norm.weight
2022-05-05 23:51:58,725 - speechbrain.utils.checkpoints - WARNING - During parameter transfer to ModuleList(
  (0): FullyConnectedAutoencoder(
    (encoder): Sequential(
      (0): Linear(in_features=80, out_features=60, bias=True)
      (1): ReLU()
      (2): Linear(in_features=60, out_features=40, bias=True)
      (3): ReLU()
      (4): Linear(in_features=40, out_features=20, bias=True)
    )
    (decoder): Sequential(
      (0): Linear(in_features=20, out_features=40, bias=True)
      (1): ReLU()
      (2): Linear(in_features=40, out_features=60, bias=True)
      (3): ReLU()
      (4): Linear(in_features=60, out_features=80, bias=True)
    )
    (sex_classifier): FullyConnSexClassifier(
      (initial): Sequential(
        (0): Linear(in_features=20, out_features=40, bias=True)
        (1): ReLU()
        (2): Linear(in_features=40, out_features=40, bias=True)
        (3): ReLU()
      )
      (norm): BatchNorm1d(20, eps=1e-05, momentum=0.1, affine=True, track_running_stats=True)
      (classify): Sequential(
        (0): Linear(in_features=80, out_features=40, bias=True)
        (1): BatchNorm1d(40, eps=1e-05, momentum=0.1, affine=True, track_running_stats=True)
        (2): ReLU()
        (3): Linear(in_features=40, out_features=40, bias=True)
        (4): ReLU()
        (5): Linear(in_features=40, out_features=20, bias=True)
        (6): BatchNorm1d(20, eps=1e-05, momentum=0.1, affine=True, track_running_stats=True)
        (7): Linear(in_features=20, out_features=2, bias=True)
      )
      (stats_pooling): StatisticsPooling()
    )
  )
) loading from model_checkpoints/asr_model.ckpt, the object could not use the parameters loaded with the key: 0.convblock_1.convs.norm_0.norm.bias
2022-05-05 23:51:58,726 - speechbrain.utils.checkpoints - WARNING - During parameter transfer to ModuleList(
  (0): FullyConnectedAutoencoder(
    (encoder): Sequential(
      (0): Linear(in_features=80, out_features=60, bias=True)
      (1): ReLU()
      (2): Linear(in_features=60, out_features=40, bias=True)
      (3): ReLU()
      (4): Linear(in_features=40, out_features=20, bias=True)
    )
    (decoder): Sequential(
      (0): Linear(in_features=20, out_features=40, bias=True)
      (1): ReLU()
      (2): Linear(in_features=40, out_features=60, bias=True)
      (3): ReLU()
      (4): Linear(in_features=60, out_features=80, bias=True)
    )
    (sex_classifier): FullyConnSexClassifier(
      (initial): Sequential(
        (0): Linear(in_features=20, out_features=40, bias=True)
        (1): ReLU()
        (2): Linear(in_features=40, out_features=40, bias=True)
        (3): ReLU()
      )
      (norm): BatchNorm1d(20, eps=1e-05, momentum=0.1, affine=True, track_running_stats=True)
      (classify): Sequential(
        (0): Linear(in_features=80, out_features=40, bias=True)
        (1): BatchNorm1d(40, eps=1e-05, momentum=0.1, affine=True, track_running_stats=True)
        (2): ReLU()
        (3): Linear(in_features=40, out_features=40, bias=True)
        (4): ReLU()
        (5): Linear(in_features=40, out_features=20, bias=True)
        (6): BatchNorm1d(20, eps=1e-05, momentum=0.1, affine=True, track_running_stats=True)
        (7): Linear(in_features=20, out_features=2, bias=True)
      )
      (stats_pooling): StatisticsPooling()
    )
  )
) loading from model_checkpoints/asr_model.ckpt, the object could not use the parameters loaded with the key: 0.convblock_2.convs.conv_0.conv.weight
2022-05-05 23:51:58,726 - speechbrain.utils.checkpoints - WARNING - During parameter transfer to ModuleList(
  (0): FullyConnectedAutoencoder(
    (encoder): Sequential(
      (0): Linear(in_features=80, out_features=60, bias=True)
      (1): ReLU()
      (2): Linear(in_features=60, out_features=40, bias=True)
      (3): ReLU()
      (4): Linear(in_features=40, out_features=20, bias=True)
    )
    (decoder): Sequential(
      (0): Linear(in_features=20, out_features=40, bias=True)
      (1): ReLU()
      (2): Linear(in_features=40, out_features=60, bias=True)
      (3): ReLU()
      (4): Linear(in_features=60, out_features=80, bias=True)
    )
    (sex_classifier): FullyConnSexClassifier(
      (initial): Sequential(
        (0): Linear(in_features=20, out_features=40, bias=True)
        (1): ReLU()
        (2): Linear(in_features=40, out_features=40, bias=True)
        (3): ReLU()
      )
      (norm): BatchNorm1d(20, eps=1e-05, momentum=0.1, affine=True, track_running_stats=True)
      (classify): Sequential(
        (0): Linear(in_features=80, out_features=40, bias=True)
        (1): BatchNorm1d(40, eps=1e-05, momentum=0.1, affine=True, track_running_stats=True)
        (2): ReLU()
        (3): Linear(in_features=40, out_features=40, bias=True)
        (4): ReLU()
        (5): Linear(in_features=40, out_features=20, bias=True)
        (6): BatchNorm1d(20, eps=1e-05, momentum=0.1, affine=True, track_running_stats=True)
        (7): Linear(in_features=20, out_features=2, bias=True)
      )
      (stats_pooling): StatisticsPooling()
    )
  )
) loading from model_checkpoints/asr_model.ckpt, the object could not use the parameters loaded with the key: 0.convblock_2.convs.conv_0.conv.bias
2022-05-05 23:51:58,726 - speechbrain.utils.checkpoints - WARNING - During parameter transfer to ModuleList(
  (0): FullyConnectedAutoencoder(
    (encoder): Sequential(
      (0): Linear(in_features=80, out_features=60, bias=True)
      (1): ReLU()
      (2): Linear(in_features=60, out_features=40, bias=True)
      (3): ReLU()
      (4): Linear(in_features=40, out_features=20, bias=True)
    )
    (decoder): Sequential(
      (0): Linear(in_features=20, out_features=40, bias=True)
      (1): ReLU()
      (2): Linear(in_features=40, out_features=60, bias=True)
      (3): ReLU()
      (4): Linear(in_features=60, out_features=80, bias=True)
    )
    (sex_classifier): FullyConnSexClassifier(
      (initial): Sequential(
        (0): Linear(in_features=20, out_features=40, bias=True)
        (1): ReLU()
        (2): Linear(in_features=40, out_features=40, bias=True)
        (3): ReLU()
      )
      (norm): BatchNorm1d(20, eps=1e-05, momentum=0.1, affine=True, track_running_stats=True)
      (classify): Sequential(
        (0): Linear(in_features=80, out_features=40, bias=True)
        (1): BatchNorm1d(40, eps=1e-05, momentum=0.1, affine=True, track_running_stats=True)
        (2): ReLU()
        (3): Linear(in_features=40, out_features=40, bias=True)
        (4): ReLU()
        (5): Linear(in_features=40, out_features=20, bias=True)
        (6): BatchNorm1d(20, eps=1e-05, momentum=0.1, affine=True, track_running_stats=True)
        (7): Linear(in_features=20, out_features=2, bias=True)
      )
      (stats_pooling): StatisticsPooling()
    )
  )
) loading from model_checkpoints/asr_model.ckpt, the object could not use the parameters loaded with the key: 0.convblock_2.convs.norm_0.norm.weight
2022-05-05 23:51:58,727 - speechbrain.utils.checkpoints - WARNING - During parameter transfer to ModuleList(
  (0): FullyConnectedAutoencoder(
    (encoder): Sequential(
      (0): Linear(in_features=80, out_features=60, bias=True)
      (1): ReLU()
      (2): Linear(in_features=60, out_features=40, bias=True)
      (3): ReLU()
      (4): Linear(in_features=40, out_features=20, bias=True)
    )
    (decoder): Sequential(
      (0): Linear(in_features=20, out_features=40, bias=True)
      (1): ReLU()
      (2): Linear(in_features=40, out_features=60, bias=True)
      (3): ReLU()
      (4): Linear(in_features=60, out_features=80, bias=True)
    )
    (sex_classifier): FullyConnSexClassifier(
      (initial): Sequential(
        (0): Linear(in_features=20, out_features=40, bias=True)
        (1): ReLU()
        (2): Linear(in_features=40, out_features=40, bias=True)
        (3): ReLU()
      )
      (norm): BatchNorm1d(20, eps=1e-05, momentum=0.1, affine=True, track_running_stats=True)
      (classify): Sequential(
        (0): Linear(in_features=80, out_features=40, bias=True)
        (1): BatchNorm1d(40, eps=1e-05, momentum=0.1, affine=True, track_running_stats=True)
        (2): ReLU()
        (3): Linear(in_features=40, out_features=40, bias=True)
        (4): ReLU()
        (5): Linear(in_features=40, out_features=20, bias=True)
        (6): BatchNorm1d(20, eps=1e-05, momentum=0.1, affine=True, track_running_stats=True)
        (7): Linear(in_features=20, out_features=2, bias=True)
      )
      (stats_pooling): StatisticsPooling()
    )
  )
) loading from model_checkpoints/asr_model.ckpt, the object could not use the parameters loaded with the key: 0.convblock_2.convs.norm_0.norm.bias
2022-05-05 23:51:58,727 - speechbrain.utils.checkpoints - WARNING - During parameter transfer to ModuleList(
  (0): FullyConnectedAutoencoder(
    (encoder): Sequential(
      (0): Linear(in_features=80, out_features=60, bias=True)
      (1): ReLU()
      (2): Linear(in_features=60, out_features=40, bias=True)
      (3): ReLU()
      (4): Linear(in_features=40, out_features=20, bias=True)
    )
    (decoder): Sequential(
      (0): Linear(in_features=20, out_features=40, bias=True)
      (1): ReLU()
      (2): Linear(in_features=40, out_features=60, bias=True)
      (3): ReLU()
      (4): Linear(in_features=60, out_features=80, bias=True)
    )
    (sex_classifier): FullyConnSexClassifier(
      (initial): Sequential(
        (0): Linear(in_features=20, out_features=40, bias=True)
        (1): ReLU()
        (2): Linear(in_features=40, out_features=40, bias=True)
        (3): ReLU()
      )
      (norm): BatchNorm1d(20, eps=1e-05, momentum=0.1, affine=True, track_running_stats=True)
      (classify): Sequential(
        (0): Linear(in_features=80, out_features=40, bias=True)
        (1): BatchNorm1d(40, eps=1e-05, momentum=0.1, affine=True, track_running_stats=True)
        (2): ReLU()
        (3): Linear(in_features=40, out_features=40, bias=True)
        (4): ReLU()
        (5): Linear(in_features=40, out_features=20, bias=True)
        (6): BatchNorm1d(20, eps=1e-05, momentum=0.1, affine=True, track_running_stats=True)
        (7): Linear(in_features=20, out_features=2, bias=True)
      )
      (stats_pooling): StatisticsPooling()
    )
  )
) loading from model_checkpoints/asr_model.ckpt, the object could not use the parameters loaded with the key: 0.convblock_2.reduce_conv.conv.conv.weight
2022-05-05 23:51:58,727 - speechbrain.utils.checkpoints - WARNING - During parameter transfer to ModuleList(
  (0): FullyConnectedAutoencoder(
    (encoder): Sequential(
      (0): Linear(in_features=80, out_features=60, bias=True)
      (1): ReLU()
      (2): Linear(in_features=60, out_features=40, bias=True)
      (3): ReLU()
      (4): Linear(in_features=40, out_features=20, bias=True)
    )
    (decoder): Sequential(
      (0): Linear(in_features=20, out_features=40, bias=True)
      (1): ReLU()
      (2): Linear(in_features=40, out_features=60, bias=True)
      (3): ReLU()
      (4): Linear(in_features=60, out_features=80, bias=True)
    )
    (sex_classifier): FullyConnSexClassifier(
      (initial): Sequential(
        (0): Linear(in_features=20, out_features=40, bias=True)
        (1): ReLU()
        (2): Linear(in_features=40, out_features=40, bias=True)
        (3): ReLU()
      )
      (norm): BatchNorm1d(20, eps=1e-05, momentum=0.1, affine=True, track_running_stats=True)
      (classify): Sequential(
        (0): Linear(in_features=80, out_features=40, bias=True)
        (1): BatchNorm1d(40, eps=1e-05, momentum=0.1, affine=True, track_running_stats=True)
        (2): ReLU()
        (3): Linear(in_features=40, out_features=40, bias=True)
        (4): ReLU()
        (5): Linear(in_features=40, out_features=20, bias=True)
        (6): BatchNorm1d(20, eps=1e-05, momentum=0.1, affine=True, track_running_stats=True)
        (7): Linear(in_features=20, out_features=2, bias=True)
      )
      (stats_pooling): StatisticsPooling()
    )
  )
) loading from model_checkpoints/asr_model.ckpt, the object could not use the parameters loaded with the key: 0.convblock_2.reduce_conv.conv.conv.bias
2022-05-05 23:51:58,728 - speechbrain.utils.checkpoints - WARNING - During parameter transfer to ModuleList(
  (0): FullyConnectedAutoencoder(
    (encoder): Sequential(
      (0): Linear(in_features=80, out_features=60, bias=True)
      (1): ReLU()
      (2): Linear(in_features=60, out_features=40, bias=True)
      (3): ReLU()
      (4): Linear(in_features=40, out_features=20, bias=True)
    )
    (decoder): Sequential(
      (0): Linear(in_features=20, out_features=40, bias=True)
      (1): ReLU()
      (2): Linear(in_features=40, out_features=60, bias=True)
      (3): ReLU()
      (4): Linear(in_features=60, out_features=80, bias=True)
    )
    (sex_classifier): FullyConnSexClassifier(
      (initial): Sequential(
        (0): Linear(in_features=20, out_features=40, bias=True)
        (1): ReLU()
        (2): Linear(in_features=40, out_features=40, bias=True)
        (3): ReLU()
      )
      (norm): BatchNorm1d(20, eps=1e-05, momentum=0.1, affine=True, track_running_stats=True)
      (classify): Sequential(
        (0): Linear(in_features=80, out_features=40, bias=True)
        (1): BatchNorm1d(40, eps=1e-05, momentum=0.1, affine=True, track_running_stats=True)
        (2): ReLU()
        (3): Linear(in_features=40, out_features=40, bias=True)
        (4): ReLU()
        (5): Linear(in_features=40, out_features=20, bias=True)
        (6): BatchNorm1d(20, eps=1e-05, momentum=0.1, affine=True, track_running_stats=True)
        (7): Linear(in_features=20, out_features=2, bias=True)
      )
      (stats_pooling): StatisticsPooling()
    )
  )
) loading from model_checkpoints/asr_model.ckpt, the object could not use the parameters loaded with the key: 0.convblock_2.reduce_conv.norm.norm.weight
2022-05-05 23:51:58,728 - speechbrain.utils.checkpoints - WARNING - During parameter transfer to ModuleList(
  (0): FullyConnectedAutoencoder(
    (encoder): Sequential(
      (0): Linear(in_features=80, out_features=60, bias=True)
      (1): ReLU()
      (2): Linear(in_features=60, out_features=40, bias=True)
      (3): ReLU()
      (4): Linear(in_features=40, out_features=20, bias=True)
    )
    (decoder): Sequential(
      (0): Linear(in_features=20, out_features=40, bias=True)
      (1): ReLU()
      (2): Linear(in_features=40, out_features=60, bias=True)
      (3): ReLU()
      (4): Linear(in_features=60, out_features=80, bias=True)
    )
    (sex_classifier): FullyConnSexClassifier(
      (initial): Sequential(
        (0): Linear(in_features=20, out_features=40, bias=True)
        (1): ReLU()
        (2): Linear(in_features=40, out_features=40, bias=True)
        (3): ReLU()
      )
      (norm): BatchNorm1d(20, eps=1e-05, momentum=0.1, affine=True, track_running_stats=True)
      (classify): Sequential(
        (0): Linear(in_features=80, out_features=40, bias=True)
        (1): BatchNorm1d(40, eps=1e-05, momentum=0.1, affine=True, track_running_stats=True)
        (2): ReLU()
        (3): Linear(in_features=40, out_features=40, bias=True)
        (4): ReLU()
        (5): Linear(in_features=40, out_features=20, bias=True)
        (6): BatchNorm1d(20, eps=1e-05, momentum=0.1, affine=True, track_running_stats=True)
        (7): Linear(in_features=20, out_features=2, bias=True)
      )
      (stats_pooling): StatisticsPooling()
    )
  )
) loading from model_checkpoints/asr_model.ckpt, the object could not use the parameters loaded with the key: 0.convblock_2.reduce_conv.norm.norm.bias
2022-05-05 23:51:58,729 - speechbrain.core - INFO - Info: ckpt_interval_minutes arg from hparam file is used
2022-05-05 23:51:58,924 - speechbrain.core - INFO - 161.6M trainable parameters in ASR
…
