…
2022-04-07 13:41:36,397 - speechbrain.pretrained.fetching - INFO - Fetch label_encoder.txt: Linking to local file in /home/ec2-user/capstone/speech-anonymization/results/gender_classifier/1230/save/trained_external_classifier_ckpt/label_encoder.txt.
2022-04-07 13:41:36,397 - speechbrain.utils.parameter_transfer - INFO - Loading pretrained files for: lm, tokenizer, asr_model, normalize, embedding_model, external_classifier, label_encoder
2022-04-07 13:41:36,975 - speechbrain.utils.checkpoints - WARNING - During parameter transfer to ModuleList(
  (0): FullyConnectedAutoencoder(
    (encoder): Sequential(
      (0): Linear(in_features=80, out_features=60, bias=True)
      (1): ReLU()
      (2): Linear(in_features=60, out_features=40, bias=True)
      (3): ReLU()
      (4): Linear(in_features=40, out_features=20, bias=True)
    )
    (decoder): Sequential(
      (0): Linear(in_features=20, out_features=40, bias=True)
      (1): ReLU()
      (2): Linear(in_features=40, out_features=60, bias=True)
      (3): ReLU()
      (4): Linear(in_features=60, out_features=80, bias=True)
    )
    (sex_classifier): FullyConnSexClassifier(
      (fc1): Linear(in_features=40, out_features=20, bias=True)
      (fc2): Linear(in_features=20, out_features=2, bias=True)
    )
  )
) loading from model_checkpoints/asr_model.ckpt, the transferred parameters did not have parameters for the key: 0.encoder.0.weight
2022-04-07 13:41:36,975 - speechbrain.utils.checkpoints - WARNING - During parameter transfer to ModuleList(
  (0): FullyConnectedAutoencoder(
    (encoder): Sequential(
      (0): Linear(in_features=80, out_features=60, bias=True)
      (1): ReLU()
      (2): Linear(in_features=60, out_features=40, bias=True)
      (3): ReLU()
      (4): Linear(in_features=40, out_features=20, bias=True)
    )
    (decoder): Sequential(
      (0): Linear(in_features=20, out_features=40, bias=True)
      (1): ReLU()
      (2): Linear(in_features=40, out_features=60, bias=True)
      (3): ReLU()
      (4): Linear(in_features=60, out_features=80, bias=True)
    )
    (sex_classifier): FullyConnSexClassifier(
      (fc1): Linear(in_features=40, out_features=20, bias=True)
      (fc2): Linear(in_features=20, out_features=2, bias=True)
    )
  )
) loading from model_checkpoints/asr_model.ckpt, the transferred parameters did not have parameters for the key: 0.encoder.0.bias
2022-04-07 13:41:36,975 - speechbrain.utils.checkpoints - WARNING - During parameter transfer to ModuleList(
  (0): FullyConnectedAutoencoder(
    (encoder): Sequential(
      (0): Linear(in_features=80, out_features=60, bias=True)
      (1): ReLU()
      (2): Linear(in_features=60, out_features=40, bias=True)
      (3): ReLU()
      (4): Linear(in_features=40, out_features=20, bias=True)
    )
    (decoder): Sequential(
      (0): Linear(in_features=20, out_features=40, bias=True)
      (1): ReLU()
      (2): Linear(in_features=40, out_features=60, bias=True)
      (3): ReLU()
      (4): Linear(in_features=60, out_features=80, bias=True)
    )
    (sex_classifier): FullyConnSexClassifier(
      (fc1): Linear(in_features=40, out_features=20, bias=True)
      (fc2): Linear(in_features=20, out_features=2, bias=True)
    )
  )
) loading from model_checkpoints/asr_model.ckpt, the transferred parameters did not have parameters for the key: 0.encoder.2.weight
2022-04-07 13:41:36,976 - speechbrain.utils.checkpoints - WARNING - During parameter transfer to ModuleList(
  (0): FullyConnectedAutoencoder(
    (encoder): Sequential(
      (0): Linear(in_features=80, out_features=60, bias=True)
      (1): ReLU()
      (2): Linear(in_features=60, out_features=40, bias=True)
      (3): ReLU()
      (4): Linear(in_features=40, out_features=20, bias=True)
    )
    (decoder): Sequential(
      (0): Linear(in_features=20, out_features=40, bias=True)
      (1): ReLU()
      (2): Linear(in_features=40, out_features=60, bias=True)
      (3): ReLU()
      (4): Linear(in_features=60, out_features=80, bias=True)
    )
    (sex_classifier): FullyConnSexClassifier(
      (fc1): Linear(in_features=40, out_features=20, bias=True)
      (fc2): Linear(in_features=20, out_features=2, bias=True)
    )
  )
) loading from model_checkpoints/asr_model.ckpt, the transferred parameters did not have parameters for the key: 0.encoder.2.bias
2022-04-07 13:41:36,976 - speechbrain.utils.checkpoints - WARNING - During parameter transfer to ModuleList(
  (0): FullyConnectedAutoencoder(
    (encoder): Sequential(
      (0): Linear(in_features=80, out_features=60, bias=True)
      (1): ReLU()
      (2): Linear(in_features=60, out_features=40, bias=True)
      (3): ReLU()
      (4): Linear(in_features=40, out_features=20, bias=True)
    )
    (decoder): Sequential(
      (0): Linear(in_features=20, out_features=40, bias=True)
      (1): ReLU()
      (2): Linear(in_features=40, out_features=60, bias=True)
      (3): ReLU()
      (4): Linear(in_features=60, out_features=80, bias=True)
    )
    (sex_classifier): FullyConnSexClassifier(
      (fc1): Linear(in_features=40, out_features=20, bias=True)
      (fc2): Linear(in_features=20, out_features=2, bias=True)
    )
  )
) loading from model_checkpoints/asr_model.ckpt, the transferred parameters did not have parameters for the key: 0.encoder.4.weight
2022-04-07 13:41:36,976 - speechbrain.utils.checkpoints - WARNING - During parameter transfer to ModuleList(
  (0): FullyConnectedAutoencoder(
    (encoder): Sequential(
      (0): Linear(in_features=80, out_features=60, bias=True)
      (1): ReLU()
      (2): Linear(in_features=60, out_features=40, bias=True)
      (3): ReLU()
      (4): Linear(in_features=40, out_features=20, bias=True)
    )
    (decoder): Sequential(
      (0): Linear(in_features=20, out_features=40, bias=True)
      (1): ReLU()
      (2): Linear(in_features=40, out_features=60, bias=True)
      (3): ReLU()
      (4): Linear(in_features=60, out_features=80, bias=True)
    )
    (sex_classifier): FullyConnSexClassifier(
      (fc1): Linear(in_features=40, out_features=20, bias=True)
      (fc2): Linear(in_features=20, out_features=2, bias=True)
    )
  )
) loading from model_checkpoints/asr_model.ckpt, the transferred parameters did not have parameters for the key: 0.encoder.4.bias
2022-04-07 13:41:36,976 - speechbrain.utils.checkpoints - WARNING - During parameter transfer to ModuleList(
  (0): FullyConnectedAutoencoder(
    (encoder): Sequential(
      (0): Linear(in_features=80, out_features=60, bias=True)
      (1): ReLU()
      (2): Linear(in_features=60, out_features=40, bias=True)
      (3): ReLU()
      (4): Linear(in_features=40, out_features=20, bias=True)
    )
    (decoder): Sequential(
      (0): Linear(in_features=20, out_features=40, bias=True)
      (1): ReLU()
      (2): Linear(in_features=40, out_features=60, bias=True)
      (3): ReLU()
      (4): Linear(in_features=60, out_features=80, bias=True)
    )
    (sex_classifier): FullyConnSexClassifier(
      (fc1): Linear(in_features=40, out_features=20, bias=True)
      (fc2): Linear(in_features=20, out_features=2, bias=True)
    )
  )
) loading from model_checkpoints/asr_model.ckpt, the transferred parameters did not have parameters for the key: 0.decoder.0.weight
2022-04-07 13:41:36,976 - speechbrain.utils.checkpoints - WARNING - During parameter transfer to ModuleList(
  (0): FullyConnectedAutoencoder(
    (encoder): Sequential(
      (0): Linear(in_features=80, out_features=60, bias=True)
      (1): ReLU()
      (2): Linear(in_features=60, out_features=40, bias=True)
      (3): ReLU()
      (4): Linear(in_features=40, out_features=20, bias=True)
    )
    (decoder): Sequential(
      (0): Linear(in_features=20, out_features=40, bias=True)
      (1): ReLU()
      (2): Linear(in_features=40, out_features=60, bias=True)
      (3): ReLU()
      (4): Linear(in_features=60, out_features=80, bias=True)
    )
    (sex_classifier): FullyConnSexClassifier(
      (fc1): Linear(in_features=40, out_features=20, bias=True)
      (fc2): Linear(in_features=20, out_features=2, bias=True)
    )
  )
) loading from model_checkpoints/asr_model.ckpt, the transferred parameters did not have parameters for the key: 0.decoder.0.bias
2022-04-07 13:41:36,976 - speechbrain.utils.checkpoints - WARNING - During parameter transfer to ModuleList(
  (0): FullyConnectedAutoencoder(
    (encoder): Sequential(
      (0): Linear(in_features=80, out_features=60, bias=True)
      (1): ReLU()
      (2): Linear(in_features=60, out_features=40, bias=True)
      (3): ReLU()
      (4): Linear(in_features=40, out_features=20, bias=True)
    )
    (decoder): Sequential(
      (0): Linear(in_features=20, out_features=40, bias=True)
      (1): ReLU()
      (2): Linear(in_features=40, out_features=60, bias=True)
      (3): ReLU()
      (4): Linear(in_features=60, out_features=80, bias=True)
    )
    (sex_classifier): FullyConnSexClassifier(
      (fc1): Linear(in_features=40, out_features=20, bias=True)
      (fc2): Linear(in_features=20, out_features=2, bias=True)
    )
  )
) loading from model_checkpoints/asr_model.ckpt, the transferred parameters did not have parameters for the key: 0.decoder.2.weight
2022-04-07 13:41:36,976 - speechbrain.utils.checkpoints - WARNING - During parameter transfer to ModuleList(
  (0): FullyConnectedAutoencoder(
    (encoder): Sequential(
      (0): Linear(in_features=80, out_features=60, bias=True)
      (1): ReLU()
      (2): Linear(in_features=60, out_features=40, bias=True)
      (3): ReLU()
      (4): Linear(in_features=40, out_features=20, bias=True)
    )
    (decoder): Sequential(
      (0): Linear(in_features=20, out_features=40, bias=True)
      (1): ReLU()
      (2): Linear(in_features=40, out_features=60, bias=True)
      (3): ReLU()
      (4): Linear(in_features=60, out_features=80, bias=True)
    )
    (sex_classifier): FullyConnSexClassifier(
      (fc1): Linear(in_features=40, out_features=20, bias=True)
      (fc2): Linear(in_features=20, out_features=2, bias=True)
    )
  )
) loading from model_checkpoints/asr_model.ckpt, the transferred parameters did not have parameters for the key: 0.decoder.2.bias
2022-04-07 13:41:36,977 - speechbrain.utils.checkpoints - WARNING - During parameter transfer to ModuleList(
  (0): FullyConnectedAutoencoder(
    (encoder): Sequential(
      (0): Linear(in_features=80, out_features=60, bias=True)
      (1): ReLU()
      (2): Linear(in_features=60, out_features=40, bias=True)
      (3): ReLU()
      (4): Linear(in_features=40, out_features=20, bias=True)
    )
    (decoder): Sequential(
      (0): Linear(in_features=20, out_features=40, bias=True)
      (1): ReLU()
      (2): Linear(in_features=40, out_features=60, bias=True)
      (3): ReLU()
      (4): Linear(in_features=60, out_features=80, bias=True)
    )
    (sex_classifier): FullyConnSexClassifier(
      (fc1): Linear(in_features=40, out_features=20, bias=True)
      (fc2): Linear(in_features=20, out_features=2, bias=True)
    )
  )
) loading from model_checkpoints/asr_model.ckpt, the transferred parameters did not have parameters for the key: 0.decoder.4.weight
2022-04-07 13:41:36,977 - speechbrain.utils.checkpoints - WARNING - During parameter transfer to ModuleList(
  (0): FullyConnectedAutoencoder(
    (encoder): Sequential(
      (0): Linear(in_features=80, out_features=60, bias=True)
      (1): ReLU()
      (2): Linear(in_features=60, out_features=40, bias=True)
      (3): ReLU()
      (4): Linear(in_features=40, out_features=20, bias=True)
    )
    (decoder): Sequential(
      (0): Linear(in_features=20, out_features=40, bias=True)
      (1): ReLU()
      (2): Linear(in_features=40, out_features=60, bias=True)
      (3): ReLU()
      (4): Linear(in_features=60, out_features=80, bias=True)
    )
    (sex_classifier): FullyConnSexClassifier(
      (fc1): Linear(in_features=40, out_features=20, bias=True)
      (fc2): Linear(in_features=20, out_features=2, bias=True)
    )
  )
) loading from model_checkpoints/asr_model.ckpt, the transferred parameters did not have parameters for the key: 0.decoder.4.bias
2022-04-07 13:41:36,977 - speechbrain.utils.checkpoints - WARNING - During parameter transfer to ModuleList(
  (0): FullyConnectedAutoencoder(
    (encoder): Sequential(
      (0): Linear(in_features=80, out_features=60, bias=True)
      (1): ReLU()
      (2): Linear(in_features=60, out_features=40, bias=True)
      (3): ReLU()
      (4): Linear(in_features=40, out_features=20, bias=True)
    )
    (decoder): Sequential(
      (0): Linear(in_features=20, out_features=40, bias=True)
      (1): ReLU()
      (2): Linear(in_features=40, out_features=60, bias=True)
      (3): ReLU()
      (4): Linear(in_features=60, out_features=80, bias=True)
    )
    (sex_classifier): FullyConnSexClassifier(
      (fc1): Linear(in_features=40, out_features=20, bias=True)
      (fc2): Linear(in_features=20, out_features=2, bias=True)
    )
  )
) loading from model_checkpoints/asr_model.ckpt, the transferred parameters did not have parameters for the key: 0.sex_classifier.fc1.weight
2022-04-07 13:41:36,977 - speechbrain.utils.checkpoints - WARNING - During parameter transfer to ModuleList(
  (0): FullyConnectedAutoencoder(
    (encoder): Sequential(
      (0): Linear(in_features=80, out_features=60, bias=True)
      (1): ReLU()
      (2): Linear(in_features=60, out_features=40, bias=True)
      (3): ReLU()
      (4): Linear(in_features=40, out_features=20, bias=True)
    )
    (decoder): Sequential(
      (0): Linear(in_features=20, out_features=40, bias=True)
      (1): ReLU()
      (2): Linear(in_features=40, out_features=60, bias=True)
      (3): ReLU()
      (4): Linear(in_features=60, out_features=80, bias=True)
    )
    (sex_classifier): FullyConnSexClassifier(
      (fc1): Linear(in_features=40, out_features=20, bias=True)
      (fc2): Linear(in_features=20, out_features=2, bias=True)
    )
  )
) loading from model_checkpoints/asr_model.ckpt, the transferred parameters did not have parameters for the key: 0.sex_classifier.fc1.bias
2022-04-07 13:41:36,977 - speechbrain.utils.checkpoints - WARNING - During parameter transfer to ModuleList(
  (0): FullyConnectedAutoencoder(
    (encoder): Sequential(
      (0): Linear(in_features=80, out_features=60, bias=True)
      (1): ReLU()
      (2): Linear(in_features=60, out_features=40, bias=True)
      (3): ReLU()
      (4): Linear(in_features=40, out_features=20, bias=True)
    )
    (decoder): Sequential(
      (0): Linear(in_features=20, out_features=40, bias=True)
      (1): ReLU()
      (2): Linear(in_features=40, out_features=60, bias=True)
      (3): ReLU()
      (4): Linear(in_features=60, out_features=80, bias=True)
    )
    (sex_classifier): FullyConnSexClassifier(
      (fc1): Linear(in_features=40, out_features=20, bias=True)
      (fc2): Linear(in_features=20, out_features=2, bias=True)
    )
  )
) loading from model_checkpoints/asr_model.ckpt, the transferred parameters did not have parameters for the key: 0.sex_classifier.fc2.weight
2022-04-07 13:41:36,977 - speechbrain.utils.checkpoints - WARNING - During parameter transfer to ModuleList(
  (0): FullyConnectedAutoencoder(
    (encoder): Sequential(
      (0): Linear(in_features=80, out_features=60, bias=True)
      (1): ReLU()
      (2): Linear(in_features=60, out_features=40, bias=True)
      (3): ReLU()
      (4): Linear(in_features=40, out_features=20, bias=True)
    )
    (decoder): Sequential(
      (0): Linear(in_features=20, out_features=40, bias=True)
      (1): ReLU()
      (2): Linear(in_features=40, out_features=60, bias=True)
      (3): ReLU()
      (4): Linear(in_features=60, out_features=80, bias=True)
    )
    (sex_classifier): FullyConnSexClassifier(
      (fc1): Linear(in_features=40, out_features=20, bias=True)
      (fc2): Linear(in_features=20, out_features=2, bias=True)
    )
  )
) loading from model_checkpoints/asr_model.ckpt, the transferred parameters did not have parameters for the key: 0.sex_classifier.fc2.bias
2022-04-07 13:41:36,977 - speechbrain.utils.checkpoints - WARNING - During parameter transfer to ModuleList(
  (0): FullyConnectedAutoencoder(
    (encoder): Sequential(
      (0): Linear(in_features=80, out_features=60, bias=True)
      (1): ReLU()
      (2): Linear(in_features=60, out_features=40, bias=True)
      (3): ReLU()
      (4): Linear(in_features=40, out_features=20, bias=True)
    )
    (decoder): Sequential(
      (0): Linear(in_features=20, out_features=40, bias=True)
      (1): ReLU()
      (2): Linear(in_features=40, out_features=60, bias=True)
      (3): ReLU()
      (4): Linear(in_features=60, out_features=80, bias=True)
    )
    (sex_classifier): FullyConnSexClassifier(
      (fc1): Linear(in_features=40, out_features=20, bias=True)
      (fc2): Linear(in_features=20, out_features=2, bias=True)
    )
  )
) loading from model_checkpoints/asr_model.ckpt, the object could not use the parameters loaded with the key: 1.positional_encoding.pe
2022-04-07 13:41:36,978 - speechbrain.utils.checkpoints - WARNING - During parameter transfer to ModuleList(
  (0): FullyConnectedAutoencoder(
    (encoder): Sequential(
      (0): Linear(in_features=80, out_features=60, bias=True)
      (1): ReLU()
      (2): Linear(in_features=60, out_features=40, bias=True)
      (3): ReLU()
      (4): Linear(in_features=40, out_features=20, bias=True)
    )
    (decoder): Sequential(
      (0): Linear(in_features=20, out_features=40, bias=True)
      (1): ReLU()
      (2): Linear(in_features=40, out_features=60, bias=True)
      (3): ReLU()
      (4): Linear(in_features=60, out_features=80, bias=True)
    )
    (sex_classifier): FullyConnSexClassifier(
      (fc1): Linear(in_features=40, out_features=20, bias=True)
      (fc2): Linear(in_features=20, out_features=2, bias=True)
    )
  )
) loading from model_checkpoints/asr_model.ckpt, the object could not use the parameters loaded with the key: 1.encoder.layers.0.self_att.att.in_proj_weight
2022-04-07 13:41:36,978 - speechbrain.utils.checkpoints - WARNING - During parameter transfer to ModuleList(
  (0): FullyConnectedAutoencoder(
    (encoder): Sequential(
      (0): Linear(in_features=80, out_features=60, bias=True)
      (1): ReLU()
      (2): Linear(in_features=60, out_features=40, bias=True)
      (3): ReLU()
      (4): Linear(in_features=40, out_features=20, bias=True)
    )
    (decoder): Sequential(
      (0): Linear(in_features=20, out_features=40, bias=True)
      (1): ReLU()
      (2): Linear(in_features=40, out_features=60, bias=True)
      (3): ReLU()
      (4): Linear(in_features=60, out_features=80, bias=True)
    )
    (sex_classifier): FullyConnSexClassifier(
      (fc1): Linear(in_features=40, out_features=20, bias=True)
      (fc2): Linear(in_features=20, out_features=2, bias=True)
    )
  )
) loading from model_checkpoints/asr_model.ckpt, the object could not use the parameters loaded with the key: 1.encoder.layers.0.self_att.att.in_proj_bias
2022-04-07 13:41:36,978 - speechbrain.utils.checkpoints - WARNING - During parameter transfer to ModuleList(
  (0): FullyConnectedAutoencoder(
    (encoder): Sequential(
      (0): Linear(in_features=80, out_features=60, bias=True)
      (1): ReLU()
      (2): Linear(in_features=60, out_features=40, bias=True)
      (3): ReLU()
      (4): Linear(in_features=40, out_features=20, bias=True)
    )
    (decoder): Sequential(
      (0): Linear(in_features=20, out_features=40, bias=True)
      (1): ReLU()
      (2): Linear(in_features=40, out_features=60, bias=True)
      (3): ReLU()
      (4): Linear(in_features=60, out_features=80, bias=True)
    )
    (sex_classifier): FullyConnSexClassifier(
      (fc1): Linear(in_features=40, out_features=20, bias=True)
      (fc2): Linear(in_features=20, out_features=2, bias=True)
    )
  )
) loading from model_checkpoints/asr_model.ckpt, the object could not use the parameters loaded with the key: 1.encoder.layers.0.self_att.att.out_proj.weight
2022-04-07 13:41:36,978 - speechbrain.utils.checkpoints - WARNING - During parameter transfer to ModuleList(
  (0): FullyConnectedAutoencoder(
    (encoder): Sequential(
      (0): Linear(in_features=80, out_features=60, bias=True)
      (1): ReLU()
      (2): Linear(in_features=60, out_features=40, bias=True)
      (3): ReLU()
      (4): Linear(in_features=40, out_features=20, bias=True)
    )
    (decoder): Sequential(
      (0): Linear(in_features=20, out_features=40, bias=True)
      (1): ReLU()
      (2): Linear(in_features=40, out_features=60, bias=True)
      (3): ReLU()
      (4): Linear(in_features=60, out_features=80, bias=True)
    )
    (sex_classifier): FullyConnSexClassifier(
      (fc1): Linear(in_features=40, out_features=20, bias=True)
      (fc2): Linear(in_features=20, out_features=2, bias=True)
    )
  )
) loading from model_checkpoints/asr_model.ckpt, the object could not use the parameters loaded with the key: 1.encoder.layers.0.self_att.att.out_proj.bias
2022-04-07 13:41:36,978 - speechbrain.utils.checkpoints - WARNING - During parameter transfer to ModuleList(
  (0): FullyConnectedAutoencoder(
    (encoder): Sequential(
      (0): Linear(in_features=80, out_features=60, bias=True)
      (1): ReLU()
      (2): Linear(in_features=60, out_features=40, bias=True)
      (3): ReLU()
      (4): Linear(in_features=40, out_features=20, bias=True)
    )
    (decoder): Sequential(
      (0): Linear(in_features=20, out_features=40, bias=True)
      (1): ReLU()
      (2): Linear(in_features=40, out_features=60, bias=True)
      (3): ReLU()
      (4): Linear(in_features=60, out_features=80, bias=True)
    )
    (sex_classifier): FullyConnSexClassifier(
      (fc1): Linear(in_features=40, out_features=20, bias=True)
      (fc2): Linear(in_features=20, out_features=2, bias=True)
    )
  )
) loading from model_checkpoints/asr_model.ckpt, the object could not use the parameters loaded with the key: 1.encoder.layers.0.pos_ffn.ffn.0.weight
2022-04-07 13:41:36,978 - speechbrain.utils.checkpoints - WARNING - During parameter transfer to ModuleList(
  (0): FullyConnectedAutoencoder(
    (encoder): Sequential(
      (0): Linear(in_features=80, out_features=60, bias=True)
      (1): ReLU()
      (2): Linear(in_features=60, out_features=40, bias=True)
      (3): ReLU()
      (4): Linear(in_features=40, out_features=20, bias=True)
    )
    (decoder): Sequential(
      (0): Linear(in_features=20, out_features=40, bias=True)
      (1): ReLU()
      (2): Linear(in_features=40, out_features=60, bias=True)
      (3): ReLU()
      (4): Linear(in_features=60, out_features=80, bias=True)
    )
    (sex_classifier): FullyConnSexClassifier(
      (fc1): Linear(in_features=40, out_features=20, bias=True)
      (fc2): Linear(in_features=20, out_features=2, bias=True)
    )
  )
) loading from model_checkpoints/asr_model.ckpt, the object could not use the parameters loaded with the key: 1.encoder.layers.0.pos_ffn.ffn.0.bias
2022-04-07 13:41:36,978 - speechbrain.utils.checkpoints - WARNING - During parameter transfer to ModuleList(
  (0): FullyConnectedAutoencoder(
    (encoder): Sequential(
      (0): Linear(in_features=80, out_features=60, bias=True)
      (1): ReLU()
      (2): Linear(in_features=60, out_features=40, bias=True)
      (3): ReLU()
      (4): Linear(in_features=40, out_features=20, bias=True)
    )
    (decoder): Sequential(
      (0): Linear(in_features=20, out_features=40, bias=True)
      (1): ReLU()
      (2): Linear(in_features=40, out_features=60, bias=True)
      (3): ReLU()
      (4): Linear(in_features=60, out_features=80, bias=True)
    )
    (sex_classifier): FullyConnSexClassifier(
      (fc1): Linear(in_features=40, out_features=20, bias=True)
      (fc2): Linear(in_features=20, out_features=2, bias=True)
    )
  )
) loading from model_checkpoints/asr_model.ckpt, the object could not use the parameters loaded with the key: 1.encoder.layers.0.pos_ffn.ffn.3.weight
2022-04-07 13:41:36,979 - speechbrain.utils.checkpoints - WARNING - During parameter transfer to ModuleList(
  (0): FullyConnectedAutoencoder(
    (encoder): Sequential(
      (0): Linear(in_features=80, out_features=60, bias=True)
      (1): ReLU()
      (2): Linear(in_features=60, out_features=40, bias=True)
      (3): ReLU()
      (4): Linear(in_features=40, out_features=20, bias=True)
    )
    (decoder): Sequential(
      (0): Linear(in_features=20, out_features=40, bias=True)
      (1): ReLU()
      (2): Linear(in_features=40, out_features=60, bias=True)
      (3): ReLU()
      (4): Linear(in_features=60, out_features=80, bias=True)
    )
    (sex_classifier): FullyConnSexClassifier(
      (fc1): Linear(in_features=40, out_features=20, bias=True)
      (fc2): Linear(in_features=20, out_features=2, bias=True)
    )
  )
) loading from model_checkpoints/asr_model.ckpt, the object could not use the parameters loaded with the key: 1.encoder.layers.0.pos_ffn.ffn.3.bias
2022-04-07 13:41:36,979 - speechbrain.utils.checkpoints - WARNING - During parameter transfer to ModuleList(
  (0): FullyConnectedAutoencoder(
    (encoder): Sequential(
      (0): Linear(in_features=80, out_features=60, bias=True)
      (1): ReLU()
      (2): Linear(in_features=60, out_features=40, bias=True)
      (3): ReLU()
      (4): Linear(in_features=40, out_features=20, bias=True)
    )
    (decoder): Sequential(
      (0): Linear(in_features=20, out_features=40, bias=True)
      (1): ReLU()
      (2): Linear(in_features=40, out_features=60, bias=True)
      (3): ReLU()
      (4): Linear(in_features=60, out_features=80, bias=True)
    )
    (sex_classifier): FullyConnSexClassifier(
      (fc1): Linear(in_features=40, out_features=20, bias=True)
      (fc2): Linear(in_features=20, out_features=2, bias=True)
    )
  )
) loading from model_checkpoints/asr_model.ckpt, the object could not use the parameters loaded with the key: 1.encoder.layers.0.norm1.norm.weight
2022-04-07 13:41:36,979 - speechbrain.utils.checkpoints - WARNING - During parameter transfer to ModuleList(
  (0): FullyConnectedAutoencoder(
    (encoder): Sequential(
      (0): Linear(in_features=80, out_features=60, bias=True)
      (1): ReLU()
      (2): Linear(in_features=60, out_features=40, bias=True)
      (3): ReLU()
      (4): Linear(in_features=40, out_features=20, bias=True)
    )
    (decoder): Sequential(
      (0): Linear(in_features=20, out_features=40, bias=True)
      (1): ReLU()
      (2): Linear(in_features=40, out_features=60, bias=True)
      (3): ReLU()
      (4): Linear(in_features=60, out_features=80, bias=True)
    )
    (sex_classifier): FullyConnSexClassifier(
      (fc1): Linear(in_features=40, out_features=20, bias=True)
      (fc2): Linear(in_features=20, out_features=2, bias=True)
    )
  )
) loading from model_checkpoints/asr_model.ckpt, the object could not use the parameters loaded with the key: 1.encoder.layers.0.norm1.norm.bias
2022-04-07 13:41:36,979 - speechbrain.utils.checkpoints - WARNING - During parameter transfer to ModuleList(
  (0): FullyConnectedAutoencoder(
    (encoder): Sequential(
      (0): Linear(in_features=80, out_features=60, bias=True)
      (1): ReLU()
      (2): Linear(in_features=60, out_features=40, bias=True)
      (3): ReLU()
      (4): Linear(in_features=40, out_features=20, bias=True)
    )
    (decoder): Sequential(
      (0): Linear(in_features=20, out_features=40, bias=True)
      (1): ReLU()
      (2): Linear(in_features=40, out_features=60, bias=True)
      (3): ReLU()
      (4): Linear(in_features=60, out_features=80, bias=True)
    )
    (sex_classifier): FullyConnSexClassifier(
      (fc1): Linear(in_features=40, out_features=20, bias=True)
      (fc2): Linear(in_features=20, out_features=2, bias=True)
    )
  )
) loading from model_checkpoints/asr_model.ckpt, the object could not use the parameters loaded with the key: 1.encoder.layers.0.norm2.norm.weight
2022-04-07 13:41:36,979 - speechbrain.utils.checkpoints - WARNING - During parameter transfer to ModuleList(
  (0): FullyConnectedAutoencoder(
    (encoder): Sequential(
      (0): Linear(in_features=80, out_features=60, bias=True)
      (1): ReLU()
      (2): Linear(in_features=60, out_features=40, bias=True)
      (3): ReLU()
      (4): Linear(in_features=40, out_features=20, bias=True)
    )
    (decoder): Sequential(
      (0): Linear(in_features=20, out_features=40, bias=True)
      (1): ReLU()
      (2): Linear(in_features=40, out_features=60, bias=True)
      (3): ReLU()
      (4): Linear(in_features=60, out_features=80, bias=True)
    )
    (sex_classifier): FullyConnSexClassifier(
      (fc1): Linear(in_features=40, out_features=20, bias=True)
      (fc2): Linear(in_features=20, out_features=2, bias=True)
    )
  )
) loading from model_checkpoints/asr_model.ckpt, the object could not use the parameters loaded with the key: 1.encoder.layers.0.norm2.norm.bias
2022-04-07 13:41:36,979 - speechbrain.utils.checkpoints - WARNING - During parameter transfer to ModuleList(
  (0): FullyConnectedAutoencoder(
    (encoder): Sequential(
      (0): Linear(in_features=80, out_features=60, bias=True)
      (1): ReLU()
      (2): Linear(in_features=60, out_features=40, bias=True)
      (3): ReLU()
      (4): Linear(in_features=40, out_features=20, bias=True)
    )
    (decoder): Sequential(
      (0): Linear(in_features=20, out_features=40, bias=True)
      (1): ReLU()
      (2): Linear(in_features=40, out_features=60, bias=True)
      (3): ReLU()
      (4): Linear(in_features=60, out_features=80, bias=True)
    )
    (sex_classifier): FullyConnSexClassifier(
      (fc1): Linear(in_features=40, out_features=20, bias=True)
      (fc2): Linear(in_features=20, out_features=2, bias=True)
    )
  )
) loading from model_checkpoints/asr_model.ckpt, the object could not use the parameters loaded with the key: 1.encoder.layers.1.self_att.att.in_proj_weight
2022-04-07 13:41:36,979 - speechbrain.utils.checkpoints - WARNING - During parameter transfer to ModuleList(
  (0): FullyConnectedAutoencoder(
    (encoder): Sequential(
      (0): Linear(in_features=80, out_features=60, bias=True)
      (1): ReLU()
      (2): Linear(in_features=60, out_features=40, bias=True)
      (3): ReLU()
      (4): Linear(in_features=40, out_features=20, bias=True)
    )
    (decoder): Sequential(
      (0): Linear(in_features=20, out_features=40, bias=True)
      (1): ReLU()
      (2): Linear(in_features=40, out_features=60, bias=True)
      (3): ReLU()
      (4): Linear(in_features=60, out_features=80, bias=True)
    )
    (sex_classifier): FullyConnSexClassifier(
      (fc1): Linear(in_features=40, out_features=20, bias=True)
      (fc2): Linear(in_features=20, out_features=2, bias=True)
    )
  )
) loading from model_checkpoints/asr_model.ckpt, the object could not use the parameters loaded with the key: 1.encoder.layers.1.self_att.att.in_proj_bias
2022-04-07 13:41:36,980 - speechbrain.utils.checkpoints - WARNING - During parameter transfer to ModuleList(
  (0): FullyConnectedAutoencoder(
    (encoder): Sequential(
      (0): Linear(in_features=80, out_features=60, bias=True)
      (1): ReLU()
      (2): Linear(in_features=60, out_features=40, bias=True)
      (3): ReLU()
      (4): Linear(in_features=40, out_features=20, bias=True)
    )
    (decoder): Sequential(
      (0): Linear(in_features=20, out_features=40, bias=True)
      (1): ReLU()
      (2): Linear(in_features=40, out_features=60, bias=True)
      (3): ReLU()
      (4): Linear(in_features=60, out_features=80, bias=True)
    )
    (sex_classifier): FullyConnSexClassifier(
      (fc1): Linear(in_features=40, out_features=20, bias=True)
      (fc2): Linear(in_features=20, out_features=2, bias=True)
    )
  )
) loading from model_checkpoints/asr_model.ckpt, the object could not use the parameters loaded with the key: 1.encoder.layers.1.self_att.att.out_proj.weight
2022-04-07 13:41:36,980 - speechbrain.utils.checkpoints - WARNING - During parameter transfer to ModuleList(
  (0): FullyConnectedAutoencoder(
    (encoder): Sequential(
      (0): Linear(in_features=80, out_features=60, bias=True)
      (1): ReLU()
      (2): Linear(in_features=60, out_features=40, bias=True)
      (3): ReLU()
      (4): Linear(in_features=40, out_features=20, bias=True)
    )
    (decoder): Sequential(
      (0): Linear(in_features=20, out_features=40, bias=True)
      (1): ReLU()
      (2): Linear(in_features=40, out_features=60, bias=True)
      (3): ReLU()
      (4): Linear(in_features=60, out_features=80, bias=True)
    )
    (sex_classifier): FullyConnSexClassifier(
      (fc1): Linear(in_features=40, out_features=20, bias=True)
      (fc2): Linear(in_features=20, out_features=2, bias=True)
    )
  )
) loading from model_checkpoints/asr_model.ckpt, the object could not use the parameters loaded with the key: 1.encoder.layers.1.self_att.att.out_proj.bias
2022-04-07 13:41:36,980 - speechbrain.utils.checkpoints - WARNING - During parameter transfer to ModuleList(
  (0): FullyConnectedAutoencoder(
    (encoder): Sequential(
      (0): Linear(in_features=80, out_features=60, bias=True)
      (1): ReLU()
      (2): Linear(in_features=60, out_features=40, bias=True)
      (3): ReLU()
      (4): Linear(in_features=40, out_features=20, bias=True)
    )
    (decoder): Sequential(
      (0): Linear(in_features=20, out_features=40, bias=True)
      (1): ReLU()
      (2): Linear(in_features=40, out_features=60, bias=True)
      (3): ReLU()
      (4): Linear(in_features=60, out_features=80, bias=True)
    )
    (sex_classifier): FullyConnSexClassifier(
      (fc1): Linear(in_features=40, out_features=20, bias=True)
      (fc2): Linear(in_features=20, out_features=2, bias=True)
    )
  )
) loading from model_checkpoints/asr_model.ckpt, the object could not use the parameters loaded with the key: 1.encoder.layers.1.pos_ffn.ffn.0.weight
2022-04-07 13:41:36,980 - speechbrain.utils.checkpoints - WARNING - During parameter transfer to ModuleList(
  (0): FullyConnectedAutoencoder(
    (encoder): Sequential(
      (0): Linear(in_features=80, out_features=60, bias=True)
      (1): ReLU()
      (2): Linear(in_features=60, out_features=40, bias=True)
      (3): ReLU()
      (4): Linear(in_features=40, out_features=20, bias=True)
    )
    (decoder): Sequential(
      (0): Linear(in_features=20, out_features=40, bias=True)
      (1): ReLU()
      (2): Linear(in_features=40, out_features=60, bias=True)
      (3): ReLU()
      (4): Linear(in_features=60, out_features=80, bias=True)
    )
    (sex_classifier): FullyConnSexClassifier(
      (fc1): Linear(in_features=40, out_features=20, bias=True)
      (fc2): Linear(in_features=20, out_features=2, bias=True)
    )
  )
) loading from model_checkpoints/asr_model.ckpt, the object could not use the parameters loaded with the key: 1.encoder.layers.1.pos_ffn.ffn.0.bias
2022-04-07 13:41:36,980 - speechbrain.utils.checkpoints - WARNING - During parameter transfer to ModuleList(
  (0): FullyConnectedAutoencoder(
    (encoder): Sequential(
      (0): Linear(in_features=80, out_features=60, bias=True)
      (1): ReLU()
      (2): Linear(in_features=60, out_features=40, bias=True)
      (3): ReLU()
      (4): Linear(in_features=40, out_features=20, bias=True)
    )
    (decoder): Sequential(
      (0): Linear(in_features=20, out_features=40, bias=True)
      (1): ReLU()
      (2): Linear(in_features=40, out_features=60, bias=True)
      (3): ReLU()
      (4): Linear(in_features=60, out_features=80, bias=True)
    )
    (sex_classifier): FullyConnSexClassifier(
      (fc1): Linear(in_features=40, out_features=20, bias=True)
      (fc2): Linear(in_features=20, out_features=2, bias=True)
    )
  )
) loading from model_checkpoints/asr_model.ckpt, the object could not use the parameters loaded with the key: 1.encoder.layers.1.pos_ffn.ffn.3.weight
2022-04-07 13:41:36,980 - speechbrain.utils.checkpoints - WARNING - During parameter transfer to ModuleList(
  (0): FullyConnectedAutoencoder(
    (encoder): Sequential(
      (0): Linear(in_features=80, out_features=60, bias=True)
      (1): ReLU()
      (2): Linear(in_features=60, out_features=40, bias=True)
      (3): ReLU()
      (4): Linear(in_features=40, out_features=20, bias=True)
    )
    (decoder): Sequential(
      (0): Linear(in_features=20, out_features=40, bias=True)
      (1): ReLU()
      (2): Linear(in_features=40, out_features=60, bias=True)
      (3): ReLU()
      (4): Linear(in_features=60, out_features=80, bias=True)
    )
    (sex_classifier): FullyConnSexClassifier(
      (fc1): Linear(in_features=40, out_features=20, bias=True)
      (fc2): Linear(in_features=20, out_features=2, bias=True)
    )
  )
) loading from model_checkpoints/asr_model.ckpt, the object could not use the parameters loaded with the key: 1.encoder.layers.1.pos_ffn.ffn.3.bias
2022-04-07 13:41:36,980 - speechbrain.utils.checkpoints - WARNING - During parameter transfer to ModuleList(
  (0): FullyConnectedAutoencoder(
    (encoder): Sequential(
      (0): Linear(in_features=80, out_features=60, bias=True)
      (1): ReLU()
      (2): Linear(in_features=60, out_features=40, bias=True)
      (3): ReLU()
      (4): Linear(in_features=40, out_features=20, bias=True)
    )
    (decoder): Sequential(
      (0): Linear(in_features=20, out_features=40, bias=True)
      (1): ReLU()
      (2): Linear(in_features=40, out_features=60, bias=True)
      (3): ReLU()
      (4): Linear(in_features=60, out_features=80, bias=True)
    )
    (sex_classifier): FullyConnSexClassifier(
      (fc1): Linear(in_features=40, out_features=20, bias=True)
      (fc2): Linear(in_features=20, out_features=2, bias=True)
    )
  )
) loading from model_checkpoints/asr_model.ckpt, the object could not use the parameters loaded with the key: 1.encoder.layers.1.norm1.norm.weight
2022-04-07 13:41:36,980 - speechbrain.utils.checkpoints - WARNING - During parameter transfer to ModuleList(
  (0): FullyConnectedAutoencoder(
    (encoder): Sequential(
      (0): Linear(in_features=80, out_features=60, bias=True)
      (1): ReLU()
      (2): Linear(in_features=60, out_features=40, bias=True)
      (3): ReLU()
      (4): Linear(in_features=40, out_features=20, bias=True)
    )
    (decoder): Sequential(
      (0): Linear(in_features=20, out_features=40, bias=True)
      (1): ReLU()
      (2): Linear(in_features=40, out_features=60, bias=True)
      (3): ReLU()
      (4): Linear(in_features=60, out_features=80, bias=True)
    )
    (sex_classifier): FullyConnSexClassifier(
      (fc1): Linear(in_features=40, out_features=20, bias=True)
      (fc2): Linear(in_features=20, out_features=2, bias=True)
    )
  )
) loading from model_checkpoints/asr_model.ckpt, the object could not use the parameters loaded with the key: 1.encoder.layers.1.norm1.norm.bias
2022-04-07 13:41:36,981 - speechbrain.utils.checkpoints - WARNING - During parameter transfer to ModuleList(
  (0): FullyConnectedAutoencoder(
    (encoder): Sequential(
      (0): Linear(in_features=80, out_features=60, bias=True)
      (1): ReLU()
      (2): Linear(in_features=60, out_features=40, bias=True)
      (3): ReLU()
      (4): Linear(in_features=40, out_features=20, bias=True)
    )
    (decoder): Sequential(
      (0): Linear(in_features=20, out_features=40, bias=True)
      (1): ReLU()
      (2): Linear(in_features=40, out_features=60, bias=True)
      (3): ReLU()
      (4): Linear(in_features=60, out_features=80, bias=True)
    )
    (sex_classifier): FullyConnSexClassifier(
      (fc1): Linear(in_features=40, out_features=20, bias=True)
      (fc2): Linear(in_features=20, out_features=2, bias=True)
    )
  )
) loading from model_checkpoints/asr_model.ckpt, the object could not use the parameters loaded with the key: 1.encoder.layers.1.norm2.norm.weight
2022-04-07 13:41:36,981 - speechbrain.utils.checkpoints - WARNING - During parameter transfer to ModuleList(
  (0): FullyConnectedAutoencoder(
    (encoder): Sequential(
      (0): Linear(in_features=80, out_features=60, bias=True)
      (1): ReLU()
      (2): Linear(in_features=60, out_features=40, bias=True)
      (3): ReLU()
      (4): Linear(in_features=40, out_features=20, bias=True)
    )
    (decoder): Sequential(
      (0): Linear(in_features=20, out_features=40, bias=True)
      (1): ReLU()
      (2): Linear(in_features=40, out_features=60, bias=True)
      (3): ReLU()
      (4): Linear(in_features=60, out_features=80, bias=True)
    )
    (sex_classifier): FullyConnSexClassifier(
      (fc1): Linear(in_features=40, out_features=20, bias=True)
      (fc2): Linear(in_features=20, out_features=2, bias=True)
    )
  )
) loading from model_checkpoints/asr_model.ckpt, the object could not use the parameters loaded with the key: 1.encoder.layers.1.norm2.norm.bias
2022-04-07 13:41:36,981 - speechbrain.utils.checkpoints - WARNING - During parameter transfer to ModuleList(
  (0): FullyConnectedAutoencoder(
    (encoder): Sequential(
      (0): Linear(in_features=80, out_features=60, bias=True)
      (1): ReLU()
      (2): Linear(in_features=60, out_features=40, bias=True)
      (3): ReLU()
      (4): Linear(in_features=40, out_features=20, bias=True)
    )
    (decoder): Sequential(
      (0): Linear(in_features=20, out_features=40, bias=True)
      (1): ReLU()
      (2): Linear(in_features=40, out_features=60, bias=True)
      (3): ReLU()
      (4): Linear(in_features=60, out_features=80, bias=True)
    )
    (sex_classifier): FullyConnSexClassifier(
      (fc1): Linear(in_features=40, out_features=20, bias=True)
      (fc2): Linear(in_features=20, out_features=2, bias=True)
    )
  )
) loading from model_checkpoints/asr_model.ckpt, the object could not use the parameters loaded with the key: 1.encoder.layers.2.self_att.att.in_proj_weight
2022-04-07 13:41:36,981 - speechbrain.utils.checkpoints - WARNING - During parameter transfer to ModuleList(
  (0): FullyConnectedAutoencoder(
    (encoder): Sequential(
      (0): Linear(in_features=80, out_features=60, bias=True)
      (1): ReLU()
      (2): Linear(in_features=60, out_features=40, bias=True)
      (3): ReLU()
      (4): Linear(in_features=40, out_features=20, bias=True)
    )
    (decoder): Sequential(
      (0): Linear(in_features=20, out_features=40, bias=True)
      (1): ReLU()
      (2): Linear(in_features=40, out_features=60, bias=True)
      (3): ReLU()
      (4): Linear(in_features=60, out_features=80, bias=True)
    )
    (sex_classifier): FullyConnSexClassifier(
      (fc1): Linear(in_features=40, out_features=20, bias=True)
      (fc2): Linear(in_features=20, out_features=2, bias=True)
    )
  )
) loading from model_checkpoints/asr_model.ckpt, the object could not use the parameters loaded with the key: 1.encoder.layers.2.self_att.att.in_proj_bias
2022-04-07 13:41:36,981 - speechbrain.utils.checkpoints - WARNING - During parameter transfer to ModuleList(
  (0): FullyConnectedAutoencoder(
    (encoder): Sequential(
      (0): Linear(in_features=80, out_features=60, bias=True)
      (1): ReLU()
      (2): Linear(in_features=60, out_features=40, bias=True)
      (3): ReLU()
      (4): Linear(in_features=40, out_features=20, bias=True)
    )
    (decoder): Sequential(
      (0): Linear(in_features=20, out_features=40, bias=True)
      (1): ReLU()
      (2): Linear(in_features=40, out_features=60, bias=True)
      (3): ReLU()
      (4): Linear(in_features=60, out_features=80, bias=True)
    )
    (sex_classifier): FullyConnSexClassifier(
      (fc1): Linear(in_features=40, out_features=20, bias=True)
      (fc2): Linear(in_features=20, out_features=2, bias=True)
    )
  )
) loading from model_checkpoints/asr_model.ckpt, the object could not use the parameters loaded with the key: 1.encoder.layers.2.self_att.att.out_proj.weight
2022-04-07 13:41:36,981 - speechbrain.utils.checkpoints - WARNING - During parameter transfer to ModuleList(
  (0): FullyConnectedAutoencoder(
    (encoder): Sequential(
      (0): Linear(in_features=80, out_features=60, bias=True)
      (1): ReLU()
      (2): Linear(in_features=60, out_features=40, bias=True)
      (3): ReLU()
      (4): Linear(in_features=40, out_features=20, bias=True)
    )
    (decoder): Sequential(
      (0): Linear(in_features=20, out_features=40, bias=True)
      (1): ReLU()
      (2): Linear(in_features=40, out_features=60, bias=True)
      (3): ReLU()
      (4): Linear(in_features=60, out_features=80, bias=True)
    )
    (sex_classifier): FullyConnSexClassifier(
      (fc1): Linear(in_features=40, out_features=20, bias=True)
      (fc2): Linear(in_features=20, out_features=2, bias=True)
    )
  )
) loading from model_checkpoints/asr_model.ckpt, the object could not use the parameters loaded with the key: 1.encoder.layers.2.self_att.att.out_proj.bias
2022-04-07 13:41:36,982 - speechbrain.utils.checkpoints - WARNING - During parameter transfer to ModuleList(
  (0): FullyConnectedAutoencoder(
    (encoder): Sequential(
      (0): Linear(in_features=80, out_features=60, bias=True)
      (1): ReLU()
      (2): Linear(in_features=60, out_features=40, bias=True)
      (3): ReLU()
      (4): Linear(in_features=40, out_features=20, bias=True)
    )
    (decoder): Sequential(
      (0): Linear(in_features=20, out_features=40, bias=True)
      (1): ReLU()
      (2): Linear(in_features=40, out_features=60, bias=True)
      (3): ReLU()
      (4): Linear(in_features=60, out_features=80, bias=True)
    )
    (sex_classifier): FullyConnSexClassifier(
      (fc1): Linear(in_features=40, out_features=20, bias=True)
      (fc2): Linear(in_features=20, out_features=2, bias=True)
    )
  )
) loading from model_checkpoints/asr_model.ckpt, the object could not use the parameters loaded with the key: 1.encoder.layers.2.pos_ffn.ffn.0.weight
2022-04-07 13:41:36,982 - speechbrain.utils.checkpoints - WARNING - During parameter transfer to ModuleList(
  (0): FullyConnectedAutoencoder(
    (encoder): Sequential(
      (0): Linear(in_features=80, out_features=60, bias=True)
      (1): ReLU()
      (2): Linear(in_features=60, out_features=40, bias=True)
      (3): ReLU()
      (4): Linear(in_features=40, out_features=20, bias=True)
    )
    (decoder): Sequential(
      (0): Linear(in_features=20, out_features=40, bias=True)
      (1): ReLU()
      (2): Linear(in_features=40, out_features=60, bias=True)
      (3): ReLU()
      (4): Linear(in_features=60, out_features=80, bias=True)
    )
    (sex_classifier): FullyConnSexClassifier(
      (fc1): Linear(in_features=40, out_features=20, bias=True)
      (fc2): Linear(in_features=20, out_features=2, bias=True)
    )
  )
) loading from model_checkpoints/asr_model.ckpt, the object could not use the parameters loaded with the key: 1.encoder.layers.2.pos_ffn.ffn.0.bias
2022-04-07 13:41:36,982 - speechbrain.utils.checkpoints - WARNING - During parameter transfer to ModuleList(
  (0): FullyConnectedAutoencoder(
    (encoder): Sequential(
      (0): Linear(in_features=80, out_features=60, bias=True)
      (1): ReLU()
      (2): Linear(in_features=60, out_features=40, bias=True)
      (3): ReLU()
      (4): Linear(in_features=40, out_features=20, bias=True)
    )
    (decoder): Sequential(
      (0): Linear(in_features=20, out_features=40, bias=True)
      (1): ReLU()
      (2): Linear(in_features=40, out_features=60, bias=True)
      (3): ReLU()
      (4): Linear(in_features=60, out_features=80, bias=True)
    )
    (sex_classifier): FullyConnSexClassifier(
      (fc1): Linear(in_features=40, out_features=20, bias=True)
      (fc2): Linear(in_features=20, out_features=2, bias=True)
    )
  )
) loading from model_checkpoints/asr_model.ckpt, the object could not use the parameters loaded with the key: 1.encoder.layers.2.pos_ffn.ffn.3.weight
2022-04-07 13:41:36,982 - speechbrain.utils.checkpoints - WARNING - During parameter transfer to ModuleList(
  (0): FullyConnectedAutoencoder(
    (encoder): Sequential(
      (0): Linear(in_features=80, out_features=60, bias=True)
      (1): ReLU()
      (2): Linear(in_features=60, out_features=40, bias=True)
      (3): ReLU()
      (4): Linear(in_features=40, out_features=20, bias=True)
    )
    (decoder): Sequential(
      (0): Linear(in_features=20, out_features=40, bias=True)
      (1): ReLU()
      (2): Linear(in_features=40, out_features=60, bias=True)
      (3): ReLU()
      (4): Linear(in_features=60, out_features=80, bias=True)
    )
    (sex_classifier): FullyConnSexClassifier(
      (fc1): Linear(in_features=40, out_features=20, bias=True)
      (fc2): Linear(in_features=20, out_features=2, bias=True)
    )
  )
) loading from model_checkpoints/asr_model.ckpt, the object could not use the parameters loaded with the key: 1.encoder.layers.2.pos_ffn.ffn.3.bias
2022-04-07 13:41:36,982 - speechbrain.utils.checkpoints - WARNING - During parameter transfer to ModuleList(
  (0): FullyConnectedAutoencoder(
    (encoder): Sequential(
      (0): Linear(in_features=80, out_features=60, bias=True)
      (1): ReLU()
      (2): Linear(in_features=60, out_features=40, bias=True)
      (3): ReLU()
      (4): Linear(in_features=40, out_features=20, bias=True)
    )
    (decoder): Sequential(
      (0): Linear(in_features=20, out_features=40, bias=True)
      (1): ReLU()
      (2): Linear(in_features=40, out_features=60, bias=True)
      (3): ReLU()
      (4): Linear(in_features=60, out_features=80, bias=True)
    )
    (sex_classifier): FullyConnSexClassifier(
      (fc1): Linear(in_features=40, out_features=20, bias=True)
      (fc2): Linear(in_features=20, out_features=2, bias=True)
    )
  )
) loading from model_checkpoints/asr_model.ckpt, the object could not use the parameters loaded with the key: 1.encoder.layers.2.norm1.norm.weight
2022-04-07 13:41:36,982 - speechbrain.utils.checkpoints - WARNING - During parameter transfer to ModuleList(
  (0): FullyConnectedAutoencoder(
    (encoder): Sequential(
      (0): Linear(in_features=80, out_features=60, bias=True)
      (1): ReLU()
      (2): Linear(in_features=60, out_features=40, bias=True)
      (3): ReLU()
      (4): Linear(in_features=40, out_features=20, bias=True)
    )
    (decoder): Sequential(
      (0): Linear(in_features=20, out_features=40, bias=True)
      (1): ReLU()
      (2): Linear(in_features=40, out_features=60, bias=True)
      (3): ReLU()
      (4): Linear(in_features=60, out_features=80, bias=True)
    )
    (sex_classifier): FullyConnSexClassifier(
      (fc1): Linear(in_features=40, out_features=20, bias=True)
      (fc2): Linear(in_features=20, out_features=2, bias=True)
    )
  )
) loading from model_checkpoints/asr_model.ckpt, the object could not use the parameters loaded with the key: 1.encoder.layers.2.norm1.norm.bias
2022-04-07 13:41:36,982 - speechbrain.utils.checkpoints - WARNING - During parameter transfer to ModuleList(
  (0): FullyConnectedAutoencoder(
    (encoder): Sequential(
      (0): Linear(in_features=80, out_features=60, bias=True)
      (1): ReLU()
      (2): Linear(in_features=60, out_features=40, bias=True)
      (3): ReLU()
      (4): Linear(in_features=40, out_features=20, bias=True)
    )
    (decoder): Sequential(
      (0): Linear(in_features=20, out_features=40, bias=True)
      (1): ReLU()
      (2): Linear(in_features=40, out_features=60, bias=True)
      (3): ReLU()
      (4): Linear(in_features=60, out_features=80, bias=True)
    )
    (sex_classifier): FullyConnSexClassifier(
      (fc1): Linear(in_features=40, out_features=20, bias=True)
      (fc2): Linear(in_features=20, out_features=2, bias=True)
    )
  )
) loading from model_checkpoints/asr_model.ckpt, the object could not use the parameters loaded with the key: 1.encoder.layers.2.norm2.norm.weight
2022-04-07 13:41:36,983 - speechbrain.utils.checkpoints - WARNING - During parameter transfer to ModuleList(
  (0): FullyConnectedAutoencoder(
    (encoder): Sequential(
      (0): Linear(in_features=80, out_features=60, bias=True)
      (1): ReLU()
      (2): Linear(in_features=60, out_features=40, bias=True)
      (3): ReLU()
      (4): Linear(in_features=40, out_features=20, bias=True)
    )
    (decoder): Sequential(
      (0): Linear(in_features=20, out_features=40, bias=True)
      (1): ReLU()
      (2): Linear(in_features=40, out_features=60, bias=True)
      (3): ReLU()
      (4): Linear(in_features=60, out_features=80, bias=True)
    )
    (sex_classifier): FullyConnSexClassifier(
      (fc1): Linear(in_features=40, out_features=20, bias=True)
      (fc2): Linear(in_features=20, out_features=2, bias=True)
    )
  )
) loading from model_checkpoints/asr_model.ckpt, the object could not use the parameters loaded with the key: 1.encoder.layers.2.norm2.norm.bias
2022-04-07 13:41:36,983 - speechbrain.utils.checkpoints - WARNING - During parameter transfer to ModuleList(
  (0): FullyConnectedAutoencoder(
    (encoder): Sequential(
      (0): Linear(in_features=80, out_features=60, bias=True)
      (1): ReLU()
      (2): Linear(in_features=60, out_features=40, bias=True)
      (3): ReLU()
      (4): Linear(in_features=40, out_features=20, bias=True)
    )
    (decoder): Sequential(
      (0): Linear(in_features=20, out_features=40, bias=True)
      (1): ReLU()
      (2): Linear(in_features=40, out_features=60, bias=True)
      (3): ReLU()
      (4): Linear(in_features=60, out_features=80, bias=True)
    )
    (sex_classifier): FullyConnSexClassifier(
      (fc1): Linear(in_features=40, out_features=20, bias=True)
      (fc2): Linear(in_features=20, out_features=2, bias=True)
    )
  )
) loading from model_checkpoints/asr_model.ckpt, the object could not use the parameters loaded with the key: 1.encoder.layers.3.self_att.att.in_proj_weight
2022-04-07 13:41:36,983 - speechbrain.utils.checkpoints - WARNING - During parameter transfer to ModuleList(
  (0): FullyConnectedAutoencoder(
    (encoder): Sequential(
      (0): Linear(in_features=80, out_features=60, bias=True)
      (1): ReLU()
      (2): Linear(in_features=60, out_features=40, bias=True)
      (3): ReLU()
      (4): Linear(in_features=40, out_features=20, bias=True)
    )
    (decoder): Sequential(
      (0): Linear(in_features=20, out_features=40, bias=True)
      (1): ReLU()
      (2): Linear(in_features=40, out_features=60, bias=True)
      (3): ReLU()
      (4): Linear(in_features=60, out_features=80, bias=True)
    )
    (sex_classifier): FullyConnSexClassifier(
      (fc1): Linear(in_features=40, out_features=20, bias=True)
      (fc2): Linear(in_features=20, out_features=2, bias=True)
    )
  )
) loading from model_checkpoints/asr_model.ckpt, the object could not use the parameters loaded with the key: 1.encoder.layers.3.self_att.att.in_proj_bias
2022-04-07 13:41:36,983 - speechbrain.utils.checkpoints - WARNING - During parameter transfer to ModuleList(
  (0): FullyConnectedAutoencoder(
    (encoder): Sequential(
      (0): Linear(in_features=80, out_features=60, bias=True)
      (1): ReLU()
      (2): Linear(in_features=60, out_features=40, bias=True)
      (3): ReLU()
      (4): Linear(in_features=40, out_features=20, bias=True)
    )
    (decoder): Sequential(
      (0): Linear(in_features=20, out_features=40, bias=True)
      (1): ReLU()
      (2): Linear(in_features=40, out_features=60, bias=True)
      (3): ReLU()
      (4): Linear(in_features=60, out_features=80, bias=True)
    )
    (sex_classifier): FullyConnSexClassifier(
      (fc1): Linear(in_features=40, out_features=20, bias=True)
      (fc2): Linear(in_features=20, out_features=2, bias=True)
    )
  )
) loading from model_checkpoints/asr_model.ckpt, the object could not use the parameters loaded with the key: 1.encoder.layers.3.self_att.att.out_proj.weight
2022-04-07 13:41:36,983 - speechbrain.utils.checkpoints - WARNING - During parameter transfer to ModuleList(
  (0): FullyConnectedAutoencoder(
    (encoder): Sequential(
      (0): Linear(in_features=80, out_features=60, bias=True)
      (1): ReLU()
      (2): Linear(in_features=60, out_features=40, bias=True)
      (3): ReLU()
      (4): Linear(in_features=40, out_features=20, bias=True)
    )
    (decoder): Sequential(
      (0): Linear(in_features=20, out_features=40, bias=True)
      (1): ReLU()
      (2): Linear(in_features=40, out_features=60, bias=True)
      (3): ReLU()
      (4): Linear(in_features=60, out_features=80, bias=True)
    )
    (sex_classifier): FullyConnSexClassifier(
      (fc1): Linear(in_features=40, out_features=20, bias=True)
      (fc2): Linear(in_features=20, out_features=2, bias=True)
    )
  )
) loading from model_checkpoints/asr_model.ckpt, the object could not use the parameters loaded with the key: 1.encoder.layers.3.self_att.att.out_proj.bias
2022-04-07 13:41:36,983 - speechbrain.utils.checkpoints - WARNING - During parameter transfer to ModuleList(
  (0): FullyConnectedAutoencoder(
    (encoder): Sequential(
      (0): Linear(in_features=80, out_features=60, bias=True)
      (1): ReLU()
      (2): Linear(in_features=60, out_features=40, bias=True)
      (3): ReLU()
      (4): Linear(in_features=40, out_features=20, bias=True)
    )
    (decoder): Sequential(
      (0): Linear(in_features=20, out_features=40, bias=True)
      (1): ReLU()
      (2): Linear(in_features=40, out_features=60, bias=True)
      (3): ReLU()
      (4): Linear(in_features=60, out_features=80, bias=True)
    )
    (sex_classifier): FullyConnSexClassifier(
      (fc1): Linear(in_features=40, out_features=20, bias=True)
      (fc2): Linear(in_features=20, out_features=2, bias=True)
    )
  )
) loading from model_checkpoints/asr_model.ckpt, the object could not use the parameters loaded with the key: 1.encoder.layers.3.pos_ffn.ffn.0.weight
2022-04-07 13:41:36,983 - speechbrain.utils.checkpoints - WARNING - During parameter transfer to ModuleList(
  (0): FullyConnectedAutoencoder(
    (encoder): Sequential(
      (0): Linear(in_features=80, out_features=60, bias=True)
      (1): ReLU()
      (2): Linear(in_features=60, out_features=40, bias=True)
      (3): ReLU()
      (4): Linear(in_features=40, out_features=20, bias=True)
    )
    (decoder): Sequential(
      (0): Linear(in_features=20, out_features=40, bias=True)
      (1): ReLU()
      (2): Linear(in_features=40, out_features=60, bias=True)
      (3): ReLU()
      (4): Linear(in_features=60, out_features=80, bias=True)
    )
    (sex_classifier): FullyConnSexClassifier(
      (fc1): Linear(in_features=40, out_features=20, bias=True)
      (fc2): Linear(in_features=20, out_features=2, bias=True)
    )
  )
) loading from model_checkpoints/asr_model.ckpt, the object could not use the parameters loaded with the key: 1.encoder.layers.3.pos_ffn.ffn.0.bias
2022-04-07 13:41:36,983 - speechbrain.utils.checkpoints - WARNING - During parameter transfer to ModuleList(
  (0): FullyConnectedAutoencoder(
    (encoder): Sequential(
      (0): Linear(in_features=80, out_features=60, bias=True)
      (1): ReLU()
      (2): Linear(in_features=60, out_features=40, bias=True)
      (3): ReLU()
      (4): Linear(in_features=40, out_features=20, bias=True)
    )
    (decoder): Sequential(
      (0): Linear(in_features=20, out_features=40, bias=True)
      (1): ReLU()
      (2): Linear(in_features=40, out_features=60, bias=True)
      (3): ReLU()
      (4): Linear(in_features=60, out_features=80, bias=True)
    )
    (sex_classifier): FullyConnSexClassifier(
      (fc1): Linear(in_features=40, out_features=20, bias=True)
      (fc2): Linear(in_features=20, out_features=2, bias=True)
    )
  )
) loading from model_checkpoints/asr_model.ckpt, the object could not use the parameters loaded with the key: 1.encoder.layers.3.pos_ffn.ffn.3.weight
2022-04-07 13:41:36,984 - speechbrain.utils.checkpoints - WARNING - During parameter transfer to ModuleList(
  (0): FullyConnectedAutoencoder(
    (encoder): Sequential(
      (0): Linear(in_features=80, out_features=60, bias=True)
      (1): ReLU()
      (2): Linear(in_features=60, out_features=40, bias=True)
      (3): ReLU()
      (4): Linear(in_features=40, out_features=20, bias=True)
    )
    (decoder): Sequential(
      (0): Linear(in_features=20, out_features=40, bias=True)
      (1): ReLU()
      (2): Linear(in_features=40, out_features=60, bias=True)
      (3): ReLU()
      (4): Linear(in_features=60, out_features=80, bias=True)
    )
    (sex_classifier): FullyConnSexClassifier(
      (fc1): Linear(in_features=40, out_features=20, bias=True)
      (fc2): Linear(in_features=20, out_features=2, bias=True)
    )
  )
) loading from model_checkpoints/asr_model.ckpt, the object could not use the parameters loaded with the key: 1.encoder.layers.3.pos_ffn.ffn.3.bias
2022-04-07 13:41:36,984 - speechbrain.utils.checkpoints - WARNING - During parameter transfer to ModuleList(
  (0): FullyConnectedAutoencoder(
    (encoder): Sequential(
      (0): Linear(in_features=80, out_features=60, bias=True)
      (1): ReLU()
      (2): Linear(in_features=60, out_features=40, bias=True)
      (3): ReLU()
      (4): Linear(in_features=40, out_features=20, bias=True)
    )
    (decoder): Sequential(
      (0): Linear(in_features=20, out_features=40, bias=True)
      (1): ReLU()
      (2): Linear(in_features=40, out_features=60, bias=True)
      (3): ReLU()
      (4): Linear(in_features=60, out_features=80, bias=True)
    )
    (sex_classifier): FullyConnSexClassifier(
      (fc1): Linear(in_features=40, out_features=20, bias=True)
      (fc2): Linear(in_features=20, out_features=2, bias=True)
    )
  )
) loading from model_checkpoints/asr_model.ckpt, the object could not use the parameters loaded with the key: 1.encoder.layers.3.norm1.norm.weight
2022-04-07 13:41:36,984 - speechbrain.utils.checkpoints - WARNING - During parameter transfer to ModuleList(
  (0): FullyConnectedAutoencoder(
    (encoder): Sequential(
      (0): Linear(in_features=80, out_features=60, bias=True)
      (1): ReLU()
      (2): Linear(in_features=60, out_features=40, bias=True)
      (3): ReLU()
      (4): Linear(in_features=40, out_features=20, bias=True)
    )
    (decoder): Sequential(
      (0): Linear(in_features=20, out_features=40, bias=True)
      (1): ReLU()
      (2): Linear(in_features=40, out_features=60, bias=True)
      (3): ReLU()
      (4): Linear(in_features=60, out_features=80, bias=True)
    )
    (sex_classifier): FullyConnSexClassifier(
      (fc1): Linear(in_features=40, out_features=20, bias=True)
      (fc2): Linear(in_features=20, out_features=2, bias=True)
    )
  )
) loading from model_checkpoints/asr_model.ckpt, the object could not use the parameters loaded with the key: 1.encoder.layers.3.norm1.norm.bias
2022-04-07 13:41:36,984 - speechbrain.utils.checkpoints - WARNING - During parameter transfer to ModuleList(
  (0): FullyConnectedAutoencoder(
    (encoder): Sequential(
      (0): Linear(in_features=80, out_features=60, bias=True)
      (1): ReLU()
      (2): Linear(in_features=60, out_features=40, bias=True)
      (3): ReLU()
      (4): Linear(in_features=40, out_features=20, bias=True)
    )
    (decoder): Sequential(
      (0): Linear(in_features=20, out_features=40, bias=True)
      (1): ReLU()
      (2): Linear(in_features=40, out_features=60, bias=True)
      (3): ReLU()
      (4): Linear(in_features=60, out_features=80, bias=True)
    )
    (sex_classifier): FullyConnSexClassifier(
      (fc1): Linear(in_features=40, out_features=20, bias=True)
      (fc2): Linear(in_features=20, out_features=2, bias=True)
    )
  )
) loading from model_checkpoints/asr_model.ckpt, the object could not use the parameters loaded with the key: 1.encoder.layers.3.norm2.norm.weight
2022-04-07 13:41:36,984 - speechbrain.utils.checkpoints - WARNING - During parameter transfer to ModuleList(
  (0): FullyConnectedAutoencoder(
    (encoder): Sequential(
      (0): Linear(in_features=80, out_features=60, bias=True)
      (1): ReLU()
      (2): Linear(in_features=60, out_features=40, bias=True)
      (3): ReLU()
      (4): Linear(in_features=40, out_features=20, bias=True)
    )
    (decoder): Sequential(
      (0): Linear(in_features=20, out_features=40, bias=True)
      (1): ReLU()
      (2): Linear(in_features=40, out_features=60, bias=True)
      (3): ReLU()
      (4): Linear(in_features=60, out_features=80, bias=True)
    )
    (sex_classifier): FullyConnSexClassifier(
      (fc1): Linear(in_features=40, out_features=20, bias=True)
      (fc2): Linear(in_features=20, out_features=2, bias=True)
    )
  )
) loading from model_checkpoints/asr_model.ckpt, the object could not use the parameters loaded with the key: 1.encoder.layers.3.norm2.norm.bias
2022-04-07 13:41:36,984 - speechbrain.utils.checkpoints - WARNING - During parameter transfer to ModuleList(
  (0): FullyConnectedAutoencoder(
    (encoder): Sequential(
      (0): Linear(in_features=80, out_features=60, bias=True)
      (1): ReLU()
      (2): Linear(in_features=60, out_features=40, bias=True)
      (3): ReLU()
      (4): Linear(in_features=40, out_features=20, bias=True)
    )
    (decoder): Sequential(
      (0): Linear(in_features=20, out_features=40, bias=True)
      (1): ReLU()
      (2): Linear(in_features=40, out_features=60, bias=True)
      (3): ReLU()
      (4): Linear(in_features=60, out_features=80, bias=True)
    )
    (sex_classifier): FullyConnSexClassifier(
      (fc1): Linear(in_features=40, out_features=20, bias=True)
      (fc2): Linear(in_features=20, out_features=2, bias=True)
    )
  )
) loading from model_checkpoints/asr_model.ckpt, the object could not use the parameters loaded with the key: 1.encoder.layers.4.self_att.att.in_proj_weight
2022-04-07 13:41:36,984 - speechbrain.utils.checkpoints - WARNING - During parameter transfer to ModuleList(
  (0): FullyConnectedAutoencoder(
    (encoder): Sequential(
      (0): Linear(in_features=80, out_features=60, bias=True)
      (1): ReLU()
      (2): Linear(in_features=60, out_features=40, bias=True)
      (3): ReLU()
      (4): Linear(in_features=40, out_features=20, bias=True)
    )
    (decoder): Sequential(
      (0): Linear(in_features=20, out_features=40, bias=True)
      (1): ReLU()
      (2): Linear(in_features=40, out_features=60, bias=True)
      (3): ReLU()
      (4): Linear(in_features=60, out_features=80, bias=True)
    )
    (sex_classifier): FullyConnSexClassifier(
      (fc1): Linear(in_features=40, out_features=20, bias=True)
      (fc2): Linear(in_features=20, out_features=2, bias=True)
    )
  )
) loading from model_checkpoints/asr_model.ckpt, the object could not use the parameters loaded with the key: 1.encoder.layers.4.self_att.att.in_proj_bias
2022-04-07 13:41:36,985 - speechbrain.utils.checkpoints - WARNING - During parameter transfer to ModuleList(
  (0): FullyConnectedAutoencoder(
    (encoder): Sequential(
      (0): Linear(in_features=80, out_features=60, bias=True)
      (1): ReLU()
      (2): Linear(in_features=60, out_features=40, bias=True)
      (3): ReLU()
      (4): Linear(in_features=40, out_features=20, bias=True)
    )
    (decoder): Sequential(
      (0): Linear(in_features=20, out_features=40, bias=True)
      (1): ReLU()
      (2): Linear(in_features=40, out_features=60, bias=True)
      (3): ReLU()
      (4): Linear(in_features=60, out_features=80, bias=True)
    )
    (sex_classifier): FullyConnSexClassifier(
      (fc1): Linear(in_features=40, out_features=20, bias=True)
      (fc2): Linear(in_features=20, out_features=2, bias=True)
    )
  )
) loading from model_checkpoints/asr_model.ckpt, the object could not use the parameters loaded with the key: 1.encoder.layers.4.self_att.att.out_proj.weight
2022-04-07 13:41:36,985 - speechbrain.utils.checkpoints - WARNING - During parameter transfer to ModuleList(
  (0): FullyConnectedAutoencoder(
    (encoder): Sequential(
      (0): Linear(in_features=80, out_features=60, bias=True)
      (1): ReLU()
      (2): Linear(in_features=60, out_features=40, bias=True)
      (3): ReLU()
      (4): Linear(in_features=40, out_features=20, bias=True)
    )
    (decoder): Sequential(
      (0): Linear(in_features=20, out_features=40, bias=True)
      (1): ReLU()
      (2): Linear(in_features=40, out_features=60, bias=True)
      (3): ReLU()
      (4): Linear(in_features=60, out_features=80, bias=True)
    )
    (sex_classifier): FullyConnSexClassifier(
      (fc1): Linear(in_features=40, out_features=20, bias=True)
      (fc2): Linear(in_features=20, out_features=2, bias=True)
    )
  )
) loading from model_checkpoints/asr_model.ckpt, the object could not use the parameters loaded with the key: 1.encoder.layers.4.self_att.att.out_proj.bias
2022-04-07 13:41:36,985 - speechbrain.utils.checkpoints - WARNING - During parameter transfer to ModuleList(
  (0): FullyConnectedAutoencoder(
    (encoder): Sequential(
      (0): Linear(in_features=80, out_features=60, bias=True)
      (1): ReLU()
      (2): Linear(in_features=60, out_features=40, bias=True)
      (3): ReLU()
      (4): Linear(in_features=40, out_features=20, bias=True)
    )
    (decoder): Sequential(
      (0): Linear(in_features=20, out_features=40, bias=True)
      (1): ReLU()
      (2): Linear(in_features=40, out_features=60, bias=True)
      (3): ReLU()
      (4): Linear(in_features=60, out_features=80, bias=True)
    )
    (sex_classifier): FullyConnSexClassifier(
      (fc1): Linear(in_features=40, out_features=20, bias=True)
      (fc2): Linear(in_features=20, out_features=2, bias=True)
    )
  )
) loading from model_checkpoints/asr_model.ckpt, the object could not use the parameters loaded with the key: 1.encoder.layers.4.pos_ffn.ffn.0.weight
2022-04-07 13:41:36,985 - speechbrain.utils.checkpoints - WARNING - During parameter transfer to ModuleList(
  (0): FullyConnectedAutoencoder(
    (encoder): Sequential(
      (0): Linear(in_features=80, out_features=60, bias=True)
      (1): ReLU()
      (2): Linear(in_features=60, out_features=40, bias=True)
      (3): ReLU()
      (4): Linear(in_features=40, out_features=20, bias=True)
    )
    (decoder): Sequential(
      (0): Linear(in_features=20, out_features=40, bias=True)
      (1): ReLU()
      (2): Linear(in_features=40, out_features=60, bias=True)
      (3): ReLU()
      (4): Linear(in_features=60, out_features=80, bias=True)
    )
    (sex_classifier): FullyConnSexClassifier(
      (fc1): Linear(in_features=40, out_features=20, bias=True)
      (fc2): Linear(in_features=20, out_features=2, bias=True)
    )
  )
) loading from model_checkpoints/asr_model.ckpt, the object could not use the parameters loaded with the key: 1.encoder.layers.4.pos_ffn.ffn.0.bias
2022-04-07 13:41:36,985 - speechbrain.utils.checkpoints - WARNING - During parameter transfer to ModuleList(
  (0): FullyConnectedAutoencoder(
    (encoder): Sequential(
      (0): Linear(in_features=80, out_features=60, bias=True)
      (1): ReLU()
      (2): Linear(in_features=60, out_features=40, bias=True)
      (3): ReLU()
      (4): Linear(in_features=40, out_features=20, bias=True)
    )
    (decoder): Sequential(
      (0): Linear(in_features=20, out_features=40, bias=True)
      (1): ReLU()
      (2): Linear(in_features=40, out_features=60, bias=True)
      (3): ReLU()
      (4): Linear(in_features=60, out_features=80, bias=True)
    )
    (sex_classifier): FullyConnSexClassifier(
      (fc1): Linear(in_features=40, out_features=20, bias=True)
      (fc2): Linear(in_features=20, out_features=2, bias=True)
    )
  )
) loading from model_checkpoints/asr_model.ckpt, the object could not use the parameters loaded with the key: 1.encoder.layers.4.pos_ffn.ffn.3.weight
2022-04-07 13:41:36,985 - speechbrain.utils.checkpoints - WARNING - During parameter transfer to ModuleList(
  (0): FullyConnectedAutoencoder(
    (encoder): Sequential(
      (0): Linear(in_features=80, out_features=60, bias=True)
      (1): ReLU()
      (2): Linear(in_features=60, out_features=40, bias=True)
      (3): ReLU()
      (4): Linear(in_features=40, out_features=20, bias=True)
    )
    (decoder): Sequential(
      (0): Linear(in_features=20, out_features=40, bias=True)
      (1): ReLU()
      (2): Linear(in_features=40, out_features=60, bias=True)
      (3): ReLU()
      (4): Linear(in_features=60, out_features=80, bias=True)
    )
    (sex_classifier): FullyConnSexClassifier(
      (fc1): Linear(in_features=40, out_features=20, bias=True)
      (fc2): Linear(in_features=20, out_features=2, bias=True)
    )
  )
) loading from model_checkpoints/asr_model.ckpt, the object could not use the parameters loaded with the key: 1.encoder.layers.4.pos_ffn.ffn.3.bias
2022-04-07 13:41:36,985 - speechbrain.utils.checkpoints - WARNING - During parameter transfer to ModuleList(
  (0): FullyConnectedAutoencoder(
    (encoder): Sequential(
      (0): Linear(in_features=80, out_features=60, bias=True)
      (1): ReLU()
      (2): Linear(in_features=60, out_features=40, bias=True)
      (3): ReLU()
      (4): Linear(in_features=40, out_features=20, bias=True)
    )
    (decoder): Sequential(
      (0): Linear(in_features=20, out_features=40, bias=True)
      (1): ReLU()
      (2): Linear(in_features=40, out_features=60, bias=True)
      (3): ReLU()
      (4): Linear(in_features=60, out_features=80, bias=True)
    )
    (sex_classifier): FullyConnSexClassifier(
      (fc1): Linear(in_features=40, out_features=20, bias=True)
      (fc2): Linear(in_features=20, out_features=2, bias=True)
    )
  )
) loading from model_checkpoints/asr_model.ckpt, the object could not use the parameters loaded with the key: 1.encoder.layers.4.norm1.norm.weight
2022-04-07 13:41:36,986 - speechbrain.utils.checkpoints - WARNING - During parameter transfer to ModuleList(
  (0): FullyConnectedAutoencoder(
    (encoder): Sequential(
      (0): Linear(in_features=80, out_features=60, bias=True)
      (1): ReLU()
      (2): Linear(in_features=60, out_features=40, bias=True)
      (3): ReLU()
      (4): Linear(in_features=40, out_features=20, bias=True)
    )
    (decoder): Sequential(
      (0): Linear(in_features=20, out_features=40, bias=True)
      (1): ReLU()
      (2): Linear(in_features=40, out_features=60, bias=True)
      (3): ReLU()
      (4): Linear(in_features=60, out_features=80, bias=True)
    )
    (sex_classifier): FullyConnSexClassifier(
      (fc1): Linear(in_features=40, out_features=20, bias=True)
      (fc2): Linear(in_features=20, out_features=2, bias=True)
    )
  )
) loading from model_checkpoints/asr_model.ckpt, the object could not use the parameters loaded with the key: 1.encoder.layers.4.norm1.norm.bias
2022-04-07 13:41:36,986 - speechbrain.utils.checkpoints - WARNING - During parameter transfer to ModuleList(
  (0): FullyConnectedAutoencoder(
    (encoder): Sequential(
      (0): Linear(in_features=80, out_features=60, bias=True)
      (1): ReLU()
      (2): Linear(in_features=60, out_features=40, bias=True)
      (3): ReLU()
      (4): Linear(in_features=40, out_features=20, bias=True)
    )
    (decoder): Sequential(
      (0): Linear(in_features=20, out_features=40, bias=True)
      (1): ReLU()
      (2): Linear(in_features=40, out_features=60, bias=True)
      (3): ReLU()
      (4): Linear(in_features=60, out_features=80, bias=True)
    )
    (sex_classifier): FullyConnSexClassifier(
      (fc1): Linear(in_features=40, out_features=20, bias=True)
      (fc2): Linear(in_features=20, out_features=2, bias=True)
    )
  )
) loading from model_checkpoints/asr_model.ckpt, the object could not use the parameters loaded with the key: 1.encoder.layers.4.norm2.norm.weight
2022-04-07 13:41:36,986 - speechbrain.utils.checkpoints - WARNING - During parameter transfer to ModuleList(
  (0): FullyConnectedAutoencoder(
    (encoder): Sequential(
      (0): Linear(in_features=80, out_features=60, bias=True)
      (1): ReLU()
      (2): Linear(in_features=60, out_features=40, bias=True)
      (3): ReLU()
      (4): Linear(in_features=40, out_features=20, bias=True)
    )
    (decoder): Sequential(
      (0): Linear(in_features=20, out_features=40, bias=True)
      (1): ReLU()
      (2): Linear(in_features=40, out_features=60, bias=True)
      (3): ReLU()
      (4): Linear(in_features=60, out_features=80, bias=True)
    )
    (sex_classifier): FullyConnSexClassifier(
      (fc1): Linear(in_features=40, out_features=20, bias=True)
      (fc2): Linear(in_features=20, out_features=2, bias=True)
    )
  )
) loading from model_checkpoints/asr_model.ckpt, the object could not use the parameters loaded with the key: 1.encoder.layers.4.norm2.norm.bias
2022-04-07 13:41:36,986 - speechbrain.utils.checkpoints - WARNING - During parameter transfer to ModuleList(
  (0): FullyConnectedAutoencoder(
    (encoder): Sequential(
      (0): Linear(in_features=80, out_features=60, bias=True)
      (1): ReLU()
      (2): Linear(in_features=60, out_features=40, bias=True)
      (3): ReLU()
      (4): Linear(in_features=40, out_features=20, bias=True)
    )
    (decoder): Sequential(
      (0): Linear(in_features=20, out_features=40, bias=True)
      (1): ReLU()
      (2): Linear(in_features=40, out_features=60, bias=True)
      (3): ReLU()
      (4): Linear(in_features=60, out_features=80, bias=True)
    )
    (sex_classifier): FullyConnSexClassifier(
      (fc1): Linear(in_features=40, out_features=20, bias=True)
      (fc2): Linear(in_features=20, out_features=2, bias=True)
    )
  )
) loading from model_checkpoints/asr_model.ckpt, the object could not use the parameters loaded with the key: 1.encoder.layers.5.self_att.att.in_proj_weight
2022-04-07 13:41:36,986 - speechbrain.utils.checkpoints - WARNING - During parameter transfer to ModuleList(
  (0): FullyConnectedAutoencoder(
    (encoder): Sequential(
      (0): Linear(in_features=80, out_features=60, bias=True)
      (1): ReLU()
      (2): Linear(in_features=60, out_features=40, bias=True)
      (3): ReLU()
      (4): Linear(in_features=40, out_features=20, bias=True)
    )
    (decoder): Sequential(
      (0): Linear(in_features=20, out_features=40, bias=True)
      (1): ReLU()
      (2): Linear(in_features=40, out_features=60, bias=True)
      (3): ReLU()
      (4): Linear(in_features=60, out_features=80, bias=True)
    )
    (sex_classifier): FullyConnSexClassifier(
      (fc1): Linear(in_features=40, out_features=20, bias=True)
      (fc2): Linear(in_features=20, out_features=2, bias=True)
    )
  )
) loading from model_checkpoints/asr_model.ckpt, the object could not use the parameters loaded with the key: 1.encoder.layers.5.self_att.att.in_proj_bias
2022-04-07 13:41:36,986 - speechbrain.utils.checkpoints - WARNING - During parameter transfer to ModuleList(
  (0): FullyConnectedAutoencoder(
    (encoder): Sequential(
      (0): Linear(in_features=80, out_features=60, bias=True)
      (1): ReLU()
      (2): Linear(in_features=60, out_features=40, bias=True)
      (3): ReLU()
      (4): Linear(in_features=40, out_features=20, bias=True)
    )
    (decoder): Sequential(
      (0): Linear(in_features=20, out_features=40, bias=True)
      (1): ReLU()
      (2): Linear(in_features=40, out_features=60, bias=True)
      (3): ReLU()
      (4): Linear(in_features=60, out_features=80, bias=True)
    )
    (sex_classifier): FullyConnSexClassifier(
      (fc1): Linear(in_features=40, out_features=20, bias=True)
      (fc2): Linear(in_features=20, out_features=2, bias=True)
    )
  )
) loading from model_checkpoints/asr_model.ckpt, the object could not use the parameters loaded with the key: 1.encoder.layers.5.self_att.att.out_proj.weight
2022-04-07 13:41:36,986 - speechbrain.utils.checkpoints - WARNING - During parameter transfer to ModuleList(
  (0): FullyConnectedAutoencoder(
    (encoder): Sequential(
      (0): Linear(in_features=80, out_features=60, bias=True)
      (1): ReLU()
      (2): Linear(in_features=60, out_features=40, bias=True)
      (3): ReLU()
      (4): Linear(in_features=40, out_features=20, bias=True)
    )
    (decoder): Sequential(
      (0): Linear(in_features=20, out_features=40, bias=True)
      (1): ReLU()
      (2): Linear(in_features=40, out_features=60, bias=True)
      (3): ReLU()
      (4): Linear(in_features=60, out_features=80, bias=True)
    )
    (sex_classifier): FullyConnSexClassifier(
      (fc1): Linear(in_features=40, out_features=20, bias=True)
      (fc2): Linear(in_features=20, out_features=2, bias=True)
    )
  )
) loading from model_checkpoints/asr_model.ckpt, the object could not use the parameters loaded with the key: 1.encoder.layers.5.self_att.att.out_proj.bias
2022-04-07 13:41:36,987 - speechbrain.utils.checkpoints - WARNING - During parameter transfer to ModuleList(
  (0): FullyConnectedAutoencoder(
    (encoder): Sequential(
      (0): Linear(in_features=80, out_features=60, bias=True)
      (1): ReLU()
      (2): Linear(in_features=60, out_features=40, bias=True)
      (3): ReLU()
      (4): Linear(in_features=40, out_features=20, bias=True)
    )
    (decoder): Sequential(
      (0): Linear(in_features=20, out_features=40, bias=True)
      (1): ReLU()
      (2): Linear(in_features=40, out_features=60, bias=True)
      (3): ReLU()
      (4): Linear(in_features=60, out_features=80, bias=True)
    )
    (sex_classifier): FullyConnSexClassifier(
      (fc1): Linear(in_features=40, out_features=20, bias=True)
      (fc2): Linear(in_features=20, out_features=2, bias=True)
    )
  )
) loading from model_checkpoints/asr_model.ckpt, the object could not use the parameters loaded with the key: 1.encoder.layers.5.pos_ffn.ffn.0.weight
2022-04-07 13:41:36,987 - speechbrain.utils.checkpoints - WARNING - During parameter transfer to ModuleList(
  (0): FullyConnectedAutoencoder(
    (encoder): Sequential(
      (0): Linear(in_features=80, out_features=60, bias=True)
      (1): ReLU()
      (2): Linear(in_features=60, out_features=40, bias=True)
      (3): ReLU()
      (4): Linear(in_features=40, out_features=20, bias=True)
    )
    (decoder): Sequential(
      (0): Linear(in_features=20, out_features=40, bias=True)
      (1): ReLU()
      (2): Linear(in_features=40, out_features=60, bias=True)
      (3): ReLU()
      (4): Linear(in_features=60, out_features=80, bias=True)
    )
    (sex_classifier): FullyConnSexClassifier(
      (fc1): Linear(in_features=40, out_features=20, bias=True)
      (fc2): Linear(in_features=20, out_features=2, bias=True)
    )
  )
) loading from model_checkpoints/asr_model.ckpt, the object could not use the parameters loaded with the key: 1.encoder.layers.5.pos_ffn.ffn.0.bias
2022-04-07 13:41:36,987 - speechbrain.utils.checkpoints - WARNING - During parameter transfer to ModuleList(
  (0): FullyConnectedAutoencoder(
    (encoder): Sequential(
      (0): Linear(in_features=80, out_features=60, bias=True)
      (1): ReLU()
      (2): Linear(in_features=60, out_features=40, bias=True)
      (3): ReLU()
      (4): Linear(in_features=40, out_features=20, bias=True)
    )
    (decoder): Sequential(
      (0): Linear(in_features=20, out_features=40, bias=True)
      (1): ReLU()
      (2): Linear(in_features=40, out_features=60, bias=True)
      (3): ReLU()
      (4): Linear(in_features=60, out_features=80, bias=True)
    )
    (sex_classifier): FullyConnSexClassifier(
      (fc1): Linear(in_features=40, out_features=20, bias=True)
      (fc2): Linear(in_features=20, out_features=2, bias=True)
    )
  )
) loading from model_checkpoints/asr_model.ckpt, the object could not use the parameters loaded with the key: 1.encoder.layers.5.pos_ffn.ffn.3.weight
2022-04-07 13:41:36,987 - speechbrain.utils.checkpoints - WARNING - During parameter transfer to ModuleList(
  (0): FullyConnectedAutoencoder(
    (encoder): Sequential(
      (0): Linear(in_features=80, out_features=60, bias=True)
      (1): ReLU()
      (2): Linear(in_features=60, out_features=40, bias=True)
      (3): ReLU()
      (4): Linear(in_features=40, out_features=20, bias=True)
    )
    (decoder): Sequential(
      (0): Linear(in_features=20, out_features=40, bias=True)
      (1): ReLU()
      (2): Linear(in_features=40, out_features=60, bias=True)
      (3): ReLU()
      (4): Linear(in_features=60, out_features=80, bias=True)
    )
    (sex_classifier): FullyConnSexClassifier(
      (fc1): Linear(in_features=40, out_features=20, bias=True)
      (fc2): Linear(in_features=20, out_features=2, bias=True)
    )
  )
) loading from model_checkpoints/asr_model.ckpt, the object could not use the parameters loaded with the key: 1.encoder.layers.5.pos_ffn.ffn.3.bias
2022-04-07 13:41:36,987 - speechbrain.utils.checkpoints - WARNING - During parameter transfer to ModuleList(
  (0): FullyConnectedAutoencoder(
    (encoder): Sequential(
      (0): Linear(in_features=80, out_features=60, bias=True)
      (1): ReLU()
      (2): Linear(in_features=60, out_features=40, bias=True)
      (3): ReLU()
      (4): Linear(in_features=40, out_features=20, bias=True)
    )
    (decoder): Sequential(
      (0): Linear(in_features=20, out_features=40, bias=True)
      (1): ReLU()
      (2): Linear(in_features=40, out_features=60, bias=True)
      (3): ReLU()
      (4): Linear(in_features=60, out_features=80, bias=True)
    )
    (sex_classifier): FullyConnSexClassifier(
      (fc1): Linear(in_features=40, out_features=20, bias=True)
      (fc2): Linear(in_features=20, out_features=2, bias=True)
    )
  )
) loading from model_checkpoints/asr_model.ckpt, the object could not use the parameters loaded with the key: 1.encoder.layers.5.norm1.norm.weight
2022-04-07 13:41:36,987 - speechbrain.utils.checkpoints - WARNING - During parameter transfer to ModuleList(
  (0): FullyConnectedAutoencoder(
    (encoder): Sequential(
      (0): Linear(in_features=80, out_features=60, bias=True)
      (1): ReLU()
      (2): Linear(in_features=60, out_features=40, bias=True)
      (3): ReLU()
      (4): Linear(in_features=40, out_features=20, bias=True)
    )
    (decoder): Sequential(
      (0): Linear(in_features=20, out_features=40, bias=True)
      (1): ReLU()
      (2): Linear(in_features=40, out_features=60, bias=True)
      (3): ReLU()
      (4): Linear(in_features=60, out_features=80, bias=True)
    )
    (sex_classifier): FullyConnSexClassifier(
      (fc1): Linear(in_features=40, out_features=20, bias=True)
      (fc2): Linear(in_features=20, out_features=2, bias=True)
    )
  )
) loading from model_checkpoints/asr_model.ckpt, the object could not use the parameters loaded with the key: 1.encoder.layers.5.norm1.norm.bias
2022-04-07 13:41:36,987 - speechbrain.utils.checkpoints - WARNING - During parameter transfer to ModuleList(
  (0): FullyConnectedAutoencoder(
    (encoder): Sequential(
      (0): Linear(in_features=80, out_features=60, bias=True)
      (1): ReLU()
      (2): Linear(in_features=60, out_features=40, bias=True)
      (3): ReLU()
      (4): Linear(in_features=40, out_features=20, bias=True)
    )
    (decoder): Sequential(
      (0): Linear(in_features=20, out_features=40, bias=True)
      (1): ReLU()
      (2): Linear(in_features=40, out_features=60, bias=True)
      (3): ReLU()
      (4): Linear(in_features=60, out_features=80, bias=True)
    )
    (sex_classifier): FullyConnSexClassifier(
      (fc1): Linear(in_features=40, out_features=20, bias=True)
      (fc2): Linear(in_features=20, out_features=2, bias=True)
    )
  )
) loading from model_checkpoints/asr_model.ckpt, the object could not use the parameters loaded with the key: 1.encoder.layers.5.norm2.norm.weight
2022-04-07 13:41:36,988 - speechbrain.utils.checkpoints - WARNING - During parameter transfer to ModuleList(
  (0): FullyConnectedAutoencoder(
    (encoder): Sequential(
      (0): Linear(in_features=80, out_features=60, bias=True)
      (1): ReLU()
      (2): Linear(in_features=60, out_features=40, bias=True)
      (3): ReLU()
      (4): Linear(in_features=40, out_features=20, bias=True)
    )
    (decoder): Sequential(
      (0): Linear(in_features=20, out_features=40, bias=True)
      (1): ReLU()
      (2): Linear(in_features=40, out_features=60, bias=True)
      (3): ReLU()
      (4): Linear(in_features=60, out_features=80, bias=True)
    )
    (sex_classifier): FullyConnSexClassifier(
      (fc1): Linear(in_features=40, out_features=20, bias=True)
      (fc2): Linear(in_features=20, out_features=2, bias=True)
    )
  )
) loading from model_checkpoints/asr_model.ckpt, the object could not use the parameters loaded with the key: 1.encoder.layers.5.norm2.norm.bias
2022-04-07 13:41:36,988 - speechbrain.utils.checkpoints - WARNING - During parameter transfer to ModuleList(
  (0): FullyConnectedAutoencoder(
    (encoder): Sequential(
      (0): Linear(in_features=80, out_features=60, bias=True)
      (1): ReLU()
      (2): Linear(in_features=60, out_features=40, bias=True)
      (3): ReLU()
      (4): Linear(in_features=40, out_features=20, bias=True)
    )
    (decoder): Sequential(
      (0): Linear(in_features=20, out_features=40, bias=True)
      (1): ReLU()
      (2): Linear(in_features=40, out_features=60, bias=True)
      (3): ReLU()
      (4): Linear(in_features=60, out_features=80, bias=True)
    )
    (sex_classifier): FullyConnSexClassifier(
      (fc1): Linear(in_features=40, out_features=20, bias=True)
      (fc2): Linear(in_features=20, out_features=2, bias=True)
    )
  )
) loading from model_checkpoints/asr_model.ckpt, the object could not use the parameters loaded with the key: 1.encoder.layers.6.self_att.att.in_proj_weight
2022-04-07 13:41:36,988 - speechbrain.utils.checkpoints - WARNING - During parameter transfer to ModuleList(
  (0): FullyConnectedAutoencoder(
    (encoder): Sequential(
      (0): Linear(in_features=80, out_features=60, bias=True)
      (1): ReLU()
      (2): Linear(in_features=60, out_features=40, bias=True)
      (3): ReLU()
      (4): Linear(in_features=40, out_features=20, bias=True)
    )
    (decoder): Sequential(
      (0): Linear(in_features=20, out_features=40, bias=True)
      (1): ReLU()
      (2): Linear(in_features=40, out_features=60, bias=True)
      (3): ReLU()
      (4): Linear(in_features=60, out_features=80, bias=True)
    )
    (sex_classifier): FullyConnSexClassifier(
      (fc1): Linear(in_features=40, out_features=20, bias=True)
      (fc2): Linear(in_features=20, out_features=2, bias=True)
    )
  )
) loading from model_checkpoints/asr_model.ckpt, the object could not use the parameters loaded with the key: 1.encoder.layers.6.self_att.att.in_proj_bias
2022-04-07 13:41:36,988 - speechbrain.utils.checkpoints - WARNING - During parameter transfer to ModuleList(
  (0): FullyConnectedAutoencoder(
    (encoder): Sequential(
      (0): Linear(in_features=80, out_features=60, bias=True)
      (1): ReLU()
      (2): Linear(in_features=60, out_features=40, bias=True)
      (3): ReLU()
      (4): Linear(in_features=40, out_features=20, bias=True)
    )
    (decoder): Sequential(
      (0): Linear(in_features=20, out_features=40, bias=True)
      (1): ReLU()
      (2): Linear(in_features=40, out_features=60, bias=True)
      (3): ReLU()
      (4): Linear(in_features=60, out_features=80, bias=True)
    )
    (sex_classifier): FullyConnSexClassifier(
      (fc1): Linear(in_features=40, out_features=20, bias=True)
      (fc2): Linear(in_features=20, out_features=2, bias=True)
    )
  )
) loading from model_checkpoints/asr_model.ckpt, the object could not use the parameters loaded with the key: 1.encoder.layers.6.self_att.att.out_proj.weight
2022-04-07 13:41:36,988 - speechbrain.utils.checkpoints - WARNING - During parameter transfer to ModuleList(
  (0): FullyConnectedAutoencoder(
    (encoder): Sequential(
      (0): Linear(in_features=80, out_features=60, bias=True)
      (1): ReLU()
      (2): Linear(in_features=60, out_features=40, bias=True)
      (3): ReLU()
      (4): Linear(in_features=40, out_features=20, bias=True)
    )
    (decoder): Sequential(
      (0): Linear(in_features=20, out_features=40, bias=True)
      (1): ReLU()
      (2): Linear(in_features=40, out_features=60, bias=True)
      (3): ReLU()
      (4): Linear(in_features=60, out_features=80, bias=True)
    )
    (sex_classifier): FullyConnSexClassifier(
      (fc1): Linear(in_features=40, out_features=20, bias=True)
      (fc2): Linear(in_features=20, out_features=2, bias=True)
    )
  )
) loading from model_checkpoints/asr_model.ckpt, the object could not use the parameters loaded with the key: 1.encoder.layers.6.self_att.att.out_proj.bias
2022-04-07 13:41:36,988 - speechbrain.utils.checkpoints - WARNING - During parameter transfer to ModuleList(
  (0): FullyConnectedAutoencoder(
    (encoder): Sequential(
      (0): Linear(in_features=80, out_features=60, bias=True)
      (1): ReLU()
      (2): Linear(in_features=60, out_features=40, bias=True)
      (3): ReLU()
      (4): Linear(in_features=40, out_features=20, bias=True)
    )
    (decoder): Sequential(
      (0): Linear(in_features=20, out_features=40, bias=True)
      (1): ReLU()
      (2): Linear(in_features=40, out_features=60, bias=True)
      (3): ReLU()
      (4): Linear(in_features=60, out_features=80, bias=True)
    )
    (sex_classifier): FullyConnSexClassifier(
      (fc1): Linear(in_features=40, out_features=20, bias=True)
      (fc2): Linear(in_features=20, out_features=2, bias=True)
    )
  )
) loading from model_checkpoints/asr_model.ckpt, the object could not use the parameters loaded with the key: 1.encoder.layers.6.pos_ffn.ffn.0.weight
2022-04-07 13:41:36,988 - speechbrain.utils.checkpoints - WARNING - During parameter transfer to ModuleList(
  (0): FullyConnectedAutoencoder(
    (encoder): Sequential(
      (0): Linear(in_features=80, out_features=60, bias=True)
      (1): ReLU()
      (2): Linear(in_features=60, out_features=40, bias=True)
      (3): ReLU()
      (4): Linear(in_features=40, out_features=20, bias=True)
    )
    (decoder): Sequential(
      (0): Linear(in_features=20, out_features=40, bias=True)
      (1): ReLU()
      (2): Linear(in_features=40, out_features=60, bias=True)
      (3): ReLU()
      (4): Linear(in_features=60, out_features=80, bias=True)
    )
    (sex_classifier): FullyConnSexClassifier(
      (fc1): Linear(in_features=40, out_features=20, bias=True)
      (fc2): Linear(in_features=20, out_features=2, bias=True)
    )
  )
) loading from model_checkpoints/asr_model.ckpt, the object could not use the parameters loaded with the key: 1.encoder.layers.6.pos_ffn.ffn.0.bias
2022-04-07 13:41:36,989 - speechbrain.utils.checkpoints - WARNING - During parameter transfer to ModuleList(
  (0): FullyConnectedAutoencoder(
    (encoder): Sequential(
      (0): Linear(in_features=80, out_features=60, bias=True)
      (1): ReLU()
      (2): Linear(in_features=60, out_features=40, bias=True)
      (3): ReLU()
      (4): Linear(in_features=40, out_features=20, bias=True)
    )
    (decoder): Sequential(
      (0): Linear(in_features=20, out_features=40, bias=True)
      (1): ReLU()
      (2): Linear(in_features=40, out_features=60, bias=True)
      (3): ReLU()
      (4): Linear(in_features=60, out_features=80, bias=True)
    )
    (sex_classifier): FullyConnSexClassifier(
      (fc1): Linear(in_features=40, out_features=20, bias=True)
      (fc2): Linear(in_features=20, out_features=2, bias=True)
    )
  )
) loading from model_checkpoints/asr_model.ckpt, the object could not use the parameters loaded with the key: 1.encoder.layers.6.pos_ffn.ffn.3.weight
2022-04-07 13:41:36,989 - speechbrain.utils.checkpoints - WARNING - During parameter transfer to ModuleList(
  (0): FullyConnectedAutoencoder(
    (encoder): Sequential(
      (0): Linear(in_features=80, out_features=60, bias=True)
      (1): ReLU()
      (2): Linear(in_features=60, out_features=40, bias=True)
      (3): ReLU()
      (4): Linear(in_features=40, out_features=20, bias=True)
    )
    (decoder): Sequential(
      (0): Linear(in_features=20, out_features=40, bias=True)
      (1): ReLU()
      (2): Linear(in_features=40, out_features=60, bias=True)
      (3): ReLU()
      (4): Linear(in_features=60, out_features=80, bias=True)
    )
    (sex_classifier): FullyConnSexClassifier(
      (fc1): Linear(in_features=40, out_features=20, bias=True)
      (fc2): Linear(in_features=20, out_features=2, bias=True)
    )
  )
) loading from model_checkpoints/asr_model.ckpt, the object could not use the parameters loaded with the key: 1.encoder.layers.6.pos_ffn.ffn.3.bias
2022-04-07 13:41:36,989 - speechbrain.utils.checkpoints - WARNING - During parameter transfer to ModuleList(
  (0): FullyConnectedAutoencoder(
    (encoder): Sequential(
      (0): Linear(in_features=80, out_features=60, bias=True)
      (1): ReLU()
      (2): Linear(in_features=60, out_features=40, bias=True)
      (3): ReLU()
      (4): Linear(in_features=40, out_features=20, bias=True)
    )
    (decoder): Sequential(
      (0): Linear(in_features=20, out_features=40, bias=True)
      (1): ReLU()
      (2): Linear(in_features=40, out_features=60, bias=True)
      (3): ReLU()
      (4): Linear(in_features=60, out_features=80, bias=True)
    )
    (sex_classifier): FullyConnSexClassifier(
      (fc1): Linear(in_features=40, out_features=20, bias=True)
      (fc2): Linear(in_features=20, out_features=2, bias=True)
    )
  )
) loading from model_checkpoints/asr_model.ckpt, the object could not use the parameters loaded with the key: 1.encoder.layers.6.norm1.norm.weight
2022-04-07 13:41:36,989 - speechbrain.utils.checkpoints - WARNING - During parameter transfer to ModuleList(
  (0): FullyConnectedAutoencoder(
    (encoder): Sequential(
      (0): Linear(in_features=80, out_features=60, bias=True)
      (1): ReLU()
      (2): Linear(in_features=60, out_features=40, bias=True)
      (3): ReLU()
      (4): Linear(in_features=40, out_features=20, bias=True)
    )
    (decoder): Sequential(
      (0): Linear(in_features=20, out_features=40, bias=True)
      (1): ReLU()
      (2): Linear(in_features=40, out_features=60, bias=True)
      (3): ReLU()
      (4): Linear(in_features=60, out_features=80, bias=True)
    )
    (sex_classifier): FullyConnSexClassifier(
      (fc1): Linear(in_features=40, out_features=20, bias=True)
      (fc2): Linear(in_features=20, out_features=2, bias=True)
    )
  )
) loading from model_checkpoints/asr_model.ckpt, the object could not use the parameters loaded with the key: 1.encoder.layers.6.norm1.norm.bias
2022-04-07 13:41:36,989 - speechbrain.utils.checkpoints - WARNING - During parameter transfer to ModuleList(
  (0): FullyConnectedAutoencoder(
    (encoder): Sequential(
      (0): Linear(in_features=80, out_features=60, bias=True)
      (1): ReLU()
      (2): Linear(in_features=60, out_features=40, bias=True)
      (3): ReLU()
      (4): Linear(in_features=40, out_features=20, bias=True)
    )
    (decoder): Sequential(
      (0): Linear(in_features=20, out_features=40, bias=True)
      (1): ReLU()
      (2): Linear(in_features=40, out_features=60, bias=True)
      (3): ReLU()
      (4): Linear(in_features=60, out_features=80, bias=True)
    )
    (sex_classifier): FullyConnSexClassifier(
      (fc1): Linear(in_features=40, out_features=20, bias=True)
      (fc2): Linear(in_features=20, out_features=2, bias=True)
    )
  )
) loading from model_checkpoints/asr_model.ckpt, the object could not use the parameters loaded with the key: 1.encoder.layers.6.norm2.norm.weight
2022-04-07 13:41:36,989 - speechbrain.utils.checkpoints - WARNING - During parameter transfer to ModuleList(
  (0): FullyConnectedAutoencoder(
    (encoder): Sequential(
      (0): Linear(in_features=80, out_features=60, bias=True)
      (1): ReLU()
      (2): Linear(in_features=60, out_features=40, bias=True)
      (3): ReLU()
      (4): Linear(in_features=40, out_features=20, bias=True)
    )
    (decoder): Sequential(
      (0): Linear(in_features=20, out_features=40, bias=True)
      (1): ReLU()
      (2): Linear(in_features=40, out_features=60, bias=True)
      (3): ReLU()
      (4): Linear(in_features=60, out_features=80, bias=True)
    )
    (sex_classifier): FullyConnSexClassifier(
      (fc1): Linear(in_features=40, out_features=20, bias=True)
      (fc2): Linear(in_features=20, out_features=2, bias=True)
    )
  )
) loading from model_checkpoints/asr_model.ckpt, the object could not use the parameters loaded with the key: 1.encoder.layers.6.norm2.norm.bias
2022-04-07 13:41:36,989 - speechbrain.utils.checkpoints - WARNING - During parameter transfer to ModuleList(
  (0): FullyConnectedAutoencoder(
    (encoder): Sequential(
      (0): Linear(in_features=80, out_features=60, bias=True)
      (1): ReLU()
      (2): Linear(in_features=60, out_features=40, bias=True)
      (3): ReLU()
      (4): Linear(in_features=40, out_features=20, bias=True)
    )
    (decoder): Sequential(
      (0): Linear(in_features=20, out_features=40, bias=True)
      (1): ReLU()
      (2): Linear(in_features=40, out_features=60, bias=True)
      (3): ReLU()
      (4): Linear(in_features=60, out_features=80, bias=True)
    )
    (sex_classifier): FullyConnSexClassifier(
      (fc1): Linear(in_features=40, out_features=20, bias=True)
      (fc2): Linear(in_features=20, out_features=2, bias=True)
    )
  )
) loading from model_checkpoints/asr_model.ckpt, the object could not use the parameters loaded with the key: 1.encoder.layers.7.self_att.att.in_proj_weight
2022-04-07 13:41:36,990 - speechbrain.utils.checkpoints - WARNING - During parameter transfer to ModuleList(
  (0): FullyConnectedAutoencoder(
    (encoder): Sequential(
      (0): Linear(in_features=80, out_features=60, bias=True)
      (1): ReLU()
      (2): Linear(in_features=60, out_features=40, bias=True)
      (3): ReLU()
      (4): Linear(in_features=40, out_features=20, bias=True)
    )
    (decoder): Sequential(
      (0): Linear(in_features=20, out_features=40, bias=True)
      (1): ReLU()
      (2): Linear(in_features=40, out_features=60, bias=True)
      (3): ReLU()
      (4): Linear(in_features=60, out_features=80, bias=True)
    )
    (sex_classifier): FullyConnSexClassifier(
      (fc1): Linear(in_features=40, out_features=20, bias=True)
      (fc2): Linear(in_features=20, out_features=2, bias=True)
    )
  )
) loading from model_checkpoints/asr_model.ckpt, the object could not use the parameters loaded with the key: 1.encoder.layers.7.self_att.att.in_proj_bias
2022-04-07 13:41:36,990 - speechbrain.utils.checkpoints - WARNING - During parameter transfer to ModuleList(
  (0): FullyConnectedAutoencoder(
    (encoder): Sequential(
      (0): Linear(in_features=80, out_features=60, bias=True)
      (1): ReLU()
      (2): Linear(in_features=60, out_features=40, bias=True)
      (3): ReLU()
      (4): Linear(in_features=40, out_features=20, bias=True)
    )
    (decoder): Sequential(
      (0): Linear(in_features=20, out_features=40, bias=True)
      (1): ReLU()
      (2): Linear(in_features=40, out_features=60, bias=True)
      (3): ReLU()
      (4): Linear(in_features=60, out_features=80, bias=True)
    )
    (sex_classifier): FullyConnSexClassifier(
      (fc1): Linear(in_features=40, out_features=20, bias=True)
      (fc2): Linear(in_features=20, out_features=2, bias=True)
    )
  )
) loading from model_checkpoints/asr_model.ckpt, the object could not use the parameters loaded with the key: 1.encoder.layers.7.self_att.att.out_proj.weight
2022-04-07 13:41:36,990 - speechbrain.utils.checkpoints - WARNING - During parameter transfer to ModuleList(
  (0): FullyConnectedAutoencoder(
    (encoder): Sequential(
      (0): Linear(in_features=80, out_features=60, bias=True)
      (1): ReLU()
      (2): Linear(in_features=60, out_features=40, bias=True)
      (3): ReLU()
      (4): Linear(in_features=40, out_features=20, bias=True)
    )
    (decoder): Sequential(
      (0): Linear(in_features=20, out_features=40, bias=True)
      (1): ReLU()
      (2): Linear(in_features=40, out_features=60, bias=True)
      (3): ReLU()
      (4): Linear(in_features=60, out_features=80, bias=True)
    )
    (sex_classifier): FullyConnSexClassifier(
      (fc1): Linear(in_features=40, out_features=20, bias=True)
      (fc2): Linear(in_features=20, out_features=2, bias=True)
    )
  )
) loading from model_checkpoints/asr_model.ckpt, the object could not use the parameters loaded with the key: 1.encoder.layers.7.self_att.att.out_proj.bias
2022-04-07 13:41:36,990 - speechbrain.utils.checkpoints - WARNING - During parameter transfer to ModuleList(
  (0): FullyConnectedAutoencoder(
    (encoder): Sequential(
      (0): Linear(in_features=80, out_features=60, bias=True)
      (1): ReLU()
      (2): Linear(in_features=60, out_features=40, bias=True)
      (3): ReLU()
      (4): Linear(in_features=40, out_features=20, bias=True)
    )
    (decoder): Sequential(
      (0): Linear(in_features=20, out_features=40, bias=True)
      (1): ReLU()
      (2): Linear(in_features=40, out_features=60, bias=True)
      (3): ReLU()
      (4): Linear(in_features=60, out_features=80, bias=True)
    )
    (sex_classifier): FullyConnSexClassifier(
      (fc1): Linear(in_features=40, out_features=20, bias=True)
      (fc2): Linear(in_features=20, out_features=2, bias=True)
    )
  )
) loading from model_checkpoints/asr_model.ckpt, the object could not use the parameters loaded with the key: 1.encoder.layers.7.pos_ffn.ffn.0.weight
2022-04-07 13:41:36,990 - speechbrain.utils.checkpoints - WARNING - During parameter transfer to ModuleList(
  (0): FullyConnectedAutoencoder(
    (encoder): Sequential(
      (0): Linear(in_features=80, out_features=60, bias=True)
      (1): ReLU()
      (2): Linear(in_features=60, out_features=40, bias=True)
      (3): ReLU()
      (4): Linear(in_features=40, out_features=20, bias=True)
    )
    (decoder): Sequential(
      (0): Linear(in_features=20, out_features=40, bias=True)
      (1): ReLU()
      (2): Linear(in_features=40, out_features=60, bias=True)
      (3): ReLU()
      (4): Linear(in_features=60, out_features=80, bias=True)
    )
    (sex_classifier): FullyConnSexClassifier(
      (fc1): Linear(in_features=40, out_features=20, bias=True)
      (fc2): Linear(in_features=20, out_features=2, bias=True)
    )
  )
) loading from model_checkpoints/asr_model.ckpt, the object could not use the parameters loaded with the key: 1.encoder.layers.7.pos_ffn.ffn.0.bias
2022-04-07 13:41:36,990 - speechbrain.utils.checkpoints - WARNING - During parameter transfer to ModuleList(
  (0): FullyConnectedAutoencoder(
    (encoder): Sequential(
      (0): Linear(in_features=80, out_features=60, bias=True)
      (1): ReLU()
      (2): Linear(in_features=60, out_features=40, bias=True)
      (3): ReLU()
      (4): Linear(in_features=40, out_features=20, bias=True)
    )
    (decoder): Sequential(
      (0): Linear(in_features=20, out_features=40, bias=True)
      (1): ReLU()
      (2): Linear(in_features=40, out_features=60, bias=True)
      (3): ReLU()
      (4): Linear(in_features=60, out_features=80, bias=True)
    )
    (sex_classifier): FullyConnSexClassifier(
      (fc1): Linear(in_features=40, out_features=20, bias=True)
      (fc2): Linear(in_features=20, out_features=2, bias=True)
    )
  )
) loading from model_checkpoints/asr_model.ckpt, the object could not use the parameters loaded with the key: 1.encoder.layers.7.pos_ffn.ffn.3.weight
2022-04-07 13:41:36,990 - speechbrain.utils.checkpoints - WARNING - During parameter transfer to ModuleList(
  (0): FullyConnectedAutoencoder(
    (encoder): Sequential(
      (0): Linear(in_features=80, out_features=60, bias=True)
      (1): ReLU()
      (2): Linear(in_features=60, out_features=40, bias=True)
      (3): ReLU()
      (4): Linear(in_features=40, out_features=20, bias=True)
    )
    (decoder): Sequential(
      (0): Linear(in_features=20, out_features=40, bias=True)
      (1): ReLU()
      (2): Linear(in_features=40, out_features=60, bias=True)
      (3): ReLU()
      (4): Linear(in_features=60, out_features=80, bias=True)
    )
    (sex_classifier): FullyConnSexClassifier(
      (fc1): Linear(in_features=40, out_features=20, bias=True)
      (fc2): Linear(in_features=20, out_features=2, bias=True)
    )
  )
) loading from model_checkpoints/asr_model.ckpt, the object could not use the parameters loaded with the key: 1.encoder.layers.7.pos_ffn.ffn.3.bias
2022-04-07 13:41:36,990 - speechbrain.utils.checkpoints - WARNING - During parameter transfer to ModuleList(
  (0): FullyConnectedAutoencoder(
    (encoder): Sequential(
      (0): Linear(in_features=80, out_features=60, bias=True)
      (1): ReLU()
      (2): Linear(in_features=60, out_features=40, bias=True)
      (3): ReLU()
      (4): Linear(in_features=40, out_features=20, bias=True)
    )
    (decoder): Sequential(
      (0): Linear(in_features=20, out_features=40, bias=True)
      (1): ReLU()
      (2): Linear(in_features=40, out_features=60, bias=True)
      (3): ReLU()
      (4): Linear(in_features=60, out_features=80, bias=True)
    )
    (sex_classifier): FullyConnSexClassifier(
      (fc1): Linear(in_features=40, out_features=20, bias=True)
      (fc2): Linear(in_features=20, out_features=2, bias=True)
    )
  )
) loading from model_checkpoints/asr_model.ckpt, the object could not use the parameters loaded with the key: 1.encoder.layers.7.norm1.norm.weight
2022-04-07 13:41:36,991 - speechbrain.utils.checkpoints - WARNING - During parameter transfer to ModuleList(
  (0): FullyConnectedAutoencoder(
    (encoder): Sequential(
      (0): Linear(in_features=80, out_features=60, bias=True)
      (1): ReLU()
      (2): Linear(in_features=60, out_features=40, bias=True)
      (3): ReLU()
      (4): Linear(in_features=40, out_features=20, bias=True)
    )
    (decoder): Sequential(
      (0): Linear(in_features=20, out_features=40, bias=True)
      (1): ReLU()
      (2): Linear(in_features=40, out_features=60, bias=True)
      (3): ReLU()
      (4): Linear(in_features=60, out_features=80, bias=True)
    )
    (sex_classifier): FullyConnSexClassifier(
      (fc1): Linear(in_features=40, out_features=20, bias=True)
      (fc2): Linear(in_features=20, out_features=2, bias=True)
    )
  )
) loading from model_checkpoints/asr_model.ckpt, the object could not use the parameters loaded with the key: 1.encoder.layers.7.norm1.norm.bias
2022-04-07 13:41:36,991 - speechbrain.utils.checkpoints - WARNING - During parameter transfer to ModuleList(
  (0): FullyConnectedAutoencoder(
    (encoder): Sequential(
      (0): Linear(in_features=80, out_features=60, bias=True)
      (1): ReLU()
      (2): Linear(in_features=60, out_features=40, bias=True)
      (3): ReLU()
      (4): Linear(in_features=40, out_features=20, bias=True)
    )
    (decoder): Sequential(
      (0): Linear(in_features=20, out_features=40, bias=True)
      (1): ReLU()
      (2): Linear(in_features=40, out_features=60, bias=True)
      (3): ReLU()
      (4): Linear(in_features=60, out_features=80, bias=True)
    )
    (sex_classifier): FullyConnSexClassifier(
      (fc1): Linear(in_features=40, out_features=20, bias=True)
      (fc2): Linear(in_features=20, out_features=2, bias=True)
    )
  )
) loading from model_checkpoints/asr_model.ckpt, the object could not use the parameters loaded with the key: 1.encoder.layers.7.norm2.norm.weight
2022-04-07 13:41:36,991 - speechbrain.utils.checkpoints - WARNING - During parameter transfer to ModuleList(
  (0): FullyConnectedAutoencoder(
    (encoder): Sequential(
      (0): Linear(in_features=80, out_features=60, bias=True)
      (1): ReLU()
      (2): Linear(in_features=60, out_features=40, bias=True)
      (3): ReLU()
      (4): Linear(in_features=40, out_features=20, bias=True)
    )
    (decoder): Sequential(
      (0): Linear(in_features=20, out_features=40, bias=True)
      (1): ReLU()
      (2): Linear(in_features=40, out_features=60, bias=True)
      (3): ReLU()
      (4): Linear(in_features=60, out_features=80, bias=True)
    )
    (sex_classifier): FullyConnSexClassifier(
      (fc1): Linear(in_features=40, out_features=20, bias=True)
      (fc2): Linear(in_features=20, out_features=2, bias=True)
    )
  )
) loading from model_checkpoints/asr_model.ckpt, the object could not use the parameters loaded with the key: 1.encoder.layers.7.norm2.norm.bias
2022-04-07 13:41:36,991 - speechbrain.utils.checkpoints - WARNING - During parameter transfer to ModuleList(
  (0): FullyConnectedAutoencoder(
    (encoder): Sequential(
      (0): Linear(in_features=80, out_features=60, bias=True)
      (1): ReLU()
      (2): Linear(in_features=60, out_features=40, bias=True)
      (3): ReLU()
      (4): Linear(in_features=40, out_features=20, bias=True)
    )
    (decoder): Sequential(
      (0): Linear(in_features=20, out_features=40, bias=True)
      (1): ReLU()
      (2): Linear(in_features=40, out_features=60, bias=True)
      (3): ReLU()
      (4): Linear(in_features=60, out_features=80, bias=True)
    )
    (sex_classifier): FullyConnSexClassifier(
      (fc1): Linear(in_features=40, out_features=20, bias=True)
      (fc2): Linear(in_features=20, out_features=2, bias=True)
    )
  )
) loading from model_checkpoints/asr_model.ckpt, the object could not use the parameters loaded with the key: 1.encoder.layers.8.self_att.att.in_proj_weight
2022-04-07 13:41:36,991 - speechbrain.utils.checkpoints - WARNING - During parameter transfer to ModuleList(
  (0): FullyConnectedAutoencoder(
    (encoder): Sequential(
      (0): Linear(in_features=80, out_features=60, bias=True)
      (1): ReLU()
      (2): Linear(in_features=60, out_features=40, bias=True)
      (3): ReLU()
      (4): Linear(in_features=40, out_features=20, bias=True)
    )
    (decoder): Sequential(
      (0): Linear(in_features=20, out_features=40, bias=True)
      (1): ReLU()
      (2): Linear(in_features=40, out_features=60, bias=True)
      (3): ReLU()
      (4): Linear(in_features=60, out_features=80, bias=True)
    )
    (sex_classifier): FullyConnSexClassifier(
      (fc1): Linear(in_features=40, out_features=20, bias=True)
      (fc2): Linear(in_features=20, out_features=2, bias=True)
    )
  )
) loading from model_checkpoints/asr_model.ckpt, the object could not use the parameters loaded with the key: 1.encoder.layers.8.self_att.att.in_proj_bias
2022-04-07 13:41:36,991 - speechbrain.utils.checkpoints - WARNING - During parameter transfer to ModuleList(
  (0): FullyConnectedAutoencoder(
    (encoder): Sequential(
      (0): Linear(in_features=80, out_features=60, bias=True)
      (1): ReLU()
      (2): Linear(in_features=60, out_features=40, bias=True)
      (3): ReLU()
      (4): Linear(in_features=40, out_features=20, bias=True)
    )
    (decoder): Sequential(
      (0): Linear(in_features=20, out_features=40, bias=True)
      (1): ReLU()
      (2): Linear(in_features=40, out_features=60, bias=True)
      (3): ReLU()
      (4): Linear(in_features=60, out_features=80, bias=True)
    )
    (sex_classifier): FullyConnSexClassifier(
      (fc1): Linear(in_features=40, out_features=20, bias=True)
      (fc2): Linear(in_features=20, out_features=2, bias=True)
    )
  )
) loading from model_checkpoints/asr_model.ckpt, the object could not use the parameters loaded with the key: 1.encoder.layers.8.self_att.att.out_proj.weight
2022-04-07 13:41:36,991 - speechbrain.utils.checkpoints - WARNING - During parameter transfer to ModuleList(
  (0): FullyConnectedAutoencoder(
    (encoder): Sequential(
      (0): Linear(in_features=80, out_features=60, bias=True)
      (1): ReLU()
      (2): Linear(in_features=60, out_features=40, bias=True)
      (3): ReLU()
      (4): Linear(in_features=40, out_features=20, bias=True)
    )
    (decoder): Sequential(
      (0): Linear(in_features=20, out_features=40, bias=True)
      (1): ReLU()
      (2): Linear(in_features=40, out_features=60, bias=True)
      (3): ReLU()
      (4): Linear(in_features=60, out_features=80, bias=True)
    )
    (sex_classifier): FullyConnSexClassifier(
      (fc1): Linear(in_features=40, out_features=20, bias=True)
      (fc2): Linear(in_features=20, out_features=2, bias=True)
    )
  )
) loading from model_checkpoints/asr_model.ckpt, the object could not use the parameters loaded with the key: 1.encoder.layers.8.self_att.att.out_proj.bias
2022-04-07 13:41:36,992 - speechbrain.utils.checkpoints - WARNING - During parameter transfer to ModuleList(
  (0): FullyConnectedAutoencoder(
    (encoder): Sequential(
      (0): Linear(in_features=80, out_features=60, bias=True)
      (1): ReLU()
      (2): Linear(in_features=60, out_features=40, bias=True)
      (3): ReLU()
      (4): Linear(in_features=40, out_features=20, bias=True)
    )
    (decoder): Sequential(
      (0): Linear(in_features=20, out_features=40, bias=True)
      (1): ReLU()
      (2): Linear(in_features=40, out_features=60, bias=True)
      (3): ReLU()
      (4): Linear(in_features=60, out_features=80, bias=True)
    )
    (sex_classifier): FullyConnSexClassifier(
      (fc1): Linear(in_features=40, out_features=20, bias=True)
      (fc2): Linear(in_features=20, out_features=2, bias=True)
    )
  )
) loading from model_checkpoints/asr_model.ckpt, the object could not use the parameters loaded with the key: 1.encoder.layers.8.pos_ffn.ffn.0.weight
2022-04-07 13:41:36,992 - speechbrain.utils.checkpoints - WARNING - During parameter transfer to ModuleList(
  (0): FullyConnectedAutoencoder(
    (encoder): Sequential(
      (0): Linear(in_features=80, out_features=60, bias=True)
      (1): ReLU()
      (2): Linear(in_features=60, out_features=40, bias=True)
      (3): ReLU()
      (4): Linear(in_features=40, out_features=20, bias=True)
    )
    (decoder): Sequential(
      (0): Linear(in_features=20, out_features=40, bias=True)
      (1): ReLU()
      (2): Linear(in_features=40, out_features=60, bias=True)
      (3): ReLU()
      (4): Linear(in_features=60, out_features=80, bias=True)
    )
    (sex_classifier): FullyConnSexClassifier(
      (fc1): Linear(in_features=40, out_features=20, bias=True)
      (fc2): Linear(in_features=20, out_features=2, bias=True)
    )
  )
) loading from model_checkpoints/asr_model.ckpt, the object could not use the parameters loaded with the key: 1.encoder.layers.8.pos_ffn.ffn.0.bias
2022-04-07 13:41:36,992 - speechbrain.utils.checkpoints - WARNING - During parameter transfer to ModuleList(
  (0): FullyConnectedAutoencoder(
    (encoder): Sequential(
      (0): Linear(in_features=80, out_features=60, bias=True)
      (1): ReLU()
      (2): Linear(in_features=60, out_features=40, bias=True)
      (3): ReLU()
      (4): Linear(in_features=40, out_features=20, bias=True)
    )
    (decoder): Sequential(
      (0): Linear(in_features=20, out_features=40, bias=True)
      (1): ReLU()
      (2): Linear(in_features=40, out_features=60, bias=True)
      (3): ReLU()
      (4): Linear(in_features=60, out_features=80, bias=True)
    )
    (sex_classifier): FullyConnSexClassifier(
      (fc1): Linear(in_features=40, out_features=20, bias=True)
      (fc2): Linear(in_features=20, out_features=2, bias=True)
    )
  )
) loading from model_checkpoints/asr_model.ckpt, the object could not use the parameters loaded with the key: 1.encoder.layers.8.pos_ffn.ffn.3.weight
2022-04-07 13:41:36,992 - speechbrain.utils.checkpoints - WARNING - During parameter transfer to ModuleList(
  (0): FullyConnectedAutoencoder(
    (encoder): Sequential(
      (0): Linear(in_features=80, out_features=60, bias=True)
      (1): ReLU()
      (2): Linear(in_features=60, out_features=40, bias=True)
      (3): ReLU()
      (4): Linear(in_features=40, out_features=20, bias=True)
    )
    (decoder): Sequential(
      (0): Linear(in_features=20, out_features=40, bias=True)
      (1): ReLU()
      (2): Linear(in_features=40, out_features=60, bias=True)
      (3): ReLU()
      (4): Linear(in_features=60, out_features=80, bias=True)
    )
    (sex_classifier): FullyConnSexClassifier(
      (fc1): Linear(in_features=40, out_features=20, bias=True)
      (fc2): Linear(in_features=20, out_features=2, bias=True)
    )
  )
) loading from model_checkpoints/asr_model.ckpt, the object could not use the parameters loaded with the key: 1.encoder.layers.8.pos_ffn.ffn.3.bias
2022-04-07 13:41:36,992 - speechbrain.utils.checkpoints - WARNING - During parameter transfer to ModuleList(
  (0): FullyConnectedAutoencoder(
    (encoder): Sequential(
      (0): Linear(in_features=80, out_features=60, bias=True)
      (1): ReLU()
      (2): Linear(in_features=60, out_features=40, bias=True)
      (3): ReLU()
      (4): Linear(in_features=40, out_features=20, bias=True)
    )
    (decoder): Sequential(
      (0): Linear(in_features=20, out_features=40, bias=True)
      (1): ReLU()
      (2): Linear(in_features=40, out_features=60, bias=True)
      (3): ReLU()
      (4): Linear(in_features=60, out_features=80, bias=True)
    )
    (sex_classifier): FullyConnSexClassifier(
      (fc1): Linear(in_features=40, out_features=20, bias=True)
      (fc2): Linear(in_features=20, out_features=2, bias=True)
    )
  )
) loading from model_checkpoints/asr_model.ckpt, the object could not use the parameters loaded with the key: 1.encoder.layers.8.norm1.norm.weight
2022-04-07 13:41:36,992 - speechbrain.utils.checkpoints - WARNING - During parameter transfer to ModuleList(
  (0): FullyConnectedAutoencoder(
    (encoder): Sequential(
      (0): Linear(in_features=80, out_features=60, bias=True)
      (1): ReLU()
      (2): Linear(in_features=60, out_features=40, bias=True)
      (3): ReLU()
      (4): Linear(in_features=40, out_features=20, bias=True)
    )
    (decoder): Sequential(
      (0): Linear(in_features=20, out_features=40, bias=True)
      (1): ReLU()
      (2): Linear(in_features=40, out_features=60, bias=True)
      (3): ReLU()
      (4): Linear(in_features=60, out_features=80, bias=True)
    )
    (sex_classifier): FullyConnSexClassifier(
      (fc1): Linear(in_features=40, out_features=20, bias=True)
      (fc2): Linear(in_features=20, out_features=2, bias=True)
    )
  )
) loading from model_checkpoints/asr_model.ckpt, the object could not use the parameters loaded with the key: 1.encoder.layers.8.norm1.norm.bias
2022-04-07 13:41:36,992 - speechbrain.utils.checkpoints - WARNING - During parameter transfer to ModuleList(
  (0): FullyConnectedAutoencoder(
    (encoder): Sequential(
      (0): Linear(in_features=80, out_features=60, bias=True)
      (1): ReLU()
      (2): Linear(in_features=60, out_features=40, bias=True)
      (3): ReLU()
      (4): Linear(in_features=40, out_features=20, bias=True)
    )
    (decoder): Sequential(
      (0): Linear(in_features=20, out_features=40, bias=True)
      (1): ReLU()
      (2): Linear(in_features=40, out_features=60, bias=True)
      (3): ReLU()
      (4): Linear(in_features=60, out_features=80, bias=True)
    )
    (sex_classifier): FullyConnSexClassifier(
      (fc1): Linear(in_features=40, out_features=20, bias=True)
      (fc2): Linear(in_features=20, out_features=2, bias=True)
    )
  )
) loading from model_checkpoints/asr_model.ckpt, the object could not use the parameters loaded with the key: 1.encoder.layers.8.norm2.norm.weight
2022-04-07 13:41:36,992 - speechbrain.utils.checkpoints - WARNING - During parameter transfer to ModuleList(
  (0): FullyConnectedAutoencoder(
    (encoder): Sequential(
      (0): Linear(in_features=80, out_features=60, bias=True)
      (1): ReLU()
      (2): Linear(in_features=60, out_features=40, bias=True)
      (3): ReLU()
      (4): Linear(in_features=40, out_features=20, bias=True)
    )
    (decoder): Sequential(
      (0): Linear(in_features=20, out_features=40, bias=True)
      (1): ReLU()
      (2): Linear(in_features=40, out_features=60, bias=True)
      (3): ReLU()
      (4): Linear(in_features=60, out_features=80, bias=True)
    )
    (sex_classifier): FullyConnSexClassifier(
      (fc1): Linear(in_features=40, out_features=20, bias=True)
      (fc2): Linear(in_features=20, out_features=2, bias=True)
    )
  )
) loading from model_checkpoints/asr_model.ckpt, the object could not use the parameters loaded with the key: 1.encoder.layers.8.norm2.norm.bias
2022-04-07 13:41:36,993 - speechbrain.utils.checkpoints - WARNING - During parameter transfer to ModuleList(
  (0): FullyConnectedAutoencoder(
    (encoder): Sequential(
      (0): Linear(in_features=80, out_features=60, bias=True)
      (1): ReLU()
      (2): Linear(in_features=60, out_features=40, bias=True)
      (3): ReLU()
      (4): Linear(in_features=40, out_features=20, bias=True)
    )
    (decoder): Sequential(
      (0): Linear(in_features=20, out_features=40, bias=True)
      (1): ReLU()
      (2): Linear(in_features=40, out_features=60, bias=True)
      (3): ReLU()
      (4): Linear(in_features=60, out_features=80, bias=True)
    )
    (sex_classifier): FullyConnSexClassifier(
      (fc1): Linear(in_features=40, out_features=20, bias=True)
      (fc2): Linear(in_features=20, out_features=2, bias=True)
    )
  )
) loading from model_checkpoints/asr_model.ckpt, the object could not use the parameters loaded with the key: 1.encoder.layers.9.self_att.att.in_proj_weight
2022-04-07 13:41:36,993 - speechbrain.utils.checkpoints - WARNING - During parameter transfer to ModuleList(
  (0): FullyConnectedAutoencoder(
    (encoder): Sequential(
      (0): Linear(in_features=80, out_features=60, bias=True)
      (1): ReLU()
      (2): Linear(in_features=60, out_features=40, bias=True)
      (3): ReLU()
      (4): Linear(in_features=40, out_features=20, bias=True)
    )
    (decoder): Sequential(
      (0): Linear(in_features=20, out_features=40, bias=True)
      (1): ReLU()
      (2): Linear(in_features=40, out_features=60, bias=True)
      (3): ReLU()
      (4): Linear(in_features=60, out_features=80, bias=True)
    )
    (sex_classifier): FullyConnSexClassifier(
      (fc1): Linear(in_features=40, out_features=20, bias=True)
      (fc2): Linear(in_features=20, out_features=2, bias=True)
    )
  )
) loading from model_checkpoints/asr_model.ckpt, the object could not use the parameters loaded with the key: 1.encoder.layers.9.self_att.att.in_proj_bias
2022-04-07 13:41:36,993 - speechbrain.utils.checkpoints - WARNING - During parameter transfer to ModuleList(
  (0): FullyConnectedAutoencoder(
    (encoder): Sequential(
      (0): Linear(in_features=80, out_features=60, bias=True)
      (1): ReLU()
      (2): Linear(in_features=60, out_features=40, bias=True)
      (3): ReLU()
      (4): Linear(in_features=40, out_features=20, bias=True)
    )
    (decoder): Sequential(
      (0): Linear(in_features=20, out_features=40, bias=True)
      (1): ReLU()
      (2): Linear(in_features=40, out_features=60, bias=True)
      (3): ReLU()
      (4): Linear(in_features=60, out_features=80, bias=True)
    )
    (sex_classifier): FullyConnSexClassifier(
      (fc1): Linear(in_features=40, out_features=20, bias=True)
      (fc2): Linear(in_features=20, out_features=2, bias=True)
    )
  )
) loading from model_checkpoints/asr_model.ckpt, the object could not use the parameters loaded with the key: 1.encoder.layers.9.self_att.att.out_proj.weight
2022-04-07 13:41:36,993 - speechbrain.utils.checkpoints - WARNING - During parameter transfer to ModuleList(
  (0): FullyConnectedAutoencoder(
    (encoder): Sequential(
      (0): Linear(in_features=80, out_features=60, bias=True)
      (1): ReLU()
      (2): Linear(in_features=60, out_features=40, bias=True)
      (3): ReLU()
      (4): Linear(in_features=40, out_features=20, bias=True)
    )
    (decoder): Sequential(
      (0): Linear(in_features=20, out_features=40, bias=True)
      (1): ReLU()
      (2): Linear(in_features=40, out_features=60, bias=True)
      (3): ReLU()
      (4): Linear(in_features=60, out_features=80, bias=True)
    )
    (sex_classifier): FullyConnSexClassifier(
      (fc1): Linear(in_features=40, out_features=20, bias=True)
      (fc2): Linear(in_features=20, out_features=2, bias=True)
    )
  )
) loading from model_checkpoints/asr_model.ckpt, the object could not use the parameters loaded with the key: 1.encoder.layers.9.self_att.att.out_proj.bias
2022-04-07 13:41:36,993 - speechbrain.utils.checkpoints - WARNING - During parameter transfer to ModuleList(
  (0): FullyConnectedAutoencoder(
    (encoder): Sequential(
      (0): Linear(in_features=80, out_features=60, bias=True)
      (1): ReLU()
      (2): Linear(in_features=60, out_features=40, bias=True)
      (3): ReLU()
      (4): Linear(in_features=40, out_features=20, bias=True)
    )
    (decoder): Sequential(
      (0): Linear(in_features=20, out_features=40, bias=True)
      (1): ReLU()
      (2): Linear(in_features=40, out_features=60, bias=True)
      (3): ReLU()
      (4): Linear(in_features=60, out_features=80, bias=True)
    )
    (sex_classifier): FullyConnSexClassifier(
      (fc1): Linear(in_features=40, out_features=20, bias=True)
      (fc2): Linear(in_features=20, out_features=2, bias=True)
    )
  )
) loading from model_checkpoints/asr_model.ckpt, the object could not use the parameters loaded with the key: 1.encoder.layers.9.pos_ffn.ffn.0.weight
2022-04-07 13:41:36,993 - speechbrain.utils.checkpoints - WARNING - During parameter transfer to ModuleList(
  (0): FullyConnectedAutoencoder(
    (encoder): Sequential(
      (0): Linear(in_features=80, out_features=60, bias=True)
      (1): ReLU()
      (2): Linear(in_features=60, out_features=40, bias=True)
      (3): ReLU()
      (4): Linear(in_features=40, out_features=20, bias=True)
    )
    (decoder): Sequential(
      (0): Linear(in_features=20, out_features=40, bias=True)
      (1): ReLU()
      (2): Linear(in_features=40, out_features=60, bias=True)
      (3): ReLU()
      (4): Linear(in_features=60, out_features=80, bias=True)
    )
    (sex_classifier): FullyConnSexClassifier(
      (fc1): Linear(in_features=40, out_features=20, bias=True)
      (fc2): Linear(in_features=20, out_features=2, bias=True)
    )
  )
) loading from model_checkpoints/asr_model.ckpt, the object could not use the parameters loaded with the key: 1.encoder.layers.9.pos_ffn.ffn.0.bias
2022-04-07 13:41:36,993 - speechbrain.utils.checkpoints - WARNING - During parameter transfer to ModuleList(
  (0): FullyConnectedAutoencoder(
    (encoder): Sequential(
      (0): Linear(in_features=80, out_features=60, bias=True)
      (1): ReLU()
      (2): Linear(in_features=60, out_features=40, bias=True)
      (3): ReLU()
      (4): Linear(in_features=40, out_features=20, bias=True)
    )
    (decoder): Sequential(
      (0): Linear(in_features=20, out_features=40, bias=True)
      (1): ReLU()
      (2): Linear(in_features=40, out_features=60, bias=True)
      (3): ReLU()
      (4): Linear(in_features=60, out_features=80, bias=True)
    )
    (sex_classifier): FullyConnSexClassifier(
      (fc1): Linear(in_features=40, out_features=20, bias=True)
      (fc2): Linear(in_features=20, out_features=2, bias=True)
    )
  )
) loading from model_checkpoints/asr_model.ckpt, the object could not use the parameters loaded with the key: 1.encoder.layers.9.pos_ffn.ffn.3.weight
2022-04-07 13:41:36,994 - speechbrain.utils.checkpoints - WARNING - During parameter transfer to ModuleList(
  (0): FullyConnectedAutoencoder(
    (encoder): Sequential(
      (0): Linear(in_features=80, out_features=60, bias=True)
      (1): ReLU()
      (2): Linear(in_features=60, out_features=40, bias=True)
      (3): ReLU()
      (4): Linear(in_features=40, out_features=20, bias=True)
    )
    (decoder): Sequential(
      (0): Linear(in_features=20, out_features=40, bias=True)
      (1): ReLU()
      (2): Linear(in_features=40, out_features=60, bias=True)
      (3): ReLU()
      (4): Linear(in_features=60, out_features=80, bias=True)
    )
    (sex_classifier): FullyConnSexClassifier(
      (fc1): Linear(in_features=40, out_features=20, bias=True)
      (fc2): Linear(in_features=20, out_features=2, bias=True)
    )
  )
) loading from model_checkpoints/asr_model.ckpt, the object could not use the parameters loaded with the key: 1.encoder.layers.9.pos_ffn.ffn.3.bias
2022-04-07 13:41:36,994 - speechbrain.utils.checkpoints - WARNING - During parameter transfer to ModuleList(
  (0): FullyConnectedAutoencoder(
    (encoder): Sequential(
      (0): Linear(in_features=80, out_features=60, bias=True)
      (1): ReLU()
      (2): Linear(in_features=60, out_features=40, bias=True)
      (3): ReLU()
      (4): Linear(in_features=40, out_features=20, bias=True)
    )
    (decoder): Sequential(
      (0): Linear(in_features=20, out_features=40, bias=True)
      (1): ReLU()
      (2): Linear(in_features=40, out_features=60, bias=True)
      (3): ReLU()
      (4): Linear(in_features=60, out_features=80, bias=True)
    )
    (sex_classifier): FullyConnSexClassifier(
      (fc1): Linear(in_features=40, out_features=20, bias=True)
      (fc2): Linear(in_features=20, out_features=2, bias=True)
    )
  )
) loading from model_checkpoints/asr_model.ckpt, the object could not use the parameters loaded with the key: 1.encoder.layers.9.norm1.norm.weight
2022-04-07 13:41:36,994 - speechbrain.utils.checkpoints - WARNING - During parameter transfer to ModuleList(
  (0): FullyConnectedAutoencoder(
    (encoder): Sequential(
      (0): Linear(in_features=80, out_features=60, bias=True)
      (1): ReLU()
      (2): Linear(in_features=60, out_features=40, bias=True)
      (3): ReLU()
      (4): Linear(in_features=40, out_features=20, bias=True)
    )
    (decoder): Sequential(
      (0): Linear(in_features=20, out_features=40, bias=True)
      (1): ReLU()
      (2): Linear(in_features=40, out_features=60, bias=True)
      (3): ReLU()
      (4): Linear(in_features=60, out_features=80, bias=True)
    )
    (sex_classifier): FullyConnSexClassifier(
      (fc1): Linear(in_features=40, out_features=20, bias=True)
      (fc2): Linear(in_features=20, out_features=2, bias=True)
    )
  )
) loading from model_checkpoints/asr_model.ckpt, the object could not use the parameters loaded with the key: 1.encoder.layers.9.norm1.norm.bias
2022-04-07 13:41:36,994 - speechbrain.utils.checkpoints - WARNING - During parameter transfer to ModuleList(
  (0): FullyConnectedAutoencoder(
    (encoder): Sequential(
      (0): Linear(in_features=80, out_features=60, bias=True)
      (1): ReLU()
      (2): Linear(in_features=60, out_features=40, bias=True)
      (3): ReLU()
      (4): Linear(in_features=40, out_features=20, bias=True)
    )
    (decoder): Sequential(
      (0): Linear(in_features=20, out_features=40, bias=True)
      (1): ReLU()
      (2): Linear(in_features=40, out_features=60, bias=True)
      (3): ReLU()
      (4): Linear(in_features=60, out_features=80, bias=True)
    )
    (sex_classifier): FullyConnSexClassifier(
      (fc1): Linear(in_features=40, out_features=20, bias=True)
      (fc2): Linear(in_features=20, out_features=2, bias=True)
    )
  )
) loading from model_checkpoints/asr_model.ckpt, the object could not use the parameters loaded with the key: 1.encoder.layers.9.norm2.norm.weight
2022-04-07 13:41:36,994 - speechbrain.utils.checkpoints - WARNING - During parameter transfer to ModuleList(
  (0): FullyConnectedAutoencoder(
    (encoder): Sequential(
      (0): Linear(in_features=80, out_features=60, bias=True)
      (1): ReLU()
      (2): Linear(in_features=60, out_features=40, bias=True)
      (3): ReLU()
      (4): Linear(in_features=40, out_features=20, bias=True)
    )
    (decoder): Sequential(
      (0): Linear(in_features=20, out_features=40, bias=True)
      (1): ReLU()
      (2): Linear(in_features=40, out_features=60, bias=True)
      (3): ReLU()
      (4): Linear(in_features=60, out_features=80, bias=True)
    )
    (sex_classifier): FullyConnSexClassifier(
      (fc1): Linear(in_features=40, out_features=20, bias=True)
      (fc2): Linear(in_features=20, out_features=2, bias=True)
    )
  )
) loading from model_checkpoints/asr_model.ckpt, the object could not use the parameters loaded with the key: 1.encoder.layers.9.norm2.norm.bias
2022-04-07 13:41:36,994 - speechbrain.utils.checkpoints - WARNING - During parameter transfer to ModuleList(
  (0): FullyConnectedAutoencoder(
    (encoder): Sequential(
      (0): Linear(in_features=80, out_features=60, bias=True)
      (1): ReLU()
      (2): Linear(in_features=60, out_features=40, bias=True)
      (3): ReLU()
      (4): Linear(in_features=40, out_features=20, bias=True)
    )
    (decoder): Sequential(
      (0): Linear(in_features=20, out_features=40, bias=True)
      (1): ReLU()
      (2): Linear(in_features=40, out_features=60, bias=True)
      (3): ReLU()
      (4): Linear(in_features=60, out_features=80, bias=True)
    )
    (sex_classifier): FullyConnSexClassifier(
      (fc1): Linear(in_features=40, out_features=20, bias=True)
      (fc2): Linear(in_features=20, out_features=2, bias=True)
    )
  )
) loading from model_checkpoints/asr_model.ckpt, the object could not use the parameters loaded with the key: 1.encoder.layers.10.self_att.att.in_proj_weight
2022-04-07 13:41:36,994 - speechbrain.utils.checkpoints - WARNING - During parameter transfer to ModuleList(
  (0): FullyConnectedAutoencoder(
    (encoder): Sequential(
      (0): Linear(in_features=80, out_features=60, bias=True)
      (1): ReLU()
      (2): Linear(in_features=60, out_features=40, bias=True)
      (3): ReLU()
      (4): Linear(in_features=40, out_features=20, bias=True)
    )
    (decoder): Sequential(
      (0): Linear(in_features=20, out_features=40, bias=True)
      (1): ReLU()
      (2): Linear(in_features=40, out_features=60, bias=True)
      (3): ReLU()
      (4): Linear(in_features=60, out_features=80, bias=True)
    )
    (sex_classifier): FullyConnSexClassifier(
      (fc1): Linear(in_features=40, out_features=20, bias=True)
      (fc2): Linear(in_features=20, out_features=2, bias=True)
    )
  )
) loading from model_checkpoints/asr_model.ckpt, the object could not use the parameters loaded with the key: 1.encoder.layers.10.self_att.att.in_proj_bias
2022-04-07 13:41:36,995 - speechbrain.utils.checkpoints - WARNING - During parameter transfer to ModuleList(
  (0): FullyConnectedAutoencoder(
    (encoder): Sequential(
      (0): Linear(in_features=80, out_features=60, bias=True)
      (1): ReLU()
      (2): Linear(in_features=60, out_features=40, bias=True)
      (3): ReLU()
      (4): Linear(in_features=40, out_features=20, bias=True)
    )
    (decoder): Sequential(
      (0): Linear(in_features=20, out_features=40, bias=True)
      (1): ReLU()
      (2): Linear(in_features=40, out_features=60, bias=True)
      (3): ReLU()
      (4): Linear(in_features=60, out_features=80, bias=True)
    )
    (sex_classifier): FullyConnSexClassifier(
      (fc1): Linear(in_features=40, out_features=20, bias=True)
      (fc2): Linear(in_features=20, out_features=2, bias=True)
    )
  )
) loading from model_checkpoints/asr_model.ckpt, the object could not use the parameters loaded with the key: 1.encoder.layers.10.self_att.att.out_proj.weight
2022-04-07 13:41:36,995 - speechbrain.utils.checkpoints - WARNING - During parameter transfer to ModuleList(
  (0): FullyConnectedAutoencoder(
    (encoder): Sequential(
      (0): Linear(in_features=80, out_features=60, bias=True)
      (1): ReLU()
      (2): Linear(in_features=60, out_features=40, bias=True)
      (3): ReLU()
      (4): Linear(in_features=40, out_features=20, bias=True)
    )
    (decoder): Sequential(
      (0): Linear(in_features=20, out_features=40, bias=True)
      (1): ReLU()
      (2): Linear(in_features=40, out_features=60, bias=True)
      (3): ReLU()
      (4): Linear(in_features=60, out_features=80, bias=True)
    )
    (sex_classifier): FullyConnSexClassifier(
      (fc1): Linear(in_features=40, out_features=20, bias=True)
      (fc2): Linear(in_features=20, out_features=2, bias=True)
    )
  )
) loading from model_checkpoints/asr_model.ckpt, the object could not use the parameters loaded with the key: 1.encoder.layers.10.self_att.att.out_proj.bias
2022-04-07 13:41:36,995 - speechbrain.utils.checkpoints - WARNING - During parameter transfer to ModuleList(
  (0): FullyConnectedAutoencoder(
    (encoder): Sequential(
      (0): Linear(in_features=80, out_features=60, bias=True)
      (1): ReLU()
      (2): Linear(in_features=60, out_features=40, bias=True)
      (3): ReLU()
      (4): Linear(in_features=40, out_features=20, bias=True)
    )
    (decoder): Sequential(
      (0): Linear(in_features=20, out_features=40, bias=True)
      (1): ReLU()
      (2): Linear(in_features=40, out_features=60, bias=True)
      (3): ReLU()
      (4): Linear(in_features=60, out_features=80, bias=True)
    )
    (sex_classifier): FullyConnSexClassifier(
      (fc1): Linear(in_features=40, out_features=20, bias=True)
      (fc2): Linear(in_features=20, out_features=2, bias=True)
    )
  )
) loading from model_checkpoints/asr_model.ckpt, the object could not use the parameters loaded with the key: 1.encoder.layers.10.pos_ffn.ffn.0.weight
2022-04-07 13:41:36,995 - speechbrain.utils.checkpoints - WARNING - During parameter transfer to ModuleList(
  (0): FullyConnectedAutoencoder(
    (encoder): Sequential(
      (0): Linear(in_features=80, out_features=60, bias=True)
      (1): ReLU()
      (2): Linear(in_features=60, out_features=40, bias=True)
      (3): ReLU()
      (4): Linear(in_features=40, out_features=20, bias=True)
    )
    (decoder): Sequential(
      (0): Linear(in_features=20, out_features=40, bias=True)
      (1): ReLU()
      (2): Linear(in_features=40, out_features=60, bias=True)
      (3): ReLU()
      (4): Linear(in_features=60, out_features=80, bias=True)
    )
    (sex_classifier): FullyConnSexClassifier(
      (fc1): Linear(in_features=40, out_features=20, bias=True)
      (fc2): Linear(in_features=20, out_features=2, bias=True)
    )
  )
) loading from model_checkpoints/asr_model.ckpt, the object could not use the parameters loaded with the key: 1.encoder.layers.10.pos_ffn.ffn.0.bias
2022-04-07 13:41:36,995 - speechbrain.utils.checkpoints - WARNING - During parameter transfer to ModuleList(
  (0): FullyConnectedAutoencoder(
    (encoder): Sequential(
      (0): Linear(in_features=80, out_features=60, bias=True)
      (1): ReLU()
      (2): Linear(in_features=60, out_features=40, bias=True)
      (3): ReLU()
      (4): Linear(in_features=40, out_features=20, bias=True)
    )
    (decoder): Sequential(
      (0): Linear(in_features=20, out_features=40, bias=True)
      (1): ReLU()
      (2): Linear(in_features=40, out_features=60, bias=True)
      (3): ReLU()
      (4): Linear(in_features=60, out_features=80, bias=True)
    )
    (sex_classifier): FullyConnSexClassifier(
      (fc1): Linear(in_features=40, out_features=20, bias=True)
      (fc2): Linear(in_features=20, out_features=2, bias=True)
    )
  )
) loading from model_checkpoints/asr_model.ckpt, the object could not use the parameters loaded with the key: 1.encoder.layers.10.pos_ffn.ffn.3.weight
2022-04-07 13:41:36,995 - speechbrain.utils.checkpoints - WARNING - During parameter transfer to ModuleList(
  (0): FullyConnectedAutoencoder(
    (encoder): Sequential(
      (0): Linear(in_features=80, out_features=60, bias=True)
      (1): ReLU()
      (2): Linear(in_features=60, out_features=40, bias=True)
      (3): ReLU()
      (4): Linear(in_features=40, out_features=20, bias=True)
    )
    (decoder): Sequential(
      (0): Linear(in_features=20, out_features=40, bias=True)
      (1): ReLU()
      (2): Linear(in_features=40, out_features=60, bias=True)
      (3): ReLU()
      (4): Linear(in_features=60, out_features=80, bias=True)
    )
    (sex_classifier): FullyConnSexClassifier(
      (fc1): Linear(in_features=40, out_features=20, bias=True)
      (fc2): Linear(in_features=20, out_features=2, bias=True)
    )
  )
) loading from model_checkpoints/asr_model.ckpt, the object could not use the parameters loaded with the key: 1.encoder.layers.10.pos_ffn.ffn.3.bias
2022-04-07 13:41:36,995 - speechbrain.utils.checkpoints - WARNING - During parameter transfer to ModuleList(
  (0): FullyConnectedAutoencoder(
    (encoder): Sequential(
      (0): Linear(in_features=80, out_features=60, bias=True)
      (1): ReLU()
      (2): Linear(in_features=60, out_features=40, bias=True)
      (3): ReLU()
      (4): Linear(in_features=40, out_features=20, bias=True)
    )
    (decoder): Sequential(
      (0): Linear(in_features=20, out_features=40, bias=True)
      (1): ReLU()
      (2): Linear(in_features=40, out_features=60, bias=True)
      (3): ReLU()
      (4): Linear(in_features=60, out_features=80, bias=True)
    )
    (sex_classifier): FullyConnSexClassifier(
      (fc1): Linear(in_features=40, out_features=20, bias=True)
      (fc2): Linear(in_features=20, out_features=2, bias=True)
    )
  )
) loading from model_checkpoints/asr_model.ckpt, the object could not use the parameters loaded with the key: 1.encoder.layers.10.norm1.norm.weight
2022-04-07 13:41:36,995 - speechbrain.utils.checkpoints - WARNING - During parameter transfer to ModuleList(
  (0): FullyConnectedAutoencoder(
    (encoder): Sequential(
      (0): Linear(in_features=80, out_features=60, bias=True)
      (1): ReLU()
      (2): Linear(in_features=60, out_features=40, bias=True)
      (3): ReLU()
      (4): Linear(in_features=40, out_features=20, bias=True)
    )
    (decoder): Sequential(
      (0): Linear(in_features=20, out_features=40, bias=True)
      (1): ReLU()
      (2): Linear(in_features=40, out_features=60, bias=True)
      (3): ReLU()
      (4): Linear(in_features=60, out_features=80, bias=True)
    )
    (sex_classifier): FullyConnSexClassifier(
      (fc1): Linear(in_features=40, out_features=20, bias=True)
      (fc2): Linear(in_features=20, out_features=2, bias=True)
    )
  )
) loading from model_checkpoints/asr_model.ckpt, the object could not use the parameters loaded with the key: 1.encoder.layers.10.norm1.norm.bias
2022-04-07 13:41:36,996 - speechbrain.utils.checkpoints - WARNING - During parameter transfer to ModuleList(
  (0): FullyConnectedAutoencoder(
    (encoder): Sequential(
      (0): Linear(in_features=80, out_features=60, bias=True)
      (1): ReLU()
      (2): Linear(in_features=60, out_features=40, bias=True)
      (3): ReLU()
      (4): Linear(in_features=40, out_features=20, bias=True)
    )
    (decoder): Sequential(
      (0): Linear(in_features=20, out_features=40, bias=True)
      (1): ReLU()
      (2): Linear(in_features=40, out_features=60, bias=True)
      (3): ReLU()
      (4): Linear(in_features=60, out_features=80, bias=True)
    )
    (sex_classifier): FullyConnSexClassifier(
      (fc1): Linear(in_features=40, out_features=20, bias=True)
      (fc2): Linear(in_features=20, out_features=2, bias=True)
    )
  )
) loading from model_checkpoints/asr_model.ckpt, the object could not use the parameters loaded with the key: 1.encoder.layers.10.norm2.norm.weight
2022-04-07 13:41:36,996 - speechbrain.utils.checkpoints - WARNING - During parameter transfer to ModuleList(
  (0): FullyConnectedAutoencoder(
    (encoder): Sequential(
      (0): Linear(in_features=80, out_features=60, bias=True)
      (1): ReLU()
      (2): Linear(in_features=60, out_features=40, bias=True)
      (3): ReLU()
      (4): Linear(in_features=40, out_features=20, bias=True)
    )
    (decoder): Sequential(
      (0): Linear(in_features=20, out_features=40, bias=True)
      (1): ReLU()
      (2): Linear(in_features=40, out_features=60, bias=True)
      (3): ReLU()
      (4): Linear(in_features=60, out_features=80, bias=True)
    )
    (sex_classifier): FullyConnSexClassifier(
      (fc1): Linear(in_features=40, out_features=20, bias=True)
      (fc2): Linear(in_features=20, out_features=2, bias=True)
    )
  )
) loading from model_checkpoints/asr_model.ckpt, the object could not use the parameters loaded with the key: 1.encoder.layers.10.norm2.norm.bias
2022-04-07 13:41:36,996 - speechbrain.utils.checkpoints - WARNING - During parameter transfer to ModuleList(
  (0): FullyConnectedAutoencoder(
    (encoder): Sequential(
      (0): Linear(in_features=80, out_features=60, bias=True)
      (1): ReLU()
      (2): Linear(in_features=60, out_features=40, bias=True)
      (3): ReLU()
      (4): Linear(in_features=40, out_features=20, bias=True)
    )
    (decoder): Sequential(
      (0): Linear(in_features=20, out_features=40, bias=True)
      (1): ReLU()
      (2): Linear(in_features=40, out_features=60, bias=True)
      (3): ReLU()
      (4): Linear(in_features=60, out_features=80, bias=True)
    )
    (sex_classifier): FullyConnSexClassifier(
      (fc1): Linear(in_features=40, out_features=20, bias=True)
      (fc2): Linear(in_features=20, out_features=2, bias=True)
    )
  )
) loading from model_checkpoints/asr_model.ckpt, the object could not use the parameters loaded with the key: 1.encoder.layers.11.self_att.att.in_proj_weight
2022-04-07 13:41:36,996 - speechbrain.utils.checkpoints - WARNING - During parameter transfer to ModuleList(
  (0): FullyConnectedAutoencoder(
    (encoder): Sequential(
      (0): Linear(in_features=80, out_features=60, bias=True)
      (1): ReLU()
      (2): Linear(in_features=60, out_features=40, bias=True)
      (3): ReLU()
      (4): Linear(in_features=40, out_features=20, bias=True)
    )
    (decoder): Sequential(
      (0): Linear(in_features=20, out_features=40, bias=True)
      (1): ReLU()
      (2): Linear(in_features=40, out_features=60, bias=True)
      (3): ReLU()
      (4): Linear(in_features=60, out_features=80, bias=True)
    )
    (sex_classifier): FullyConnSexClassifier(
      (fc1): Linear(in_features=40, out_features=20, bias=True)
      (fc2): Linear(in_features=20, out_features=2, bias=True)
    )
  )
) loading from model_checkpoints/asr_model.ckpt, the object could not use the parameters loaded with the key: 1.encoder.layers.11.self_att.att.in_proj_bias
2022-04-07 13:41:36,996 - speechbrain.utils.checkpoints - WARNING - During parameter transfer to ModuleList(
  (0): FullyConnectedAutoencoder(
    (encoder): Sequential(
      (0): Linear(in_features=80, out_features=60, bias=True)
      (1): ReLU()
      (2): Linear(in_features=60, out_features=40, bias=True)
      (3): ReLU()
      (4): Linear(in_features=40, out_features=20, bias=True)
    )
    (decoder): Sequential(
      (0): Linear(in_features=20, out_features=40, bias=True)
      (1): ReLU()
      (2): Linear(in_features=40, out_features=60, bias=True)
      (3): ReLU()
      (4): Linear(in_features=60, out_features=80, bias=True)
    )
    (sex_classifier): FullyConnSexClassifier(
      (fc1): Linear(in_features=40, out_features=20, bias=True)
      (fc2): Linear(in_features=20, out_features=2, bias=True)
    )
  )
…
      (0): Linear(in_features=20, out_features=40, bias=True)
      (1): ReLU()
      (2): Linear(in_features=40, out_features=60, bias=True)
      (3): ReLU()
      (4): Linear(in_features=60, out_features=80, bias=True)
    )
    (sex_classifier): FullyConnSexClassifier(
      (fc1): Linear(in_features=40, out_features=20, bias=True)
      (fc2): Linear(in_features=20, out_features=2, bias=True)
    )
  )
) loading from model_checkpoints/asr_model.ckpt, the object could not use the parameters loaded with the key: 1.decoder.layers.4.pos_ffn.ffn.3.weight
2022-04-07 13:41:37,009 - speechbrain.utils.checkpoints - WARNING - During parameter transfer to ModuleList(
  (0): FullyConnectedAutoencoder(
    (encoder): Sequential(
      (0): Linear(in_features=80, out_features=60, bias=True)
      (1): ReLU()
      (2): Linear(in_features=60, out_features=40, bias=True)
      (3): ReLU()
      (4): Linear(in_features=40, out_features=20, bias=True)
    )
    (decoder): Sequential(
      (0): Linear(in_features=20, out_features=40, bias=True)
      (1): ReLU()
      (2): Linear(in_features=40, out_features=60, bias=True)
      (3): ReLU()
      (4): Linear(in_features=60, out_features=80, bias=True)
    )
    (sex_classifier): FullyConnSexClassifier(
      (fc1): Linear(in_features=40, out_features=20, bias=True)
      (fc2): Linear(in_features=20, out_features=2, bias=True)
    )
  )
) loading from model_checkpoints/asr_model.ckpt, the object could not use the parameters loaded with the key: 1.decoder.layers.4.pos_ffn.ffn.3.bias
2022-04-07 13:41:37,009 - speechbrain.utils.checkpoints - WARNING - During parameter transfer to ModuleList(
  (0): FullyConnectedAutoencoder(
    (encoder): Sequential(
      (0): Linear(in_features=80, out_features=60, bias=True)
      (1): ReLU()
      (2): Linear(in_features=60, out_features=40, bias=True)
      (3): ReLU()
      (4): Linear(in_features=40, out_features=20, bias=True)
    )
    (decoder): Sequential(
      (0): Linear(in_features=20, out_features=40, bias=True)
      (1): ReLU()
      (2): Linear(in_features=40, out_features=60, bias=True)
      (3): ReLU()
      (4): Linear(in_features=60, out_features=80, bias=True)
    )
    (sex_classifier): FullyConnSexClassifier(
      (fc1): Linear(in_features=40, out_features=20, bias=True)
      (fc2): Linear(in_features=20, out_features=2, bias=True)
    )
  )
) loading from model_checkpoints/asr_model.ckpt, the object could not use the parameters loaded with the key: 1.decoder.layers.4.norm1.norm.weight
2022-04-07 13:41:37,010 - speechbrain.utils.checkpoints - WARNING - During parameter transfer to ModuleList(
  (0): FullyConnectedAutoencoder(
    (encoder): Sequential(
      (0): Linear(in_features=80, out_features=60, bias=True)
      (1): ReLU()
      (2): Linear(in_features=60, out_features=40, bias=True)
      (3): ReLU()
      (4): Linear(in_features=40, out_features=20, bias=True)
    )
    (decoder): Sequential(
      (0): Linear(in_features=20, out_features=40, bias=True)
      (1): ReLU()
      (2): Linear(in_features=40, out_features=60, bias=True)
      (3): ReLU()
      (4): Linear(in_features=60, out_features=80, bias=True)
    )
    (sex_classifier): FullyConnSexClassifier(
      (fc1): Linear(in_features=40, out_features=20, bias=True)
      (fc2): Linear(in_features=20, out_features=2, bias=True)
    )
  )
) loading from model_checkpoints/asr_model.ckpt, the object could not use the parameters loaded with the key: 1.decoder.layers.4.norm1.norm.bias
2022-04-07 13:41:37,010 - speechbrain.utils.checkpoints - WARNING - During parameter transfer to ModuleList(
  (0): FullyConnectedAutoencoder(
    (encoder): Sequential(
      (0): Linear(in_features=80, out_features=60, bias=True)
      (1): ReLU()
      (2): Linear(in_features=60, out_features=40, bias=True)
      (3): ReLU()
      (4): Linear(in_features=40, out_features=20, bias=True)
    )
    (decoder): Sequential(
      (0): Linear(in_features=20, out_features=40, bias=True)
      (1): ReLU()
      (2): Linear(in_features=40, out_features=60, bias=True)
      (3): ReLU()
      (4): Linear(in_features=60, out_features=80, bias=True)
    )
    (sex_classifier): FullyConnSexClassifier(
      (fc1): Linear(in_features=40, out_features=20, bias=True)
      (fc2): Linear(in_features=20, out_features=2, bias=True)
    )
  )
) loading from model_checkpoints/asr_model.ckpt, the object could not use the parameters loaded with the key: 1.decoder.layers.4.norm2.norm.weight
2022-04-07 13:41:37,010 - speechbrain.utils.checkpoints - WARNING - During parameter transfer to ModuleList(
  (0): FullyConnectedAutoencoder(
    (encoder): Sequential(
      (0): Linear(in_features=80, out_features=60, bias=True)
      (1): ReLU()
      (2): Linear(in_features=60, out_features=40, bias=True)
      (3): ReLU()
      (4): Linear(in_features=40, out_features=20, bias=True)
    )
    (decoder): Sequential(
      (0): Linear(in_features=20, out_features=40, bias=True)
      (1): ReLU()
      (2): Linear(in_features=40, out_features=60, bias=True)
      (3): ReLU()
      (4): Linear(in_features=60, out_features=80, bias=True)
    )
    (sex_classifier): FullyConnSexClassifier(
      (fc1): Linear(in_features=40, out_features=20, bias=True)
      (fc2): Linear(in_features=20, out_features=2, bias=True)
    )
  )
) loading from model_checkpoints/asr_model.ckpt, the object could not use the parameters loaded with the key: 1.decoder.layers.4.norm2.norm.bias
2022-04-07 13:41:37,010 - speechbrain.utils.checkpoints - WARNING - During parameter transfer to ModuleList(
  (0): FullyConnectedAutoencoder(
    (encoder): Sequential(
      (0): Linear(in_features=80, out_features=60, bias=True)
      (1): ReLU()
      (2): Linear(in_features=60, out_features=40, bias=True)
      (3): ReLU()
      (4): Linear(in_features=40, out_features=20, bias=True)
    )
    (decoder): Sequential(
      (0): Linear(in_features=20, out_features=40, bias=True)
      (1): ReLU()
      (2): Linear(in_features=40, out_features=60, bias=True)
      (3): ReLU()
      (4): Linear(in_features=60, out_features=80, bias=True)
    )
    (sex_classifier): FullyConnSexClassifier(
      (fc1): Linear(in_features=40, out_features=20, bias=True)
      (fc2): Linear(in_features=20, out_features=2, bias=True)
    )
  )
) loading from model_checkpoints/asr_model.ckpt, the object could not use the parameters loaded with the key: 1.decoder.layers.4.norm3.norm.weight
2022-04-07 13:41:37,010 - speechbrain.utils.checkpoints - WARNING - During parameter transfer to ModuleList(
  (0): FullyConnectedAutoencoder(
    (encoder): Sequential(
      (0): Linear(in_features=80, out_features=60, bias=True)
      (1): ReLU()
      (2): Linear(in_features=60, out_features=40, bias=True)
      (3): ReLU()
      (4): Linear(in_features=40, out_features=20, bias=True)
    )
    (decoder): Sequential(
      (0): Linear(in_features=20, out_features=40, bias=True)
      (1): ReLU()
      (2): Linear(in_features=40, out_features=60, bias=True)
      (3): ReLU()
      (4): Linear(in_features=60, out_features=80, bias=True)
    )
    (sex_classifier): FullyConnSexClassifier(
      (fc1): Linear(in_features=40, out_features=20, bias=True)
      (fc2): Linear(in_features=20, out_features=2, bias=True)
    )
  )
) loading from model_checkpoints/asr_model.ckpt, the object could not use the parameters loaded with the key: 1.decoder.layers.4.norm3.norm.bias
2022-04-07 13:41:37,010 - speechbrain.utils.checkpoints - WARNING - During parameter transfer to ModuleList(
  (0): FullyConnectedAutoencoder(
    (encoder): Sequential(
      (0): Linear(in_features=80, out_features=60, bias=True)
      (1): ReLU()
      (2): Linear(in_features=60, out_features=40, bias=True)
      (3): ReLU()
      (4): Linear(in_features=40, out_features=20, bias=True)
    )
    (decoder): Sequential(
      (0): Linear(in_features=20, out_features=40, bias=True)
      (1): ReLU()
      (2): Linear(in_features=40, out_features=60, bias=True)
      (3): ReLU()
      (4): Linear(in_features=60, out_features=80, bias=True)
    )
    (sex_classifier): FullyConnSexClassifier(
      (fc1): Linear(in_features=40, out_features=20, bias=True)
      (fc2): Linear(in_features=20, out_features=2, bias=True)
    )
  )
) loading from model_checkpoints/asr_model.ckpt, the object could not use the parameters loaded with the key: 1.decoder.layers.5.self_attn.att.in_proj_weight
2022-04-07 13:41:37,010 - speechbrain.utils.checkpoints - WARNING - During parameter transfer to ModuleList(
  (0): FullyConnectedAutoencoder(
    (encoder): Sequential(
      (0): Linear(in_features=80, out_features=60, bias=True)
      (1): ReLU()
      (2): Linear(in_features=60, out_features=40, bias=True)
      (3): ReLU()
      (4): Linear(in_features=40, out_features=20, bias=True)
    )
    (decoder): Sequential(
      (0): Linear(in_features=20, out_features=40, bias=True)
      (1): ReLU()
      (2): Linear(in_features=40, out_features=60, bias=True)
      (3): ReLU()
      (4): Linear(in_features=60, out_features=80, bias=True)
    )
    (sex_classifier): FullyConnSexClassifier(
      (fc1): Linear(in_features=40, out_features=20, bias=True)
      (fc2): Linear(in_features=20, out_features=2, bias=True)
    )
  )
) loading from model_checkpoints/asr_model.ckpt, the object could not use the parameters loaded with the key: 1.decoder.layers.5.self_attn.att.in_proj_bias
2022-04-07 13:41:37,011 - speechbrain.utils.checkpoints - WARNING - During parameter transfer to ModuleList(
  (0): FullyConnectedAutoencoder(
    (encoder): Sequential(
      (0): Linear(in_features=80, out_features=60, bias=True)
      (1): ReLU()
      (2): Linear(in_features=60, out_features=40, bias=True)
      (3): ReLU()
      (4): Linear(in_features=40, out_features=20, bias=True)
    )
    (decoder): Sequential(
      (0): Linear(in_features=20, out_features=40, bias=True)
      (1): ReLU()
      (2): Linear(in_features=40, out_features=60, bias=True)
      (3): ReLU()
      (4): Linear(in_features=60, out_features=80, bias=True)
    )
    (sex_classifier): FullyConnSexClassifier(
      (fc1): Linear(in_features=40, out_features=20, bias=True)
      (fc2): Linear(in_features=20, out_features=2, bias=True)
    )
  )
) loading from model_checkpoints/asr_model.ckpt, the object could not use the parameters loaded with the key: 1.decoder.layers.5.self_attn.att.out_proj.weight
2022-04-07 13:41:37,011 - speechbrain.utils.checkpoints - WARNING - During parameter transfer to ModuleList(
  (0): FullyConnectedAutoencoder(
    (encoder): Sequential(
      (0): Linear(in_features=80, out_features=60, bias=True)
      (1): ReLU()
      (2): Linear(in_features=60, out_features=40, bias=True)
      (3): ReLU()
      (4): Linear(in_features=40, out_features=20, bias=True)
    )
    (decoder): Sequential(
      (0): Linear(in_features=20, out_features=40, bias=True)
      (1): ReLU()
      (2): Linear(in_features=40, out_features=60, bias=True)
      (3): ReLU()
      (4): Linear(in_features=60, out_features=80, bias=True)
    )
    (sex_classifier): FullyConnSexClassifier(
      (fc1): Linear(in_features=40, out_features=20, bias=True)
      (fc2): Linear(in_features=20, out_features=2, bias=True)
    )
  )
) loading from model_checkpoints/asr_model.ckpt, the object could not use the parameters loaded with the key: 1.decoder.layers.5.self_attn.att.out_proj.bias
2022-04-07 13:41:37,011 - speechbrain.utils.checkpoints - WARNING - During parameter transfer to ModuleList(
  (0): FullyConnectedAutoencoder(
    (encoder): Sequential(
      (0): Linear(in_features=80, out_features=60, bias=True)
      (1): ReLU()
      (2): Linear(in_features=60, out_features=40, bias=True)
      (3): ReLU()
      (4): Linear(in_features=40, out_features=20, bias=True)
    )
    (decoder): Sequential(
      (0): Linear(in_features=20, out_features=40, bias=True)
      (1): ReLU()
      (2): Linear(in_features=40, out_features=60, bias=True)
      (3): ReLU()
      (4): Linear(in_features=60, out_features=80, bias=True)
    )
    (sex_classifier): FullyConnSexClassifier(
      (fc1): Linear(in_features=40, out_features=20, bias=True)
      (fc2): Linear(in_features=20, out_features=2, bias=True)
    )
  )
) loading from model_checkpoints/asr_model.ckpt, the object could not use the parameters loaded with the key: 1.decoder.layers.5.mutihead_attn.att.in_proj_weight
2022-04-07 13:41:37,011 - speechbrain.utils.checkpoints - WARNING - During parameter transfer to ModuleList(
  (0): FullyConnectedAutoencoder(
    (encoder): Sequential(
      (0): Linear(in_features=80, out_features=60, bias=True)
      (1): ReLU()
      (2): Linear(in_features=60, out_features=40, bias=True)
      (3): ReLU()
      (4): Linear(in_features=40, out_features=20, bias=True)
    )
    (decoder): Sequential(
      (0): Linear(in_features=20, out_features=40, bias=True)
      (1): ReLU()
      (2): Linear(in_features=40, out_features=60, bias=True)
      (3): ReLU()
      (4): Linear(in_features=60, out_features=80, bias=True)
    )
    (sex_classifier): FullyConnSexClassifier(
      (fc1): Linear(in_features=40, out_features=20, bias=True)
      (fc2): Linear(in_features=20, out_features=2, bias=True)
    )
  )
) loading from model_checkpoints/asr_model.ckpt, the object could not use the parameters loaded with the key: 1.decoder.layers.5.mutihead_attn.att.in_proj_bias
2022-04-07 13:41:37,011 - speechbrain.utils.checkpoints - WARNING - During parameter transfer to ModuleList(
  (0): FullyConnectedAutoencoder(
    (encoder): Sequential(
      (0): Linear(in_features=80, out_features=60, bias=True)
      (1): ReLU()
      (2): Linear(in_features=60, out_features=40, bias=True)
      (3): ReLU()
      (4): Linear(in_features=40, out_features=20, bias=True)
    )
    (decoder): Sequential(
      (0): Linear(in_features=20, out_features=40, bias=True)
      (1): ReLU()
      (2): Linear(in_features=40, out_features=60, bias=True)
      (3): ReLU()
      (4): Linear(in_features=60, out_features=80, bias=True)
    )
    (sex_classifier): FullyConnSexClassifier(
      (fc1): Linear(in_features=40, out_features=20, bias=True)
      (fc2): Linear(in_features=20, out_features=2, bias=True)
    )
  )
) loading from model_checkpoints/asr_model.ckpt, the object could not use the parameters loaded with the key: 1.decoder.layers.5.mutihead_attn.att.out_proj.weight
2022-04-07 13:41:37,011 - speechbrain.utils.checkpoints - WARNING - During parameter transfer to ModuleList(
  (0): FullyConnectedAutoencoder(
    (encoder): Sequential(
      (0): Linear(in_features=80, out_features=60, bias=True)
      (1): ReLU()
      (2): Linear(in_features=60, out_features=40, bias=True)
      (3): ReLU()
      (4): Linear(in_features=40, out_features=20, bias=True)
    )
    (decoder): Sequential(
      (0): Linear(in_features=20, out_features=40, bias=True)
      (1): ReLU()
      (2): Linear(in_features=40, out_features=60, bias=True)
      (3): ReLU()
      (4): Linear(in_features=60, out_features=80, bias=True)
    )
    (sex_classifier): FullyConnSexClassifier(
      (fc1): Linear(in_features=40, out_features=20, bias=True)
      (fc2): Linear(in_features=20, out_features=2, bias=True)
    )
  )
) loading from model_checkpoints/asr_model.ckpt, the object could not use the parameters loaded with the key: 1.decoder.layers.5.mutihead_attn.att.out_proj.bias
2022-04-07 13:41:37,012 - speechbrain.utils.checkpoints - WARNING - During parameter transfer to ModuleList(
  (0): FullyConnectedAutoencoder(
    (encoder): Sequential(
      (0): Linear(in_features=80, out_features=60, bias=True)
      (1): ReLU()
      (2): Linear(in_features=60, out_features=40, bias=True)
      (3): ReLU()
      (4): Linear(in_features=40, out_features=20, bias=True)
    )
    (decoder): Sequential(
      (0): Linear(in_features=20, out_features=40, bias=True)
      (1): ReLU()
      (2): Linear(in_features=40, out_features=60, bias=True)
      (3): ReLU()
      (4): Linear(in_features=60, out_features=80, bias=True)
    )
    (sex_classifier): FullyConnSexClassifier(
      (fc1): Linear(in_features=40, out_features=20, bias=True)
      (fc2): Linear(in_features=20, out_features=2, bias=True)
    )
  )
) loading from model_checkpoints/asr_model.ckpt, the object could not use the parameters loaded with the key: 1.decoder.layers.5.pos_ffn.ffn.0.weight
2022-04-07 13:41:37,012 - speechbrain.utils.checkpoints - WARNING - During parameter transfer to ModuleList(
  (0): FullyConnectedAutoencoder(
    (encoder): Sequential(
      (0): Linear(in_features=80, out_features=60, bias=True)
      (1): ReLU()
      (2): Linear(in_features=60, out_features=40, bias=True)
      (3): ReLU()
      (4): Linear(in_features=40, out_features=20, bias=True)
    )
    (decoder): Sequential(
      (0): Linear(in_features=20, out_features=40, bias=True)
      (1): ReLU()
      (2): Linear(in_features=40, out_features=60, bias=True)
      (3): ReLU()
      (4): Linear(in_features=60, out_features=80, bias=True)
    )
    (sex_classifier): FullyConnSexClassifier(
      (fc1): Linear(in_features=40, out_features=20, bias=True)
      (fc2): Linear(in_features=20, out_features=2, bias=True)
    )
  )
) loading from model_checkpoints/asr_model.ckpt, the object could not use the parameters loaded with the key: 1.decoder.layers.5.pos_ffn.ffn.0.bias
2022-04-07 13:41:37,012 - speechbrain.utils.checkpoints - WARNING - During parameter transfer to ModuleList(
  (0): FullyConnectedAutoencoder(
    (encoder): Sequential(
      (0): Linear(in_features=80, out_features=60, bias=True)
      (1): ReLU()
      (2): Linear(in_features=60, out_features=40, bias=True)
      (3): ReLU()
      (4): Linear(in_features=40, out_features=20, bias=True)
    )
    (decoder): Sequential(
      (0): Linear(in_features=20, out_features=40, bias=True)
      (1): ReLU()
      (2): Linear(in_features=40, out_features=60, bias=True)
      (3): ReLU()
      (4): Linear(in_features=60, out_features=80, bias=True)
    )
    (sex_classifier): FullyConnSexClassifier(
      (fc1): Linear(in_features=40, out_features=20, bias=True)
      (fc2): Linear(in_features=20, out_features=2, bias=True)
    )
  )
) loading from model_checkpoints/asr_model.ckpt, the object could not use the parameters loaded with the key: 1.decoder.layers.5.pos_ffn.ffn.3.weight
2022-04-07 13:41:37,012 - speechbrain.utils.checkpoints - WARNING - During parameter transfer to ModuleList(
  (0): FullyConnectedAutoencoder(
    (encoder): Sequential(
      (0): Linear(in_features=80, out_features=60, bias=True)
      (1): ReLU()
      (2): Linear(in_features=60, out_features=40, bias=True)
      (3): ReLU()
      (4): Linear(in_features=40, out_features=20, bias=True)
    )
    (decoder): Sequential(
      (0): Linear(in_features=20, out_features=40, bias=True)
      (1): ReLU()
      (2): Linear(in_features=40, out_features=60, bias=True)
      (3): ReLU()
      (4): Linear(in_features=60, out_features=80, bias=True)
    )
    (sex_classifier): FullyConnSexClassifier(
      (fc1): Linear(in_features=40, out_features=20, bias=True)
      (fc2): Linear(in_features=20, out_features=2, bias=True)
    )
  )
) loading from model_checkpoints/asr_model.ckpt, the object could not use the parameters loaded with the key: 1.decoder.layers.5.pos_ffn.ffn.3.bias
2022-04-07 13:41:37,012 - speechbrain.utils.checkpoints - WARNING - During parameter transfer to ModuleList(
  (0): FullyConnectedAutoencoder(
    (encoder): Sequential(
      (0): Linear(in_features=80, out_features=60, bias=True)
      (1): ReLU()
      (2): Linear(in_features=60, out_features=40, bias=True)
      (3): ReLU()
      (4): Linear(in_features=40, out_features=20, bias=True)
    )
    (decoder): Sequential(
      (0): Linear(in_features=20, out_features=40, bias=True)
      (1): ReLU()
      (2): Linear(in_features=40, out_features=60, bias=True)
      (3): ReLU()
      (4): Linear(in_features=60, out_features=80, bias=True)
    )
    (sex_classifier): FullyConnSexClassifier(
      (fc1): Linear(in_features=40, out_features=20, bias=True)
      (fc2): Linear(in_features=20, out_features=2, bias=True)
    )
  )
) loading from model_checkpoints/asr_model.ckpt, the object could not use the parameters loaded with the key: 1.decoder.layers.5.norm1.norm.weight
2022-04-07 13:41:37,012 - speechbrain.utils.checkpoints - WARNING - During parameter transfer to ModuleList(
  (0): FullyConnectedAutoencoder(
    (encoder): Sequential(
      (0): Linear(in_features=80, out_features=60, bias=True)
      (1): ReLU()
      (2): Linear(in_features=60, out_features=40, bias=True)
      (3): ReLU()
      (4): Linear(in_features=40, out_features=20, bias=True)
    )
    (decoder): Sequential(
      (0): Linear(in_features=20, out_features=40, bias=True)
      (1): ReLU()
      (2): Linear(in_features=40, out_features=60, bias=True)
      (3): ReLU()
      (4): Linear(in_features=60, out_features=80, bias=True)
    )
    (sex_classifier): FullyConnSexClassifier(
      (fc1): Linear(in_features=40, out_features=20, bias=True)
      (fc2): Linear(in_features=20, out_features=2, bias=True)
    )
  )
) loading from model_checkpoints/asr_model.ckpt, the object could not use the parameters loaded with the key: 1.decoder.layers.5.norm1.norm.bias
2022-04-07 13:41:37,012 - speechbrain.utils.checkpoints - WARNING - During parameter transfer to ModuleList(
  (0): FullyConnectedAutoencoder(
    (encoder): Sequential(
      (0): Linear(in_features=80, out_features=60, bias=True)
      (1): ReLU()
      (2): Linear(in_features=60, out_features=40, bias=True)
      (3): ReLU()
      (4): Linear(in_features=40, out_features=20, bias=True)
    )
    (decoder): Sequential(
      (0): Linear(in_features=20, out_features=40, bias=True)
      (1): ReLU()
      (2): Linear(in_features=40, out_features=60, bias=True)
      (3): ReLU()
      (4): Linear(in_features=60, out_features=80, bias=True)
    )
    (sex_classifier): FullyConnSexClassifier(
      (fc1): Linear(in_features=40, out_features=20, bias=True)
      (fc2): Linear(in_features=20, out_features=2, bias=True)
    )
  )
) loading from model_checkpoints/asr_model.ckpt, the object could not use the parameters loaded with the key: 1.decoder.layers.5.norm2.norm.weight
2022-04-07 13:41:37,013 - speechbrain.utils.checkpoints - WARNING - During parameter transfer to ModuleList(
  (0): FullyConnectedAutoencoder(
    (encoder): Sequential(
      (0): Linear(in_features=80, out_features=60, bias=True)
      (1): ReLU()
      (2): Linear(in_features=60, out_features=40, bias=True)
      (3): ReLU()
      (4): Linear(in_features=40, out_features=20, bias=True)
    )
    (decoder): Sequential(
      (0): Linear(in_features=20, out_features=40, bias=True)
      (1): ReLU()
      (2): Linear(in_features=40, out_features=60, bias=True)
      (3): ReLU()
      (4): Linear(in_features=60, out_features=80, bias=True)
    )
    (sex_classifier): FullyConnSexClassifier(
      (fc1): Linear(in_features=40, out_features=20, bias=True)
      (fc2): Linear(in_features=20, out_features=2, bias=True)
    )
  )
) loading from model_checkpoints/asr_model.ckpt, the object could not use the parameters loaded with the key: 1.decoder.layers.5.norm2.norm.bias
2022-04-07 13:41:37,013 - speechbrain.utils.checkpoints - WARNING - During parameter transfer to ModuleList(
  (0): FullyConnectedAutoencoder(
    (encoder): Sequential(
      (0): Linear(in_features=80, out_features=60, bias=True)
      (1): ReLU()
      (2): Linear(in_features=60, out_features=40, bias=True)
      (3): ReLU()
      (4): Linear(in_features=40, out_features=20, bias=True)
    )
    (decoder): Sequential(
      (0): Linear(in_features=20, out_features=40, bias=True)
      (1): ReLU()
      (2): Linear(in_features=40, out_features=60, bias=True)
      (3): ReLU()
      (4): Linear(in_features=60, out_features=80, bias=True)
    )
    (sex_classifier): FullyConnSexClassifier(
      (fc1): Linear(in_features=40, out_features=20, bias=True)
      (fc2): Linear(in_features=20, out_features=2, bias=True)
    )
  )
) loading from model_checkpoints/asr_model.ckpt, the object could not use the parameters loaded with the key: 1.decoder.layers.5.norm3.norm.weight
2022-04-07 13:41:37,013 - speechbrain.utils.checkpoints - WARNING - During parameter transfer to ModuleList(
  (0): FullyConnectedAutoencoder(
    (encoder): Sequential(
      (0): Linear(in_features=80, out_features=60, bias=True)
      (1): ReLU()
      (2): Linear(in_features=60, out_features=40, bias=True)
      (3): ReLU()
      (4): Linear(in_features=40, out_features=20, bias=True)
    )
    (decoder): Sequential(
      (0): Linear(in_features=20, out_features=40, bias=True)
      (1): ReLU()
      (2): Linear(in_features=40, out_features=60, bias=True)
      (3): ReLU()
      (4): Linear(in_features=60, out_features=80, bias=True)
    )
    (sex_classifier): FullyConnSexClassifier(
      (fc1): Linear(in_features=40, out_features=20, bias=True)
      (fc2): Linear(in_features=20, out_features=2, bias=True)
    )
  )
) loading from model_checkpoints/asr_model.ckpt, the object could not use the parameters loaded with the key: 1.decoder.layers.5.norm3.norm.bias
2022-04-07 13:41:37,013 - speechbrain.utils.checkpoints - WARNING - During parameter transfer to ModuleList(
  (0): FullyConnectedAutoencoder(
    (encoder): Sequential(
      (0): Linear(in_features=80, out_features=60, bias=True)
      (1): ReLU()
      (2): Linear(in_features=60, out_features=40, bias=True)
      (3): ReLU()
      (4): Linear(in_features=40, out_features=20, bias=True)
    )
    (decoder): Sequential(
      (0): Linear(in_features=20, out_features=40, bias=True)
      (1): ReLU()
      (2): Linear(in_features=40, out_features=60, bias=True)
      (3): ReLU()
      (4): Linear(in_features=60, out_features=80, bias=True)
    )
    (sex_classifier): FullyConnSexClassifier(
      (fc1): Linear(in_features=40, out_features=20, bias=True)
      (fc2): Linear(in_features=20, out_features=2, bias=True)
    )
  )
) loading from model_checkpoints/asr_model.ckpt, the object could not use the parameters loaded with the key: 1.decoder.norm.norm.weight
2022-04-07 13:41:37,013 - speechbrain.utils.checkpoints - WARNING - During parameter transfer to ModuleList(
  (0): FullyConnectedAutoencoder(
    (encoder): Sequential(
      (0): Linear(in_features=80, out_features=60, bias=True)
      (1): ReLU()
      (2): Linear(in_features=60, out_features=40, bias=True)
      (3): ReLU()
      (4): Linear(in_features=40, out_features=20, bias=True)
    )
    (decoder): Sequential(
      (0): Linear(in_features=20, out_features=40, bias=True)
      (1): ReLU()
      (2): Linear(in_features=40, out_features=60, bias=True)
      (3): ReLU()
      (4): Linear(in_features=60, out_features=80, bias=True)
    )
    (sex_classifier): FullyConnSexClassifier(
      (fc1): Linear(in_features=40, out_features=20, bias=True)
      (fc2): Linear(in_features=20, out_features=2, bias=True)
    )
  )
) loading from model_checkpoints/asr_model.ckpt, the object could not use the parameters loaded with the key: 1.decoder.norm.norm.bias
2022-04-07 13:41:37,013 - speechbrain.utils.checkpoints - WARNING - During parameter transfer to ModuleList(
  (0): FullyConnectedAutoencoder(
    (encoder): Sequential(
      (0): Linear(in_features=80, out_features=60, bias=True)
      (1): ReLU()
      (2): Linear(in_features=60, out_features=40, bias=True)
      (3): ReLU()
      (4): Linear(in_features=40, out_features=20, bias=True)
    )
    (decoder): Sequential(
      (0): Linear(in_features=20, out_features=40, bias=True)
      (1): ReLU()
      (2): Linear(in_features=40, out_features=60, bias=True)
      (3): ReLU()
      (4): Linear(in_features=60, out_features=80, bias=True)
    )
    (sex_classifier): FullyConnSexClassifier(
      (fc1): Linear(in_features=40, out_features=20, bias=True)
      (fc2): Linear(in_features=20, out_features=2, bias=True)
    )
  )
) loading from model_checkpoints/asr_model.ckpt, the object could not use the parameters loaded with the key: 1.custom_src_module.layers.0.w.weight
2022-04-07 13:41:37,014 - speechbrain.utils.checkpoints - WARNING - During parameter transfer to ModuleList(
  (0): FullyConnectedAutoencoder(
    (encoder): Sequential(
      (0): Linear(in_features=80, out_features=60, bias=True)
      (1): ReLU()
      (2): Linear(in_features=60, out_features=40, bias=True)
      (3): ReLU()
      (4): Linear(in_features=40, out_features=20, bias=True)
    )
    (decoder): Sequential(
      (0): Linear(in_features=20, out_features=40, bias=True)
      (1): ReLU()
      (2): Linear(in_features=40, out_features=60, bias=True)
      (3): ReLU()
      (4): Linear(in_features=60, out_features=80, bias=True)
    )
    (sex_classifier): FullyConnSexClassifier(
      (fc1): Linear(in_features=40, out_features=20, bias=True)
      (fc2): Linear(in_features=20, out_features=2, bias=True)
    )
  )
) loading from model_checkpoints/asr_model.ckpt, the object could not use the parameters loaded with the key: 1.custom_src_module.layers.0.w.bias
2022-04-07 13:41:37,014 - speechbrain.utils.checkpoints - WARNING - During parameter transfer to ModuleList(
  (0): FullyConnectedAutoencoder(
    (encoder): Sequential(
      (0): Linear(in_features=80, out_features=60, bias=True)
      (1): ReLU()
      (2): Linear(in_features=60, out_features=40, bias=True)
      (3): ReLU()
      (4): Linear(in_features=40, out_features=20, bias=True)
    )
    (decoder): Sequential(
      (0): Linear(in_features=20, out_features=40, bias=True)
      (1): ReLU()
      (2): Linear(in_features=40, out_features=60, bias=True)
      (3): ReLU()
      (4): Linear(in_features=60, out_features=80, bias=True)
    )
    (sex_classifier): FullyConnSexClassifier(
      (fc1): Linear(in_features=40, out_features=20, bias=True)
      (fc2): Linear(in_features=20, out_features=2, bias=True)
    )
  )
) loading from model_checkpoints/asr_model.ckpt, the object could not use the parameters loaded with the key: 1.custom_tgt_module.layers.0.emb.Embedding.weight
2022-04-07 13:41:37,014 - speechbrain.utils.checkpoints - WARNING - During parameter transfer to ModuleList(
  (0): FullyConnectedAutoencoder(
    (encoder): Sequential(
      (0): Linear(in_features=80, out_features=60, bias=True)
      (1): ReLU()
      (2): Linear(in_features=60, out_features=40, bias=True)
      (3): ReLU()
      (4): Linear(in_features=40, out_features=20, bias=True)
    )
    (decoder): Sequential(
      (0): Linear(in_features=20, out_features=40, bias=True)
      (1): ReLU()
      (2): Linear(in_features=40, out_features=60, bias=True)
      (3): ReLU()
      (4): Linear(in_features=60, out_features=80, bias=True)
    )
    (sex_classifier): FullyConnSexClassifier(
      (fc1): Linear(in_features=40, out_features=20, bias=True)
      (fc2): Linear(in_features=20, out_features=2, bias=True)
    )
  )
) loading from model_checkpoints/asr_model.ckpt, the object could not use the parameters loaded with the key: 2.w.weight
2022-04-07 13:41:37,014 - speechbrain.utils.checkpoints - WARNING - During parameter transfer to ModuleList(
  (0): FullyConnectedAutoencoder(
    (encoder): Sequential(
      (0): Linear(in_features=80, out_features=60, bias=True)
      (1): ReLU()
      (2): Linear(in_features=60, out_features=40, bias=True)
      (3): ReLU()
      (4): Linear(in_features=40, out_features=20, bias=True)
    )
    (decoder): Sequential(
      (0): Linear(in_features=20, out_features=40, bias=True)
      (1): ReLU()
      (2): Linear(in_features=40, out_features=60, bias=True)
      (3): ReLU()
      (4): Linear(in_features=60, out_features=80, bias=True)
    )
    (sex_classifier): FullyConnSexClassifier(
      (fc1): Linear(in_features=40, out_features=20, bias=True)
      (fc2): Linear(in_features=20, out_features=2, bias=True)
    )
  )
) loading from model_checkpoints/asr_model.ckpt, the object could not use the parameters loaded with the key: 2.w.bias
2022-04-07 13:41:37,014 - speechbrain.utils.checkpoints - WARNING - During parameter transfer to ModuleList(
  (0): FullyConnectedAutoencoder(
    (encoder): Sequential(
      (0): Linear(in_features=80, out_features=60, bias=True)
      (1): ReLU()
      (2): Linear(in_features=60, out_features=40, bias=True)
      (3): ReLU()
      (4): Linear(in_features=40, out_features=20, bias=True)
    )
    (decoder): Sequential(
      (0): Linear(in_features=20, out_features=40, bias=True)
      (1): ReLU()
      (2): Linear(in_features=40, out_features=60, bias=True)
      (3): ReLU()
      (4): Linear(in_features=60, out_features=80, bias=True)
    )
    (sex_classifier): FullyConnSexClassifier(
      (fc1): Linear(in_features=40, out_features=20, bias=True)
      (fc2): Linear(in_features=20, out_features=2, bias=True)
    )
  )
) loading from model_checkpoints/asr_model.ckpt, the object could not use the parameters loaded with the key: 3.w.weight
2022-04-07 13:41:37,014 - speechbrain.utils.checkpoints - WARNING - During parameter transfer to ModuleList(
  (0): FullyConnectedAutoencoder(
    (encoder): Sequential(
      (0): Linear(in_features=80, out_features=60, bias=True)
      (1): ReLU()
      (2): Linear(in_features=60, out_features=40, bias=True)
      (3): ReLU()
      (4): Linear(in_features=40, out_features=20, bias=True)
    )
    (decoder): Sequential(
      (0): Linear(in_features=20, out_features=40, bias=True)
      (1): ReLU()
      (2): Linear(in_features=40, out_features=60, bias=True)
      (3): ReLU()
      (4): Linear(in_features=60, out_features=80, bias=True)
    )
    (sex_classifier): FullyConnSexClassifier(
      (fc1): Linear(in_features=40, out_features=20, bias=True)
      (fc2): Linear(in_features=20, out_features=2, bias=True)
    )
  )
) loading from model_checkpoints/asr_model.ckpt, the object could not use the parameters loaded with the key: 3.w.bias
2022-04-07 13:41:37,015 - speechbrain.utils.checkpoints - WARNING - During parameter transfer to ModuleList(
  (0): FullyConnectedAutoencoder(
    (encoder): Sequential(
      (0): Linear(in_features=80, out_features=60, bias=True)
      (1): ReLU()
      (2): Linear(in_features=60, out_features=40, bias=True)
      (3): ReLU()
      (4): Linear(in_features=40, out_features=20, bias=True)
    )
    (decoder): Sequential(
      (0): Linear(in_features=20, out_features=40, bias=True)
      (1): ReLU()
      (2): Linear(in_features=40, out_features=60, bias=True)
      (3): ReLU()
      (4): Linear(in_features=60, out_features=80, bias=True)
    )
    (sex_classifier): FullyConnSexClassifier(
      (fc1): Linear(in_features=40, out_features=20, bias=True)
      (fc2): Linear(in_features=20, out_features=2, bias=True)
    )
  )
) loading from model_checkpoints/asr_model.ckpt, the object could not use the parameters loaded with the key: 0.convblock_0.convs.conv_0.conv.weight
2022-04-07 13:41:37,015 - speechbrain.utils.checkpoints - WARNING - During parameter transfer to ModuleList(
  (0): FullyConnectedAutoencoder(
    (encoder): Sequential(
      (0): Linear(in_features=80, out_features=60, bias=True)
      (1): ReLU()
      (2): Linear(in_features=60, out_features=40, bias=True)
      (3): ReLU()
      (4): Linear(in_features=40, out_features=20, bias=True)
    )
    (decoder): Sequential(
      (0): Linear(in_features=20, out_features=40, bias=True)
      (1): ReLU()
      (2): Linear(in_features=40, out_features=60, bias=True)
      (3): ReLU()
      (4): Linear(in_features=60, out_features=80, bias=True)
    )
    (sex_classifier): FullyConnSexClassifier(
      (fc1): Linear(in_features=40, out_features=20, bias=True)
      (fc2): Linear(in_features=20, out_features=2, bias=True)
    )
  )
) loading from model_checkpoints/asr_model.ckpt, the object could not use the parameters loaded with the key: 0.convblock_0.convs.conv_0.conv.bias
2022-04-07 13:41:37,015 - speechbrain.utils.checkpoints - WARNING - During parameter transfer to ModuleList(
  (0): FullyConnectedAutoencoder(
    (encoder): Sequential(
      (0): Linear(in_features=80, out_features=60, bias=True)
      (1): ReLU()
      (2): Linear(in_features=60, out_features=40, bias=True)
      (3): ReLU()
      (4): Linear(in_features=40, out_features=20, bias=True)
    )
    (decoder): Sequential(
      (0): Linear(in_features=20, out_features=40, bias=True)
      (1): ReLU()
      (2): Linear(in_features=40, out_features=60, bias=True)
      (3): ReLU()
      (4): Linear(in_features=60, out_features=80, bias=True)
    )
    (sex_classifier): FullyConnSexClassifier(
      (fc1): Linear(in_features=40, out_features=20, bias=True)
      (fc2): Linear(in_features=20, out_features=2, bias=True)
    )
  )
) loading from model_checkpoints/asr_model.ckpt, the object could not use the parameters loaded with the key: 0.convblock_0.convs.norm_0.norm.weight
2022-04-07 13:41:37,015 - speechbrain.utils.checkpoints - WARNING - During parameter transfer to ModuleList(
  (0): FullyConnectedAutoencoder(
    (encoder): Sequential(
      (0): Linear(in_features=80, out_features=60, bias=True)
      (1): ReLU()
      (2): Linear(in_features=60, out_features=40, bias=True)
      (3): ReLU()
      (4): Linear(in_features=40, out_features=20, bias=True)
    )
    (decoder): Sequential(
      (0): Linear(in_features=20, out_features=40, bias=True)
      (1): ReLU()
      (2): Linear(in_features=40, out_features=60, bias=True)
      (3): ReLU()
      (4): Linear(in_features=60, out_features=80, bias=True)
    )
    (sex_classifier): FullyConnSexClassifier(
      (fc1): Linear(in_features=40, out_features=20, bias=True)
      (fc2): Linear(in_features=20, out_features=2, bias=True)
    )
  )
) loading from model_checkpoints/asr_model.ckpt, the object could not use the parameters loaded with the key: 0.convblock_0.convs.norm_0.norm.bias
2022-04-07 13:41:37,015 - speechbrain.utils.checkpoints - WARNING - During parameter transfer to ModuleList(
  (0): FullyConnectedAutoencoder(
    (encoder): Sequential(
      (0): Linear(in_features=80, out_features=60, bias=True)
      (1): ReLU()
      (2): Linear(in_features=60, out_features=40, bias=True)
      (3): ReLU()
      (4): Linear(in_features=40, out_features=20, bias=True)
    )
    (decoder): Sequential(
      (0): Linear(in_features=20, out_features=40, bias=True)
      (1): ReLU()
      (2): Linear(in_features=40, out_features=60, bias=True)
      (3): ReLU()
      (4): Linear(in_features=60, out_features=80, bias=True)
    )
    (sex_classifier): FullyConnSexClassifier(
      (fc1): Linear(in_features=40, out_features=20, bias=True)
      (fc2): Linear(in_features=20, out_features=2, bias=True)
    )
  )
) loading from model_checkpoints/asr_model.ckpt, the object could not use the parameters loaded with the key: 0.convblock_1.convs.conv_0.conv.weight
2022-04-07 13:41:37,015 - speechbrain.utils.checkpoints - WARNING - During parameter transfer to ModuleList(
  (0): FullyConnectedAutoencoder(
    (encoder): Sequential(
      (0): Linear(in_features=80, out_features=60, bias=True)
      (1): ReLU()
      (2): Linear(in_features=60, out_features=40, bias=True)
      (3): ReLU()
      (4): Linear(in_features=40, out_features=20, bias=True)
    )
    (decoder): Sequential(
      (0): Linear(in_features=20, out_features=40, bias=True)
      (1): ReLU()
      (2): Linear(in_features=40, out_features=60, bias=True)
      (3): ReLU()
      (4): Linear(in_features=60, out_features=80, bias=True)
    )
    (sex_classifier): FullyConnSexClassifier(
      (fc1): Linear(in_features=40, out_features=20, bias=True)
      (fc2): Linear(in_features=20, out_features=2, bias=True)
    )
  )
) loading from model_checkpoints/asr_model.ckpt, the object could not use the parameters loaded with the key: 0.convblock_1.convs.conv_0.conv.bias
2022-04-07 13:41:37,015 - speechbrain.utils.checkpoints - WARNING - During parameter transfer to ModuleList(
  (0): FullyConnectedAutoencoder(
    (encoder): Sequential(
      (0): Linear(in_features=80, out_features=60, bias=True)
      (1): ReLU()
      (2): Linear(in_features=60, out_features=40, bias=True)
      (3): ReLU()
      (4): Linear(in_features=40, out_features=20, bias=True)
    )
    (decoder): Sequential(
      (0): Linear(in_features=20, out_features=40, bias=True)
      (1): ReLU()
      (2): Linear(in_features=40, out_features=60, bias=True)
      (3): ReLU()
      (4): Linear(in_features=60, out_features=80, bias=True)
    )
    (sex_classifier): FullyConnSexClassifier(
      (fc1): Linear(in_features=40, out_features=20, bias=True)
      (fc2): Linear(in_features=20, out_features=2, bias=True)
    )
  )
) loading from model_checkpoints/asr_model.ckpt, the object could not use the parameters loaded with the key: 0.convblock_1.convs.norm_0.norm.weight
2022-04-07 13:41:37,016 - speechbrain.utils.checkpoints - WARNING - During parameter transfer to ModuleList(
  (0): FullyConnectedAutoencoder(
    (encoder): Sequential(
      (0): Linear(in_features=80, out_features=60, bias=True)
      (1): ReLU()
      (2): Linear(in_features=60, out_features=40, bias=True)
      (3): ReLU()
      (4): Linear(in_features=40, out_features=20, bias=True)
    )
    (decoder): Sequential(
      (0): Linear(in_features=20, out_features=40, bias=True)
      (1): ReLU()
      (2): Linear(in_features=40, out_features=60, bias=True)
      (3): ReLU()
      (4): Linear(in_features=60, out_features=80, bias=True)
    )
    (sex_classifier): FullyConnSexClassifier(
      (fc1): Linear(in_features=40, out_features=20, bias=True)
      (fc2): Linear(in_features=20, out_features=2, bias=True)
    )
  )
) loading from model_checkpoints/asr_model.ckpt, the object could not use the parameters loaded with the key: 0.convblock_1.convs.norm_0.norm.bias
2022-04-07 13:41:37,016 - speechbrain.utils.checkpoints - WARNING - During parameter transfer to ModuleList(
  (0): FullyConnectedAutoencoder(
    (encoder): Sequential(
      (0): Linear(in_features=80, out_features=60, bias=True)
      (1): ReLU()
      (2): Linear(in_features=60, out_features=40, bias=True)
      (3): ReLU()
      (4): Linear(in_features=40, out_features=20, bias=True)
    )
    (decoder): Sequential(
      (0): Linear(in_features=20, out_features=40, bias=True)
      (1): ReLU()
      (2): Linear(in_features=40, out_features=60, bias=True)
      (3): ReLU()
      (4): Linear(in_features=60, out_features=80, bias=True)
    )
    (sex_classifier): FullyConnSexClassifier(
      (fc1): Linear(in_features=40, out_features=20, bias=True)
      (fc2): Linear(in_features=20, out_features=2, bias=True)
    )
  )
) loading from model_checkpoints/asr_model.ckpt, the object could not use the parameters loaded with the key: 0.convblock_2.convs.conv_0.conv.weight
2022-04-07 13:41:37,016 - speechbrain.utils.checkpoints - WARNING - During parameter transfer to ModuleList(
  (0): FullyConnectedAutoencoder(
    (encoder): Sequential(
      (0): Linear(in_features=80, out_features=60, bias=True)
      (1): ReLU()
      (2): Linear(in_features=60, out_features=40, bias=True)
      (3): ReLU()
      (4): Linear(in_features=40, out_features=20, bias=True)
    )
    (decoder): Sequential(
      (0): Linear(in_features=20, out_features=40, bias=True)
      (1): ReLU()
      (2): Linear(in_features=40, out_features=60, bias=True)
      (3): ReLU()
      (4): Linear(in_features=60, out_features=80, bias=True)
    )
    (sex_classifier): FullyConnSexClassifier(
      (fc1): Linear(in_features=40, out_features=20, bias=True)
      (fc2): Linear(in_features=20, out_features=2, bias=True)
    )
  )
) loading from model_checkpoints/asr_model.ckpt, the object could not use the parameters loaded with the key: 0.convblock_2.convs.conv_0.conv.bias
2022-04-07 13:41:37,016 - speechbrain.utils.checkpoints - WARNING - During parameter transfer to ModuleList(
  (0): FullyConnectedAutoencoder(
    (encoder): Sequential(
      (0): Linear(in_features=80, out_features=60, bias=True)
      (1): ReLU()
      (2): Linear(in_features=60, out_features=40, bias=True)
      (3): ReLU()
      (4): Linear(in_features=40, out_features=20, bias=True)
    )
    (decoder): Sequential(
      (0): Linear(in_features=20, out_features=40, bias=True)
      (1): ReLU()
      (2): Linear(in_features=40, out_features=60, bias=True)
      (3): ReLU()
      (4): Linear(in_features=60, out_features=80, bias=True)
    )
    (sex_classifier): FullyConnSexClassifier(
      (fc1): Linear(in_features=40, out_features=20, bias=True)
      (fc2): Linear(in_features=20, out_features=2, bias=True)
    )
  )
) loading from model_checkpoints/asr_model.ckpt, the object could not use the parameters loaded with the key: 0.convblock_2.convs.norm_0.norm.weight
2022-04-07 13:41:37,016 - speechbrain.utils.checkpoints - WARNING - During parameter transfer to ModuleList(
  (0): FullyConnectedAutoencoder(
    (encoder): Sequential(
      (0): Linear(in_features=80, out_features=60, bias=True)
      (1): ReLU()
      (2): Linear(in_features=60, out_features=40, bias=True)
      (3): ReLU()
      (4): Linear(in_features=40, out_features=20, bias=True)
    )
    (decoder): Sequential(
      (0): Linear(in_features=20, out_features=40, bias=True)
      (1): ReLU()
      (2): Linear(in_features=40, out_features=60, bias=True)
      (3): ReLU()
      (4): Linear(in_features=60, out_features=80, bias=True)
    )
    (sex_classifier): FullyConnSexClassifier(
      (fc1): Linear(in_features=40, out_features=20, bias=True)
      (fc2): Linear(in_features=20, out_features=2, bias=True)
    )
  )
) loading from model_checkpoints/asr_model.ckpt, the object could not use the parameters loaded with the key: 0.convblock_2.convs.norm_0.norm.bias
2022-04-07 13:41:37,016 - speechbrain.utils.checkpoints - WARNING - During parameter transfer to ModuleList(
  (0): FullyConnectedAutoencoder(
    (encoder): Sequential(
      (0): Linear(in_features=80, out_features=60, bias=True)
      (1): ReLU()
      (2): Linear(in_features=60, out_features=40, bias=True)
      (3): ReLU()
      (4): Linear(in_features=40, out_features=20, bias=True)
    )
    (decoder): Sequential(
      (0): Linear(in_features=20, out_features=40, bias=True)
      (1): ReLU()
      (2): Linear(in_features=40, out_features=60, bias=True)
      (3): ReLU()
      (4): Linear(in_features=60, out_features=80, bias=True)
    )
    (sex_classifier): FullyConnSexClassifier(
      (fc1): Linear(in_features=40, out_features=20, bias=True)
      (fc2): Linear(in_features=20, out_features=2, bias=True)
    )
  )
) loading from model_checkpoints/asr_model.ckpt, the object could not use the parameters loaded with the key: 0.convblock_2.reduce_conv.conv.conv.weight
2022-04-07 13:41:37,016 - speechbrain.utils.checkpoints - WARNING - During parameter transfer to ModuleList(
  (0): FullyConnectedAutoencoder(
    (encoder): Sequential(
      (0): Linear(in_features=80, out_features=60, bias=True)
      (1): ReLU()
      (2): Linear(in_features=60, out_features=40, bias=True)
      (3): ReLU()
      (4): Linear(in_features=40, out_features=20, bias=True)
    )
    (decoder): Sequential(
      (0): Linear(in_features=20, out_features=40, bias=True)
      (1): ReLU()
      (2): Linear(in_features=40, out_features=60, bias=True)
      (3): ReLU()
      (4): Linear(in_features=60, out_features=80, bias=True)
    )
    (sex_classifier): FullyConnSexClassifier(
      (fc1): Linear(in_features=40, out_features=20, bias=True)
      (fc2): Linear(in_features=20, out_features=2, bias=True)
    )
  )
) loading from model_checkpoints/asr_model.ckpt, the object could not use the parameters loaded with the key: 0.convblock_2.reduce_conv.conv.conv.bias
2022-04-07 13:41:37,017 - speechbrain.utils.checkpoints - WARNING - During parameter transfer to ModuleList(
  (0): FullyConnectedAutoencoder(
    (encoder): Sequential(
      (0): Linear(in_features=80, out_features=60, bias=True)
      (1): ReLU()
      (2): Linear(in_features=60, out_features=40, bias=True)
      (3): ReLU()
      (4): Linear(in_features=40, out_features=20, bias=True)
    )
    (decoder): Sequential(
      (0): Linear(in_features=20, out_features=40, bias=True)
      (1): ReLU()
      (2): Linear(in_features=40, out_features=60, bias=True)
      (3): ReLU()
      (4): Linear(in_features=60, out_features=80, bias=True)
    )
    (sex_classifier): FullyConnSexClassifier(
      (fc1): Linear(in_features=40, out_features=20, bias=True)
      (fc2): Linear(in_features=20, out_features=2, bias=True)
    )
  )
) loading from model_checkpoints/asr_model.ckpt, the object could not use the parameters loaded with the key: 0.convblock_2.reduce_conv.norm.norm.weight
2022-04-07 13:41:37,017 - speechbrain.utils.checkpoints - WARNING - During parameter transfer to ModuleList(
  (0): FullyConnectedAutoencoder(
    (encoder): Sequential(
      (0): Linear(in_features=80, out_features=60, bias=True)
      (1): ReLU()
      (2): Linear(in_features=60, out_features=40, bias=True)
      (3): ReLU()
      (4): Linear(in_features=40, out_features=20, bias=True)
    )
    (decoder): Sequential(
      (0): Linear(in_features=20, out_features=40, bias=True)
      (1): ReLU()
      (2): Linear(in_features=40, out_features=60, bias=True)
      (3): ReLU()
      (4): Linear(in_features=60, out_features=80, bias=True)
    )
    (sex_classifier): FullyConnSexClassifier(
      (fc1): Linear(in_features=40, out_features=20, bias=True)
      (fc2): Linear(in_features=20, out_features=2, bias=True)
    )
  )
) loading from model_checkpoints/asr_model.ckpt, the object could not use the parameters loaded with the key: 0.convblock_2.reduce_conv.norm.norm.bias
2022-04-07 13:41:37,032 - speechbrain.dataio.encoder - DEBUG - Would load categorical encoding from model_checkpoints/label_encoder.ckpt, but file doesn't exist yet.
2022-04-07 13:41:37,032 - speechbrain.core - INFO - Info: ckpt_interval_minutes arg from hparam file is used
…
