…
2022-03-31 04:31:27,984 - speechbrain.pretrained.fetching - INFO - Fetch asr.ckpt: Using existing file/symlink in model_checkpoints/asr_model.ckpt.
2022-03-31 04:31:27,984 - speechbrain.pretrained.fetching - INFO - Fetch normalizer.ckpt: Using existing file/symlink in model_checkpoints/normalize.ckpt.
2022-03-31 04:31:27,984 - speechbrain.utils.parameter_transfer - INFO - Loading pretrained files for: lm, tokenizer, asr_model, normalize
2022-03-31 04:31:28,657 - speechbrain.utils.checkpoints - WARNING - During parameter transfer to ModuleList(
  (0): ConvAutoencoder(
    (encoder): Sequential(
      (0): Conv1d(1, 32, kernel_size=(15,), stride=(1,), padding=(7,))
      (1): GLU()
      (2): Conv1d(32, 64, kernel_size=(5,), stride=(2,), padding=(2,))
      (3): InstanceNorm1d(64, eps=1e-05, momentum=0.1, affine=True, track_running_stats=False)
      (4): GLU()
      (5): Conv1d(64, 128, kernel_size=(5,), stride=(2,), padding=(2,))
      (6): InstanceNorm1d(128, eps=1e-05, momentum=0.1, affine=True, track_running_stats=False)
      (7): GLU()
    )
    (decoder): Sequential(
      (0): Conv1d(128, 128, kernel_size=(5,), stride=(1,), padding=(2,))
      (1): ConvTranspose1d(128, 64, kernel_size=(5,), stride=(2,), padding=(2,), output_padding=(1,))
      (2): InstanceNorm1d(64, eps=1e-05, momentum=0.1, affine=True, track_running_stats=False)
      (3): GLU()
      (4): Conv1d(64, 64, kernel_size=(5,), stride=(1,), padding=(2,))
      (5): ConvTranspose1d(64, 32, kernel_size=(5,), stride=(2,), padding=(2,), output_padding=(1,))
      (6): InstanceNorm1d(32, eps=1e-05, momentum=0.1, affine=True, track_running_stats=False)
      (7): GLU()
      (8): Conv1d(32, 1, kernel_size=(15,), stride=(1,), padding=(7,))
    )
    (sex_classifier): SexClassifier(
      (fc1): Linear(in_features=256, out_features=128, bias=True)
      (fc2): Linear(in_features=128, out_features=2, bias=True)
    )
  )
) loading from model_checkpoints/asr_model.ckpt, the transferred parameters did not have parameters for the key: 0.encoder.0.weight
2022-03-31 04:31:28,658 - speechbrain.utils.checkpoints - WARNING - During parameter transfer to ModuleList(
  (0): ConvAutoencoder(
    (encoder): Sequential(
      (0): Conv1d(1, 32, kernel_size=(15,), stride=(1,), padding=(7,))
      (1): GLU()
      (2): Conv1d(32, 64, kernel_size=(5,), stride=(2,), padding=(2,))
      (3): InstanceNorm1d(64, eps=1e-05, momentum=0.1, affine=True, track_running_stats=False)
      (4): GLU()
      (5): Conv1d(64, 128, kernel_size=(5,), stride=(2,), padding=(2,))
      (6): InstanceNorm1d(128, eps=1e-05, momentum=0.1, affine=True, track_running_stats=False)
      (7): GLU()
    )
    (decoder): Sequential(
      (0): Conv1d(128, 128, kernel_size=(5,), stride=(1,), padding=(2,))
      (1): ConvTranspose1d(128, 64, kernel_size=(5,), stride=(2,), padding=(2,), output_padding=(1,))
      (2): InstanceNorm1d(64, eps=1e-05, momentum=0.1, affine=True, track_running_stats=False)
      (3): GLU()
      (4): Conv1d(64, 64, kernel_size=(5,), stride=(1,), padding=(2,))
      (5): ConvTranspose1d(64, 32, kernel_size=(5,), stride=(2,), padding=(2,), output_padding=(1,))
      (6): InstanceNorm1d(32, eps=1e-05, momentum=0.1, affine=True, track_running_stats=False)
      (7): GLU()
      (8): Conv1d(32, 1, kernel_size=(15,), stride=(1,), padding=(7,))
    )
    (sex_classifier): SexClassifier(
      (fc1): Linear(in_features=256, out_features=128, bias=True)
      (fc2): Linear(in_features=128, out_features=2, bias=True)
    )
  )
) loading from model_checkpoints/asr_model.ckpt, the transferred parameters did not have parameters for the key: 0.encoder.0.bias
2022-03-31 04:31:28,658 - speechbrain.utils.checkpoints - WARNING - During parameter transfer to ModuleList(
  (0): ConvAutoencoder(
    (encoder): Sequential(
      (0): Conv1d(1, 32, kernel_size=(15,), stride=(1,), padding=(7,))
      (1): GLU()
      (2): Conv1d(32, 64, kernel_size=(5,), stride=(2,), padding=(2,))
      (3): InstanceNorm1d(64, eps=1e-05, momentum=0.1, affine=True, track_running_stats=False)
      (4): GLU()
      (5): Conv1d(64, 128, kernel_size=(5,), stride=(2,), padding=(2,))
      (6): InstanceNorm1d(128, eps=1e-05, momentum=0.1, affine=True, track_running_stats=False)
      (7): GLU()
    )
    (decoder): Sequential(
      (0): Conv1d(128, 128, kernel_size=(5,), stride=(1,), padding=(2,))
      (1): ConvTranspose1d(128, 64, kernel_size=(5,), stride=(2,), padding=(2,), output_padding=(1,))
      (2): InstanceNorm1d(64, eps=1e-05, momentum=0.1, affine=True, track_running_stats=False)
      (3): GLU()
      (4): Conv1d(64, 64, kernel_size=(5,), stride=(1,), padding=(2,))
      (5): ConvTranspose1d(64, 32, kernel_size=(5,), stride=(2,), padding=(2,), output_padding=(1,))
      (6): InstanceNorm1d(32, eps=1e-05, momentum=0.1, affine=True, track_running_stats=False)
      (7): GLU()
      (8): Conv1d(32, 1, kernel_size=(15,), stride=(1,), padding=(7,))
    )
    (sex_classifier): SexClassifier(
      (fc1): Linear(in_features=256, out_features=128, bias=True)
      (fc2): Linear(in_features=128, out_features=2, bias=True)
    )
  )
) loading from model_checkpoints/asr_model.ckpt, the transferred parameters did not have parameters for the key: 0.encoder.2.weight
2022-03-31 04:31:28,658 - speechbrain.utils.checkpoints - WARNING - During parameter transfer to ModuleList(
  (0): ConvAutoencoder(
    (encoder): Sequential(
      (0): Conv1d(1, 32, kernel_size=(15,), stride=(1,), padding=(7,))
      (1): GLU()
      (2): Conv1d(32, 64, kernel_size=(5,), stride=(2,), padding=(2,))
      (3): InstanceNorm1d(64, eps=1e-05, momentum=0.1, affine=True, track_running_stats=False)
      (4): GLU()
      (5): Conv1d(64, 128, kernel_size=(5,), stride=(2,), padding=(2,))
      (6): InstanceNorm1d(128, eps=1e-05, momentum=0.1, affine=True, track_running_stats=False)
      (7): GLU()
    )
    (decoder): Sequential(
      (0): Conv1d(128, 128, kernel_size=(5,), stride=(1,), padding=(2,))
      (1): ConvTranspose1d(128, 64, kernel_size=(5,), stride=(2,), padding=(2,), output_padding=(1,))
      (2): InstanceNorm1d(64, eps=1e-05, momentum=0.1, affine=True, track_running_stats=False)
      (3): GLU()
      (4): Conv1d(64, 64, kernel_size=(5,), stride=(1,), padding=(2,))
      (5): ConvTranspose1d(64, 32, kernel_size=(5,), stride=(2,), padding=(2,), output_padding=(1,))
      (6): InstanceNorm1d(32, eps=1e-05, momentum=0.1, affine=True, track_running_stats=False)
      (7): GLU()
      (8): Conv1d(32, 1, kernel_size=(15,), stride=(1,), padding=(7,))
    )
    (sex_classifier): SexClassifier(
      (fc1): Linear(in_features=256, out_features=128, bias=True)
      (fc2): Linear(in_features=128, out_features=2, bias=True)
    )
  )
) loading from model_checkpoints/asr_model.ckpt, the transferred parameters did not have parameters for the key: 0.encoder.2.bias
2022-03-31 04:31:28,659 - speechbrain.utils.checkpoints - WARNING - During parameter transfer to ModuleList(
  (0): ConvAutoencoder(
    (encoder): Sequential(
      (0): Conv1d(1, 32, kernel_size=(15,), stride=(1,), padding=(7,))
      (1): GLU()
      (2): Conv1d(32, 64, kernel_size=(5,), stride=(2,), padding=(2,))
      (3): InstanceNorm1d(64, eps=1e-05, momentum=0.1, affine=True, track_running_stats=False)
      (4): GLU()
      (5): Conv1d(64, 128, kernel_size=(5,), stride=(2,), padding=(2,))
      (6): InstanceNorm1d(128, eps=1e-05, momentum=0.1, affine=True, track_running_stats=False)
      (7): GLU()
    )
    (decoder): Sequential(
      (0): Conv1d(128, 128, kernel_size=(5,), stride=(1,), padding=(2,))
      (1): ConvTranspose1d(128, 64, kernel_size=(5,), stride=(2,), padding=(2,), output_padding=(1,))
      (2): InstanceNorm1d(64, eps=1e-05, momentum=0.1, affine=True, track_running_stats=False)
      (3): GLU()
      (4): Conv1d(64, 64, kernel_size=(5,), stride=(1,), padding=(2,))
      (5): ConvTranspose1d(64, 32, kernel_size=(5,), stride=(2,), padding=(2,), output_padding=(1,))
      (6): InstanceNorm1d(32, eps=1e-05, momentum=0.1, affine=True, track_running_stats=False)
      (7): GLU()
      (8): Conv1d(32, 1, kernel_size=(15,), stride=(1,), padding=(7,))
    )
    (sex_classifier): SexClassifier(
      (fc1): Linear(in_features=256, out_features=128, bias=True)
      (fc2): Linear(in_features=128, out_features=2, bias=True)
    )
  )
) loading from model_checkpoints/asr_model.ckpt, the transferred parameters did not have parameters for the key: 0.encoder.3.weight
2022-03-31 04:31:28,659 - speechbrain.utils.checkpoints - WARNING - During parameter transfer to ModuleList(
  (0): ConvAutoencoder(
    (encoder): Sequential(
      (0): Conv1d(1, 32, kernel_size=(15,), stride=(1,), padding=(7,))
      (1): GLU()
      (2): Conv1d(32, 64, kernel_size=(5,), stride=(2,), padding=(2,))
      (3): InstanceNorm1d(64, eps=1e-05, momentum=0.1, affine=True, track_running_stats=False)
      (4): GLU()
      (5): Conv1d(64, 128, kernel_size=(5,), stride=(2,), padding=(2,))
      (6): InstanceNorm1d(128, eps=1e-05, momentum=0.1, affine=True, track_running_stats=False)
      (7): GLU()
    )
    (decoder): Sequential(
      (0): Conv1d(128, 128, kernel_size=(5,), stride=(1,), padding=(2,))
      (1): ConvTranspose1d(128, 64, kernel_size=(5,), stride=(2,), padding=(2,), output_padding=(1,))
      (2): InstanceNorm1d(64, eps=1e-05, momentum=0.1, affine=True, track_running_stats=False)
      (3): GLU()
      (4): Conv1d(64, 64, kernel_size=(5,), stride=(1,), padding=(2,))
      (5): ConvTranspose1d(64, 32, kernel_size=(5,), stride=(2,), padding=(2,), output_padding=(1,))
      (6): InstanceNorm1d(32, eps=1e-05, momentum=0.1, affine=True, track_running_stats=False)
      (7): GLU()
      (8): Conv1d(32, 1, kernel_size=(15,), stride=(1,), padding=(7,))
    )
    (sex_classifier): SexClassifier(
      (fc1): Linear(in_features=256, out_features=128, bias=True)
      (fc2): Linear(in_features=128, out_features=2, bias=True)
    )
  )
) loading from model_checkpoints/asr_model.ckpt, the transferred parameters did not have parameters for the key: 0.encoder.3.bias
2022-03-31 04:31:28,659 - speechbrain.utils.checkpoints - WARNING - During parameter transfer to ModuleList(
  (0): ConvAutoencoder(
    (encoder): Sequential(
      (0): Conv1d(1, 32, kernel_size=(15,), stride=(1,), padding=(7,))
      (1): GLU()
      (2): Conv1d(32, 64, kernel_size=(5,), stride=(2,), padding=(2,))
      (3): InstanceNorm1d(64, eps=1e-05, momentum=0.1, affine=True, track_running_stats=False)
      (4): GLU()
      (5): Conv1d(64, 128, kernel_size=(5,), stride=(2,), padding=(2,))
      (6): InstanceNorm1d(128, eps=1e-05, momentum=0.1, affine=True, track_running_stats=False)
      (7): GLU()
    )
    (decoder): Sequential(
      (0): Conv1d(128, 128, kernel_size=(5,), stride=(1,), padding=(2,))
      (1): ConvTranspose1d(128, 64, kernel_size=(5,), stride=(2,), padding=(2,), output_padding=(1,))
      (2): InstanceNorm1d(64, eps=1e-05, momentum=0.1, affine=True, track_running_stats=False)
      (3): GLU()
      (4): Conv1d(64, 64, kernel_size=(5,), stride=(1,), padding=(2,))
      (5): ConvTranspose1d(64, 32, kernel_size=(5,), stride=(2,), padding=(2,), output_padding=(1,))
      (6): InstanceNorm1d(32, eps=1e-05, momentum=0.1, affine=True, track_running_stats=False)
      (7): GLU()
      (8): Conv1d(32, 1, kernel_size=(15,), stride=(1,), padding=(7,))
    )
    (sex_classifier): SexClassifier(
      (fc1): Linear(in_features=256, out_features=128, bias=True)
      (fc2): Linear(in_features=128, out_features=2, bias=True)
    )
  )
) loading from model_checkpoints/asr_model.ckpt, the transferred parameters did not have parameters for the key: 0.encoder.5.weight
2022-03-31 04:31:28,659 - speechbrain.utils.checkpoints - WARNING - During parameter transfer to ModuleList(
  (0): ConvAutoencoder(
    (encoder): Sequential(
      (0): Conv1d(1, 32, kernel_size=(15,), stride=(1,), padding=(7,))
      (1): GLU()
      (2): Conv1d(32, 64, kernel_size=(5,), stride=(2,), padding=(2,))
      (3): InstanceNorm1d(64, eps=1e-05, momentum=0.1, affine=True, track_running_stats=False)
      (4): GLU()
      (5): Conv1d(64, 128, kernel_size=(5,), stride=(2,), padding=(2,))
      (6): InstanceNorm1d(128, eps=1e-05, momentum=0.1, affine=True, track_running_stats=False)
      (7): GLU()
    )
    (decoder): Sequential(
      (0): Conv1d(128, 128, kernel_size=(5,), stride=(1,), padding=(2,))
      (1): ConvTranspose1d(128, 64, kernel_size=(5,), stride=(2,), padding=(2,), output_padding=(1,))
      (2): InstanceNorm1d(64, eps=1e-05, momentum=0.1, affine=True, track_running_stats=False)
      (3): GLU()
      (4): Conv1d(64, 64, kernel_size=(5,), stride=(1,), padding=(2,))
      (5): ConvTranspose1d(64, 32, kernel_size=(5,), stride=(2,), padding=(2,), output_padding=(1,))
      (6): InstanceNorm1d(32, eps=1e-05, momentum=0.1, affine=True, track_running_stats=False)
      (7): GLU()
      (8): Conv1d(32, 1, kernel_size=(15,), stride=(1,), padding=(7,))
    )
    (sex_classifier): SexClassifier(
      (fc1): Linear(in_features=256, out_features=128, bias=True)
      (fc2): Linear(in_features=128, out_features=2, bias=True)
    )
  )
) loading from model_checkpoints/asr_model.ckpt, the transferred parameters did not have parameters for the key: 0.encoder.5.bias
2022-03-31 04:31:28,660 - speechbrain.utils.checkpoints - WARNING - During parameter transfer to ModuleList(
  (0): ConvAutoencoder(
    (encoder): Sequential(
      (0): Conv1d(1, 32, kernel_size=(15,), stride=(1,), padding=(7,))
      (1): GLU()
      (2): Conv1d(32, 64, kernel_size=(5,), stride=(2,), padding=(2,))
      (3): InstanceNorm1d(64, eps=1e-05, momentum=0.1, affine=True, track_running_stats=False)
      (4): GLU()
      (5): Conv1d(64, 128, kernel_size=(5,), stride=(2,), padding=(2,))
      (6): InstanceNorm1d(128, eps=1e-05, momentum=0.1, affine=True, track_running_stats=False)
      (7): GLU()
    )
    (decoder): Sequential(
      (0): Conv1d(128, 128, kernel_size=(5,), stride=(1,), padding=(2,))
      (1): ConvTranspose1d(128, 64, kernel_size=(5,), stride=(2,), padding=(2,), output_padding=(1,))
      (2): InstanceNorm1d(64, eps=1e-05, momentum=0.1, affine=True, track_running_stats=False)
      (3): GLU()
      (4): Conv1d(64, 64, kernel_size=(5,), stride=(1,), padding=(2,))
      (5): ConvTranspose1d(64, 32, kernel_size=(5,), stride=(2,), padding=(2,), output_padding=(1,))
      (6): InstanceNorm1d(32, eps=1e-05, momentum=0.1, affine=True, track_running_stats=False)
      (7): GLU()
      (8): Conv1d(32, 1, kernel_size=(15,), stride=(1,), padding=(7,))
    )
    (sex_classifier): SexClassifier(
      (fc1): Linear(in_features=256, out_features=128, bias=True)
      (fc2): Linear(in_features=128, out_features=2, bias=True)
    )
  )
) loading from model_checkpoints/asr_model.ckpt, the transferred parameters did not have parameters for the key: 0.encoder.6.weight
2022-03-31 04:31:28,660 - speechbrain.utils.checkpoints - WARNING - During parameter transfer to ModuleList(
  (0): ConvAutoencoder(
    (encoder): Sequential(
      (0): Conv1d(1, 32, kernel_size=(15,), stride=(1,), padding=(7,))
      (1): GLU()
      (2): Conv1d(32, 64, kernel_size=(5,), stride=(2,), padding=(2,))
      (3): InstanceNorm1d(64, eps=1e-05, momentum=0.1, affine=True, track_running_stats=False)
      (4): GLU()
      (5): Conv1d(64, 128, kernel_size=(5,), stride=(2,), padding=(2,))
      (6): InstanceNorm1d(128, eps=1e-05, momentum=0.1, affine=True, track_running_stats=False)
      (7): GLU()
    )
    (decoder): Sequential(
      (0): Conv1d(128, 128, kernel_size=(5,), stride=(1,), padding=(2,))
      (1): ConvTranspose1d(128, 64, kernel_size=(5,), stride=(2,), padding=(2,), output_padding=(1,))
      (2): InstanceNorm1d(64, eps=1e-05, momentum=0.1, affine=True, track_running_stats=False)
      (3): GLU()
      (4): Conv1d(64, 64, kernel_size=(5,), stride=(1,), padding=(2,))
      (5): ConvTranspose1d(64, 32, kernel_size=(5,), stride=(2,), padding=(2,), output_padding=(1,))
      (6): InstanceNorm1d(32, eps=1e-05, momentum=0.1, affine=True, track_running_stats=False)
      (7): GLU()
      (8): Conv1d(32, 1, kernel_size=(15,), stride=(1,), padding=(7,))
    )
    (sex_classifier): SexClassifier(
      (fc1): Linear(in_features=256, out_features=128, bias=True)
      (fc2): Linear(in_features=128, out_features=2, bias=True)
    )
  )
) loading from model_checkpoints/asr_model.ckpt, the transferred parameters did not have parameters for the key: 0.encoder.6.bias
2022-03-31 04:31:28,660 - speechbrain.utils.checkpoints - WARNING - During parameter transfer to ModuleList(
  (0): ConvAutoencoder(
    (encoder): Sequential(
      (0): Conv1d(1, 32, kernel_size=(15,), stride=(1,), padding=(7,))
      (1): GLU()
      (2): Conv1d(32, 64, kernel_size=(5,), stride=(2,), padding=(2,))
      (3): InstanceNorm1d(64, eps=1e-05, momentum=0.1, affine=True, track_running_stats=False)
      (4): GLU()
      (5): Conv1d(64, 128, kernel_size=(5,), stride=(2,), padding=(2,))
      (6): InstanceNorm1d(128, eps=1e-05, momentum=0.1, affine=True, track_running_stats=False)
      (7): GLU()
    )
    (decoder): Sequential(
      (0): Conv1d(128, 128, kernel_size=(5,), stride=(1,), padding=(2,))
      (1): ConvTranspose1d(128, 64, kernel_size=(5,), stride=(2,), padding=(2,), output_padding=(1,))
      (2): InstanceNorm1d(64, eps=1e-05, momentum=0.1, affine=True, track_running_stats=False)
      (3): GLU()
      (4): Conv1d(64, 64, kernel_size=(5,), stride=(1,), padding=(2,))
      (5): ConvTranspose1d(64, 32, kernel_size=(5,), stride=(2,), padding=(2,), output_padding=(1,))
      (6): InstanceNorm1d(32, eps=1e-05, momentum=0.1, affine=True, track_running_stats=False)
      (7): GLU()
      (8): Conv1d(32, 1, kernel_size=(15,), stride=(1,), padding=(7,))
    )
    (sex_classifier): SexClassifier(
      (fc1): Linear(in_features=256, out_features=128, bias=True)
      (fc2): Linear(in_features=128, out_features=2, bias=True)
    )
  )
) loading from model_checkpoints/asr_model.ckpt, the transferred parameters did not have parameters for the key: 0.decoder.0.weight
2022-03-31 04:31:28,660 - speechbrain.utils.checkpoints - WARNING - During parameter transfer to ModuleList(
  (0): ConvAutoencoder(
    (encoder): Sequential(
      (0): Conv1d(1, 32, kernel_size=(15,), stride=(1,), padding=(7,))
      (1): GLU()
      (2): Conv1d(32, 64, kernel_size=(5,), stride=(2,), padding=(2,))
      (3): InstanceNorm1d(64, eps=1e-05, momentum=0.1, affine=True, track_running_stats=False)
      (4): GLU()
      (5): Conv1d(64, 128, kernel_size=(5,), stride=(2,), padding=(2,))
      (6): InstanceNorm1d(128, eps=1e-05, momentum=0.1, affine=True, track_running_stats=False)
      (7): GLU()
    )
    (decoder): Sequential(
      (0): Conv1d(128, 128, kernel_size=(5,), stride=(1,), padding=(2,))
      (1): ConvTranspose1d(128, 64, kernel_size=(5,), stride=(2,), padding=(2,), output_padding=(1,))
      (2): InstanceNorm1d(64, eps=1e-05, momentum=0.1, affine=True, track_running_stats=False)
      (3): GLU()
      (4): Conv1d(64, 64, kernel_size=(5,), stride=(1,), padding=(2,))
      (5): ConvTranspose1d(64, 32, kernel_size=(5,), stride=(2,), padding=(2,), output_padding=(1,))
      (6): InstanceNorm1d(32, eps=1e-05, momentum=0.1, affine=True, track_running_stats=False)
      (7): GLU()
      (8): Conv1d(32, 1, kernel_size=(15,), stride=(1,), padding=(7,))
    )
    (sex_classifier): SexClassifier(
      (fc1): Linear(in_features=256, out_features=128, bias=True)
      (fc2): Linear(in_features=128, out_features=2, bias=True)
    )
  )
) loading from model_checkpoints/asr_model.ckpt, the transferred parameters did not have parameters for the key: 0.decoder.0.bias
2022-03-31 04:31:28,660 - speechbrain.utils.checkpoints - WARNING - During parameter transfer to ModuleList(
  (0): ConvAutoencoder(
    (encoder): Sequential(
      (0): Conv1d(1, 32, kernel_size=(15,), stride=(1,), padding=(7,))
      (1): GLU()
      (2): Conv1d(32, 64, kernel_size=(5,), stride=(2,), padding=(2,))
      (3): InstanceNorm1d(64, eps=1e-05, momentum=0.1, affine=True, track_running_stats=False)
      (4): GLU()
      (5): Conv1d(64, 128, kernel_size=(5,), stride=(2,), padding=(2,))
      (6): InstanceNorm1d(128, eps=1e-05, momentum=0.1, affine=True, track_running_stats=False)
      (7): GLU()
    )
    (decoder): Sequential(
      (0): Conv1d(128, 128, kernel_size=(5,), stride=(1,), padding=(2,))
      (1): ConvTranspose1d(128, 64, kernel_size=(5,), stride=(2,), padding=(2,), output_padding=(1,))
      (2): InstanceNorm1d(64, eps=1e-05, momentum=0.1, affine=True, track_running_stats=False)
      (3): GLU()
      (4): Conv1d(64, 64, kernel_size=(5,), stride=(1,), padding=(2,))
      (5): ConvTranspose1d(64, 32, kernel_size=(5,), stride=(2,), padding=(2,), output_padding=(1,))
      (6): InstanceNorm1d(32, eps=1e-05, momentum=0.1, affine=True, track_running_stats=False)
      (7): GLU()
      (8): Conv1d(32, 1, kernel_size=(15,), stride=(1,), padding=(7,))
    )
    (sex_classifier): SexClassifier(
      (fc1): Linear(in_features=256, out_features=128, bias=True)
      (fc2): Linear(in_features=128, out_features=2, bias=True)
    )
  )
) loading from model_checkpoints/asr_model.ckpt, the transferred parameters did not have parameters for the key: 0.decoder.1.weight
2022-03-31 04:31:28,661 - speechbrain.utils.checkpoints - WARNING - During parameter transfer to ModuleList(
  (0): ConvAutoencoder(
    (encoder): Sequential(
      (0): Conv1d(1, 32, kernel_size=(15,), stride=(1,), padding=(7,))
      (1): GLU()
      (2): Conv1d(32, 64, kernel_size=(5,), stride=(2,), padding=(2,))
      (3): InstanceNorm1d(64, eps=1e-05, momentum=0.1, affine=True, track_running_stats=False)
      (4): GLU()
      (5): Conv1d(64, 128, kernel_size=(5,), stride=(2,), padding=(2,))
      (6): InstanceNorm1d(128, eps=1e-05, momentum=0.1, affine=True, track_running_stats=False)
      (7): GLU()
    )
    (decoder): Sequential(
      (0): Conv1d(128, 128, kernel_size=(5,), stride=(1,), padding=(2,))
      (1): ConvTranspose1d(128, 64, kernel_size=(5,), stride=(2,), padding=(2,), output_padding=(1,))
      (2): InstanceNorm1d(64, eps=1e-05, momentum=0.1, affine=True, track_running_stats=False)
      (3): GLU()
      (4): Conv1d(64, 64, kernel_size=(5,), stride=(1,), padding=(2,))
      (5): ConvTranspose1d(64, 32, kernel_size=(5,), stride=(2,), padding=(2,), output_padding=(1,))
      (6): InstanceNorm1d(32, eps=1e-05, momentum=0.1, affine=True, track_running_stats=False)
      (7): GLU()
      (8): Conv1d(32, 1, kernel_size=(15,), stride=(1,), padding=(7,))
    )
    (sex_classifier): SexClassifier(
      (fc1): Linear(in_features=256, out_features=128, bias=True)
      (fc2): Linear(in_features=128, out_features=2, bias=True)
    )
  )
) loading from model_checkpoints/asr_model.ckpt, the transferred parameters did not have parameters for the key: 0.decoder.1.bias
2022-03-31 04:31:28,661 - speechbrain.utils.checkpoints - WARNING - During parameter transfer to ModuleList(
  (0): ConvAutoencoder(
    (encoder): Sequential(
      (0): Conv1d(1, 32, kernel_size=(15,), stride=(1,), padding=(7,))
      (1): GLU()
      (2): Conv1d(32, 64, kernel_size=(5,), stride=(2,), padding=(2,))
      (3): InstanceNorm1d(64, eps=1e-05, momentum=0.1, affine=True, track_running_stats=False)
      (4): GLU()
      (5): Conv1d(64, 128, kernel_size=(5,), stride=(2,), padding=(2,))
      (6): InstanceNorm1d(128, eps=1e-05, momentum=0.1, affine=True, track_running_stats=False)
      (7): GLU()
    )
    (decoder): Sequential(
      (0): Conv1d(128, 128, kernel_size=(5,), stride=(1,), padding=(2,))
      (1): ConvTranspose1d(128, 64, kernel_size=(5,), stride=(2,), padding=(2,), output_padding=(1,))
      (2): InstanceNorm1d(64, eps=1e-05, momentum=0.1, affine=True, track_running_stats=False)
      (3): GLU()
      (4): Conv1d(64, 64, kernel_size=(5,), stride=(1,), padding=(2,))
      (5): ConvTranspose1d(64, 32, kernel_size=(5,), stride=(2,), padding=(2,), output_padding=(1,))
      (6): InstanceNorm1d(32, eps=1e-05, momentum=0.1, affine=True, track_running_stats=False)
      (7): GLU()
      (8): Conv1d(32, 1, kernel_size=(15,), stride=(1,), padding=(7,))
    )
    (sex_classifier): SexClassifier(
      (fc1): Linear(in_features=256, out_features=128, bias=True)
      (fc2): Linear(in_features=128, out_features=2, bias=True)
    )
  )
) loading from model_checkpoints/asr_model.ckpt, the transferred parameters did not have parameters for the key: 0.decoder.2.weight
2022-03-31 04:31:28,661 - speechbrain.utils.checkpoints - WARNING - During parameter transfer to ModuleList(
  (0): ConvAutoencoder(
    (encoder): Sequential(
      (0): Conv1d(1, 32, kernel_size=(15,), stride=(1,), padding=(7,))
      (1): GLU()
      (2): Conv1d(32, 64, kernel_size=(5,), stride=(2,), padding=(2,))
      (3): InstanceNorm1d(64, eps=1e-05, momentum=0.1, affine=True, track_running_stats=False)
      (4): GLU()
      (5): Conv1d(64, 128, kernel_size=(5,), stride=(2,), padding=(2,))
      (6): InstanceNorm1d(128, eps=1e-05, momentum=0.1, affine=True, track_running_stats=False)
      (7): GLU()
    )
    (decoder): Sequential(
      (0): Conv1d(128, 128, kernel_size=(5,), stride=(1,), padding=(2,))
      (1): ConvTranspose1d(128, 64, kernel_size=(5,), stride=(2,), padding=(2,), output_padding=(1,))
      (2): InstanceNorm1d(64, eps=1e-05, momentum=0.1, affine=True, track_running_stats=False)
      (3): GLU()
      (4): Conv1d(64, 64, kernel_size=(5,), stride=(1,), padding=(2,))
      (5): ConvTranspose1d(64, 32, kernel_size=(5,), stride=(2,), padding=(2,), output_padding=(1,))
      (6): InstanceNorm1d(32, eps=1e-05, momentum=0.1, affine=True, track_running_stats=False)
      (7): GLU()
      (8): Conv1d(32, 1, kernel_size=(15,), stride=(1,), padding=(7,))
    )
    (sex_classifier): SexClassifier(
      (fc1): Linear(in_features=256, out_features=128, bias=True)
      (fc2): Linear(in_features=128, out_features=2, bias=True)
    )
  )
) loading from model_checkpoints/asr_model.ckpt, the transferred parameters did not have parameters for the key: 0.decoder.2.bias
2022-03-31 04:31:28,661 - speechbrain.utils.checkpoints - WARNING - During parameter transfer to ModuleList(
  (0): ConvAutoencoder(
    (encoder): Sequential(
      (0): Conv1d(1, 32, kernel_size=(15,), stride=(1,), padding=(7,))
      (1): GLU()
      (2): Conv1d(32, 64, kernel_size=(5,), stride=(2,), padding=(2,))
      (3): InstanceNorm1d(64, eps=1e-05, momentum=0.1, affine=True, track_running_stats=False)
      (4): GLU()
      (5): Conv1d(64, 128, kernel_size=(5,), stride=(2,), padding=(2,))
      (6): InstanceNorm1d(128, eps=1e-05, momentum=0.1, affine=True, track_running_stats=False)
      (7): GLU()
    )
    (decoder): Sequential(
      (0): Conv1d(128, 128, kernel_size=(5,), stride=(1,), padding=(2,))
      (1): ConvTranspose1d(128, 64, kernel_size=(5,), stride=(2,), padding=(2,), output_padding=(1,))
      (2): InstanceNorm1d(64, eps=1e-05, momentum=0.1, affine=True, track_running_stats=False)
      (3): GLU()
      (4): Conv1d(64, 64, kernel_size=(5,), stride=(1,), padding=(2,))
      (5): ConvTranspose1d(64, 32, kernel_size=(5,), stride=(2,), padding=(2,), output_padding=(1,))
      (6): InstanceNorm1d(32, eps=1e-05, momentum=0.1, affine=True, track_running_stats=False)
      (7): GLU()
      (8): Conv1d(32, 1, kernel_size=(15,), stride=(1,), padding=(7,))
    )
    (sex_classifier): SexClassifier(
      (fc1): Linear(in_features=256, out_features=128, bias=True)
      (fc2): Linear(in_features=128, out_features=2, bias=True)
    )
  )
) loading from model_checkpoints/asr_model.ckpt, the transferred parameters did not have parameters for the key: 0.decoder.4.weight
2022-03-31 04:31:28,662 - speechbrain.utils.checkpoints - WARNING - During parameter transfer to ModuleList(
  (0): ConvAutoencoder(
    (encoder): Sequential(
      (0): Conv1d(1, 32, kernel_size=(15,), stride=(1,), padding=(7,))
      (1): GLU()
      (2): Conv1d(32, 64, kernel_size=(5,), stride=(2,), padding=(2,))
      (3): InstanceNorm1d(64, eps=1e-05, momentum=0.1, affine=True, track_running_stats=False)
      (4): GLU()
      (5): Conv1d(64, 128, kernel_size=(5,), stride=(2,), padding=(2,))
      (6): InstanceNorm1d(128, eps=1e-05, momentum=0.1, affine=True, track_running_stats=False)
      (7): GLU()
    )
    (decoder): Sequential(
      (0): Conv1d(128, 128, kernel_size=(5,), stride=(1,), padding=(2,))
      (1): ConvTranspose1d(128, 64, kernel_size=(5,), stride=(2,), padding=(2,), output_padding=(1,))
      (2): InstanceNorm1d(64, eps=1e-05, momentum=0.1, affine=True, track_running_stats=False)
      (3): GLU()
      (4): Conv1d(64, 64, kernel_size=(5,), stride=(1,), padding=(2,))
      (5): ConvTranspose1d(64, 32, kernel_size=(5,), stride=(2,), padding=(2,), output_padding=(1,))
      (6): InstanceNorm1d(32, eps=1e-05, momentum=0.1, affine=True, track_running_stats=False)
      (7): GLU()
      (8): Conv1d(32, 1, kernel_size=(15,), stride=(1,), padding=(7,))
    )
    (sex_classifier): SexClassifier(
      (fc1): Linear(in_features=256, out_features=128, bias=True)
      (fc2): Linear(in_features=128, out_features=2, bias=True)
    )
  )
) loading from model_checkpoints/asr_model.ckpt, the transferred parameters did not have parameters for the key: 0.decoder.4.bias
2022-03-31 04:31:28,662 - speechbrain.utils.checkpoints - WARNING - During parameter transfer to ModuleList(
  (0): ConvAutoencoder(
    (encoder): Sequential(
      (0): Conv1d(1, 32, kernel_size=(15,), stride=(1,), padding=(7,))
      (1): GLU()
      (2): Conv1d(32, 64, kernel_size=(5,), stride=(2,), padding=(2,))
      (3): InstanceNorm1d(64, eps=1e-05, momentum=0.1, affine=True, track_running_stats=False)
      (4): GLU()
      (5): Conv1d(64, 128, kernel_size=(5,), stride=(2,), padding=(2,))
      (6): InstanceNorm1d(128, eps=1e-05, momentum=0.1, affine=True, track_running_stats=False)
      (7): GLU()
    )
    (decoder): Sequential(
      (0): Conv1d(128, 128, kernel_size=(5,), stride=(1,), padding=(2,))
      (1): ConvTranspose1d(128, 64, kernel_size=(5,), stride=(2,), padding=(2,), output_padding=(1,))
      (2): InstanceNorm1d(64, eps=1e-05, momentum=0.1, affine=True, track_running_stats=False)
      (3): GLU()
      (4): Conv1d(64, 64, kernel_size=(5,), stride=(1,), padding=(2,))
      (5): ConvTranspose1d(64, 32, kernel_size=(5,), stride=(2,), padding=(2,), output_padding=(1,))
      (6): InstanceNorm1d(32, eps=1e-05, momentum=0.1, affine=True, track_running_stats=False)
      (7): GLU()
      (8): Conv1d(32, 1, kernel_size=(15,), stride=(1,), padding=(7,))
    )
    (sex_classifier): SexClassifier(
      (fc1): Linear(in_features=256, out_features=128, bias=True)
      (fc2): Linear(in_features=128, out_features=2, bias=True)
    )
  )
) loading from model_checkpoints/asr_model.ckpt, the transferred parameters did not have parameters for the key: 0.decoder.5.weight
2022-03-31 04:31:28,662 - speechbrain.utils.checkpoints - WARNING - During parameter transfer to ModuleList(
  (0): ConvAutoencoder(
    (encoder): Sequential(
      (0): Conv1d(1, 32, kernel_size=(15,), stride=(1,), padding=(7,))
      (1): GLU()
      (2): Conv1d(32, 64, kernel_size=(5,), stride=(2,), padding=(2,))
      (3): InstanceNorm1d(64, eps=1e-05, momentum=0.1, affine=True, track_running_stats=False)
      (4): GLU()
      (5): Conv1d(64, 128, kernel_size=(5,), stride=(2,), padding=(2,))
      (6): InstanceNorm1d(128, eps=1e-05, momentum=0.1, affine=True, track_running_stats=False)
      (7): GLU()
    )
    (decoder): Sequential(
      (0): Conv1d(128, 128, kernel_size=(5,), stride=(1,), padding=(2,))
      (1): ConvTranspose1d(128, 64, kernel_size=(5,), stride=(2,), padding=(2,), output_padding=(1,))
      (2): InstanceNorm1d(64, eps=1e-05, momentum=0.1, affine=True, track_running_stats=False)
      (3): GLU()
      (4): Conv1d(64, 64, kernel_size=(5,), stride=(1,), padding=(2,))
      (5): ConvTranspose1d(64, 32, kernel_size=(5,), stride=(2,), padding=(2,), output_padding=(1,))
      (6): InstanceNorm1d(32, eps=1e-05, momentum=0.1, affine=True, track_running_stats=False)
      (7): GLU()
      (8): Conv1d(32, 1, kernel_size=(15,), stride=(1,), padding=(7,))
    )
    (sex_classifier): SexClassifier(
      (fc1): Linear(in_features=256, out_features=128, bias=True)
      (fc2): Linear(in_features=128, out_features=2, bias=True)
    )
  )
) loading from model_checkpoints/asr_model.ckpt, the transferred parameters did not have parameters for the key: 0.decoder.5.bias
2022-03-31 04:31:28,662 - speechbrain.utils.checkpoints - WARNING - During parameter transfer to ModuleList(
  (0): ConvAutoencoder(
    (encoder): Sequential(
      (0): Conv1d(1, 32, kernel_size=(15,), stride=(1,), padding=(7,))
      (1): GLU()
      (2): Conv1d(32, 64, kernel_size=(5,), stride=(2,), padding=(2,))
      (3): InstanceNorm1d(64, eps=1e-05, momentum=0.1, affine=True, track_running_stats=False)
      (4): GLU()
      (5): Conv1d(64, 128, kernel_size=(5,), stride=(2,), padding=(2,))
      (6): InstanceNorm1d(128, eps=1e-05, momentum=0.1, affine=True, track_running_stats=False)
      (7): GLU()
    )
    (decoder): Sequential(
      (0): Conv1d(128, 128, kernel_size=(5,), stride=(1,), padding=(2,))
      (1): ConvTranspose1d(128, 64, kernel_size=(5,), stride=(2,), padding=(2,), output_padding=(1,))
      (2): InstanceNorm1d(64, eps=1e-05, momentum=0.1, affine=True, track_running_stats=False)
      (3): GLU()
      (4): Conv1d(64, 64, kernel_size=(5,), stride=(1,), padding=(2,))
      (5): ConvTranspose1d(64, 32, kernel_size=(5,), stride=(2,), padding=(2,), output_padding=(1,))
      (6): InstanceNorm1d(32, eps=1e-05, momentum=0.1, affine=True, track_running_stats=False)
      (7): GLU()
      (8): Conv1d(32, 1, kernel_size=(15,), stride=(1,), padding=(7,))
    )
    (sex_classifier): SexClassifier(
      (fc1): Linear(in_features=256, out_features=128, bias=True)
      (fc2): Linear(in_features=128, out_features=2, bias=True)
    )
  )
) loading from model_checkpoints/asr_model.ckpt, the transferred parameters did not have parameters for the key: 0.decoder.6.weight
2022-03-31 04:31:28,663 - speechbrain.utils.checkpoints - WARNING - During parameter transfer to ModuleList(
  (0): ConvAutoencoder(
    (encoder): Sequential(
      (0): Conv1d(1, 32, kernel_size=(15,), stride=(1,), padding=(7,))
      (1): GLU()
      (2): Conv1d(32, 64, kernel_size=(5,), stride=(2,), padding=(2,))
      (3): InstanceNorm1d(64, eps=1e-05, momentum=0.1, affine=True, track_running_stats=False)
      (4): GLU()
      (5): Conv1d(64, 128, kernel_size=(5,), stride=(2,), padding=(2,))
      (6): InstanceNorm1d(128, eps=1e-05, momentum=0.1, affine=True, track_running_stats=False)
      (7): GLU()
    )
    (decoder): Sequential(
      (0): Conv1d(128, 128, kernel_size=(5,), stride=(1,), padding=(2,))
      (1): ConvTranspose1d(128, 64, kernel_size=(5,), stride=(2,), padding=(2,), output_padding=(1,))
      (2): InstanceNorm1d(64, eps=1e-05, momentum=0.1, affine=True, track_running_stats=False)
      (3): GLU()
      (4): Conv1d(64, 64, kernel_size=(5,), stride=(1,), padding=(2,))
      (5): ConvTranspose1d(64, 32, kernel_size=(5,), stride=(2,), padding=(2,), output_padding=(1,))
      (6): InstanceNorm1d(32, eps=1e-05, momentum=0.1, affine=True, track_running_stats=False)
      (7): GLU()
      (8): Conv1d(32, 1, kernel_size=(15,), stride=(1,), padding=(7,))
    )
    (sex_classifier): SexClassifier(
      (fc1): Linear(in_features=256, out_features=128, bias=True)
      (fc2): Linear(in_features=128, out_features=2, bias=True)
    )
  )
) loading from model_checkpoints/asr_model.ckpt, the transferred parameters did not have parameters for the key: 0.decoder.6.bias
2022-03-31 04:31:28,663 - speechbrain.utils.checkpoints - WARNING - During parameter transfer to ModuleList(
  (0): ConvAutoencoder(
    (encoder): Sequential(
      (0): Conv1d(1, 32, kernel_size=(15,), stride=(1,), padding=(7,))
      (1): GLU()
      (2): Conv1d(32, 64, kernel_size=(5,), stride=(2,), padding=(2,))
      (3): InstanceNorm1d(64, eps=1e-05, momentum=0.1, affine=True, track_running_stats=False)
      (4): GLU()
      (5): Conv1d(64, 128, kernel_size=(5,), stride=(2,), padding=(2,))
      (6): InstanceNorm1d(128, eps=1e-05, momentum=0.1, affine=True, track_running_stats=False)
      (7): GLU()
    )
    (decoder): Sequential(
      (0): Conv1d(128, 128, kernel_size=(5,), stride=(1,), padding=(2,))
      (1): ConvTranspose1d(128, 64, kernel_size=(5,), stride=(2,), padding=(2,), output_padding=(1,))
      (2): InstanceNorm1d(64, eps=1e-05, momentum=0.1, affine=True, track_running_stats=False)
      (3): GLU()
      (4): Conv1d(64, 64, kernel_size=(5,), stride=(1,), padding=(2,))
      (5): ConvTranspose1d(64, 32, kernel_size=(5,), stride=(2,), padding=(2,), output_padding=(1,))
      (6): InstanceNorm1d(32, eps=1e-05, momentum=0.1, affine=True, track_running_stats=False)
      (7): GLU()
      (8): Conv1d(32, 1, kernel_size=(15,), stride=(1,), padding=(7,))
    )
    (sex_classifier): SexClassifier(
      (fc1): Linear(in_features=256, out_features=128, bias=True)
      (fc2): Linear(in_features=128, out_features=2, bias=True)
    )
  )
) loading from model_checkpoints/asr_model.ckpt, the transferred parameters did not have parameters for the key: 0.decoder.8.weight
2022-03-31 04:31:28,663 - speechbrain.utils.checkpoints - WARNING - During parameter transfer to ModuleList(
  (0): ConvAutoencoder(
    (encoder): Sequential(
      (0): Conv1d(1, 32, kernel_size=(15,), stride=(1,), padding=(7,))
      (1): GLU()
      (2): Conv1d(32, 64, kernel_size=(5,), stride=(2,), padding=(2,))
      (3): InstanceNorm1d(64, eps=1e-05, momentum=0.1, affine=True, track_running_stats=False)
      (4): GLU()
      (5): Conv1d(64, 128, kernel_size=(5,), stride=(2,), padding=(2,))
      (6): InstanceNorm1d(128, eps=1e-05, momentum=0.1, affine=True, track_running_stats=False)
      (7): GLU()
    )
    (decoder): Sequential(
      (0): Conv1d(128, 128, kernel_size=(5,), stride=(1,), padding=(2,))
      (1): ConvTranspose1d(128, 64, kernel_size=(5,), stride=(2,), padding=(2,), output_padding=(1,))
      (2): InstanceNorm1d(64, eps=1e-05, momentum=0.1, affine=True, track_running_stats=False)
      (3): GLU()
      (4): Conv1d(64, 64, kernel_size=(5,), stride=(1,), padding=(2,))
      (5): ConvTranspose1d(64, 32, kernel_size=(5,), stride=(2,), padding=(2,), output_padding=(1,))
      (6): InstanceNorm1d(32, eps=1e-05, momentum=0.1, affine=True, track_running_stats=False)
      (7): GLU()
      (8): Conv1d(32, 1, kernel_size=(15,), stride=(1,), padding=(7,))
    )
    (sex_classifier): SexClassifier(
      (fc1): Linear(in_features=256, out_features=128, bias=True)
      (fc2): Linear(in_features=128, out_features=2, bias=True)
    )
  )
) loading from model_checkpoints/asr_model.ckpt, the transferred parameters did not have parameters for the key: 0.decoder.8.bias
2022-03-31 04:31:28,663 - speechbrain.utils.checkpoints - WARNING - During parameter transfer to ModuleList(
  (0): ConvAutoencoder(
    (encoder): Sequential(
      (0): Conv1d(1, 32, kernel_size=(15,), stride=(1,), padding=(7,))
      (1): GLU()
      (2): Conv1d(32, 64, kernel_size=(5,), stride=(2,), padding=(2,))
      (3): InstanceNorm1d(64, eps=1e-05, momentum=0.1, affine=True, track_running_stats=False)
      (4): GLU()
      (5): Conv1d(64, 128, kernel_size=(5,), stride=(2,), padding=(2,))
      (6): InstanceNorm1d(128, eps=1e-05, momentum=0.1, affine=True, track_running_stats=False)
      (7): GLU()
    )
    (decoder): Sequential(
      (0): Conv1d(128, 128, kernel_size=(5,), stride=(1,), padding=(2,))
      (1): ConvTranspose1d(128, 64, kernel_size=(5,), stride=(2,), padding=(2,), output_padding=(1,))
      (2): InstanceNorm1d(64, eps=1e-05, momentum=0.1, affine=True, track_running_stats=False)
      (3): GLU()
      (4): Conv1d(64, 64, kernel_size=(5,), stride=(1,), padding=(2,))
      (5): ConvTranspose1d(64, 32, kernel_size=(5,), stride=(2,), padding=(2,), output_padding=(1,))
      (6): InstanceNorm1d(32, eps=1e-05, momentum=0.1, affine=True, track_running_stats=False)
      (7): GLU()
      (8): Conv1d(32, 1, kernel_size=(15,), stride=(1,), padding=(7,))
    )
    (sex_classifier): SexClassifier(
      (fc1): Linear(in_features=256, out_features=128, bias=True)
      (fc2): Linear(in_features=128, out_features=2, bias=True)
    )
  )
) loading from model_checkpoints/asr_model.ckpt, the transferred parameters did not have parameters for the key: 0.sex_classifier.fc1.weight
2022-03-31 04:31:28,664 - speechbrain.utils.checkpoints - WARNING - During parameter transfer to ModuleList(
  (0): ConvAutoencoder(
    (encoder): Sequential(
      (0): Conv1d(1, 32, kernel_size=(15,), stride=(1,), padding=(7,))
      (1): GLU()
      (2): Conv1d(32, 64, kernel_size=(5,), stride=(2,), padding=(2,))
      (3): InstanceNorm1d(64, eps=1e-05, momentum=0.1, affine=True, track_running_stats=False)
      (4): GLU()
      (5): Conv1d(64, 128, kernel_size=(5,), stride=(2,), padding=(2,))
      (6): InstanceNorm1d(128, eps=1e-05, momentum=0.1, affine=True, track_running_stats=False)
      (7): GLU()
    )
    (decoder): Sequential(
      (0): Conv1d(128, 128, kernel_size=(5,), stride=(1,), padding=(2,))
      (1): ConvTranspose1d(128, 64, kernel_size=(5,), stride=(2,), padding=(2,), output_padding=(1,))
      (2): InstanceNorm1d(64, eps=1e-05, momentum=0.1, affine=True, track_running_stats=False)
      (3): GLU()
      (4): Conv1d(64, 64, kernel_size=(5,), stride=(1,), padding=(2,))
      (5): ConvTranspose1d(64, 32, kernel_size=(5,), stride=(2,), padding=(2,), output_padding=(1,))
      (6): InstanceNorm1d(32, eps=1e-05, momentum=0.1, affine=True, track_running_stats=False)
      (7): GLU()
      (8): Conv1d(32, 1, kernel_size=(15,), stride=(1,), padding=(7,))
    )
    (sex_classifier): SexClassifier(
      (fc1): Linear(in_features=256, out_features=128, bias=True)
      (fc2): Linear(in_features=128, out_features=2, bias=True)
    )
  )
) loading from model_checkpoints/asr_model.ckpt, the transferred parameters did not have parameters for the key: 0.sex_classifier.fc1.bias
2022-03-31 04:31:28,664 - speechbrain.utils.checkpoints - WARNING - During parameter transfer to ModuleList(
  (0): ConvAutoencoder(
    (encoder): Sequential(
      (0): Conv1d(1, 32, kernel_size=(15,), stride=(1,), padding=(7,))
      (1): GLU()
      (2): Conv1d(32, 64, kernel_size=(5,), stride=(2,), padding=(2,))
      (3): InstanceNorm1d(64, eps=1e-05, momentum=0.1, affine=True, track_running_stats=False)
      (4): GLU()
      (5): Conv1d(64, 128, kernel_size=(5,), stride=(2,), padding=(2,))
      (6): InstanceNorm1d(128, eps=1e-05, momentum=0.1, affine=True, track_running_stats=False)
      (7): GLU()
    )
    (decoder): Sequential(
      (0): Conv1d(128, 128, kernel_size=(5,), stride=(1,), padding=(2,))
      (1): ConvTranspose1d(128, 64, kernel_size=(5,), stride=(2,), padding=(2,), output_padding=(1,))
      (2): InstanceNorm1d(64, eps=1e-05, momentum=0.1, affine=True, track_running_stats=False)
      (3): GLU()
      (4): Conv1d(64, 64, kernel_size=(5,), stride=(1,), padding=(2,))
      (5): ConvTranspose1d(64, 32, kernel_size=(5,), stride=(2,), padding=(2,), output_padding=(1,))
      (6): InstanceNorm1d(32, eps=1e-05, momentum=0.1, affine=True, track_running_stats=False)
      (7): GLU()
      (8): Conv1d(32, 1, kernel_size=(15,), stride=(1,), padding=(7,))
    )
    (sex_classifier): SexClassifier(
      (fc1): Linear(in_features=256, out_features=128, bias=True)
      (fc2): Linear(in_features=128, out_features=2, bias=True)
    )
  )
) loading from model_checkpoints/asr_model.ckpt, the transferred parameters did not have parameters for the key: 0.sex_classifier.fc2.weight
2022-03-31 04:31:28,664 - speechbrain.utils.checkpoints - WARNING - During parameter transfer to ModuleList(
  (0): ConvAutoencoder(
    (encoder): Sequential(
      (0): Conv1d(1, 32, kernel_size=(15,), stride=(1,), padding=(7,))
      (1): GLU()
      (2): Conv1d(32, 64, kernel_size=(5,), stride=(2,), padding=(2,))
      (3): InstanceNorm1d(64, eps=1e-05, momentum=0.1, affine=True, track_running_stats=False)
      (4): GLU()
      (5): Conv1d(64, 128, kernel_size=(5,), stride=(2,), padding=(2,))
      (6): InstanceNorm1d(128, eps=1e-05, momentum=0.1, affine=True, track_running_stats=False)
      (7): GLU()
    )
    (decoder): Sequential(
      (0): Conv1d(128, 128, kernel_size=(5,), stride=(1,), padding=(2,))
      (1): ConvTranspose1d(128, 64, kernel_size=(5,), stride=(2,), padding=(2,), output_padding=(1,))
      (2): InstanceNorm1d(64, eps=1e-05, momentum=0.1, affine=True, track_running_stats=False)
      (3): GLU()
      (4): Conv1d(64, 64, kernel_size=(5,), stride=(1,), padding=(2,))
      (5): ConvTranspose1d(64, 32, kernel_size=(5,), stride=(2,), padding=(2,), output_padding=(1,))
      (6): InstanceNorm1d(32, eps=1e-05, momentum=0.1, affine=True, track_running_stats=False)
      (7): GLU()
      (8): Conv1d(32, 1, kernel_size=(15,), stride=(1,), padding=(7,))
    )
    (sex_classifier): SexClassifier(
      (fc1): Linear(in_features=256, out_features=128, bias=True)
      (fc2): Linear(in_features=128, out_features=2, bias=True)
    )
  )
) loading from model_checkpoints/asr_model.ckpt, the transferred parameters did not have parameters for the key: 0.sex_classifier.fc2.bias
2022-03-31 04:31:28,664 - speechbrain.utils.checkpoints - WARNING - During parameter transfer to ModuleList(
  (0): ConvAutoencoder(
    (encoder): Sequential(
      (0): Conv1d(1, 32, kernel_size=(15,), stride=(1,), padding=(7,))
      (1): GLU()
      (2): Conv1d(32, 64, kernel_size=(5,), stride=(2,), padding=(2,))
      (3): InstanceNorm1d(64, eps=1e-05, momentum=0.1, affine=True, track_running_stats=False)
      (4): GLU()
      (5): Conv1d(64, 128, kernel_size=(5,), stride=(2,), padding=(2,))
      (6): InstanceNorm1d(128, eps=1e-05, momentum=0.1, affine=True, track_running_stats=False)
      (7): GLU()
    )
    (decoder): Sequential(
      (0): Conv1d(128, 128, kernel_size=(5,), stride=(1,), padding=(2,))
      (1): ConvTranspose1d(128, 64, kernel_size=(5,), stride=(2,), padding=(2,), output_padding=(1,))
      (2): InstanceNorm1d(64, eps=1e-05, momentum=0.1, affine=True, track_running_stats=False)
      (3): GLU()
      (4): Conv1d(64, 64, kernel_size=(5,), stride=(1,), padding=(2,))
      (5): ConvTranspose1d(64, 32, kernel_size=(5,), stride=(2,), padding=(2,), output_padding=(1,))
      (6): InstanceNorm1d(32, eps=1e-05, momentum=0.1, affine=True, track_running_stats=False)
      (7): GLU()
      (8): Conv1d(32, 1, kernel_size=(15,), stride=(1,), padding=(7,))
    )
    (sex_classifier): SexClassifier(
      (fc1): Linear(in_features=256, out_features=128, bias=True)
      (fc2): Linear(in_features=128, out_features=2, bias=True)
    )
  )
) loading from model_checkpoints/asr_model.ckpt, the object could not use the parameters loaded with the key: 1.positional_encoding.pe
2022-03-31 04:31:28,665 - speechbrain.utils.checkpoints - WARNING - During parameter transfer to ModuleList(
  (0): ConvAutoencoder(
    (encoder): Sequential(
      (0): Conv1d(1, 32, kernel_size=(15,), stride=(1,), padding=(7,))
      (1): GLU()
      (2): Conv1d(32, 64, kernel_size=(5,), stride=(2,), padding=(2,))
      (3): InstanceNorm1d(64, eps=1e-05, momentum=0.1, affine=True, track_running_stats=False)
      (4): GLU()
      (5): Conv1d(64, 128, kernel_size=(5,), stride=(2,), padding=(2,))
      (6): InstanceNorm1d(128, eps=1e-05, momentum=0.1, affine=True, track_running_stats=False)
      (7): GLU()
    )
    (decoder): Sequential(
      (0): Conv1d(128, 128, kernel_size=(5,), stride=(1,), padding=(2,))
      (1): ConvTranspose1d(128, 64, kernel_size=(5,), stride=(2,), padding=(2,), output_padding=(1,))
      (2): InstanceNorm1d(64, eps=1e-05, momentum=0.1, affine=True, track_running_stats=False)
      (3): GLU()
      (4): Conv1d(64, 64, kernel_size=(5,), stride=(1,), padding=(2,))
      (5): ConvTranspose1d(64, 32, kernel_size=(5,), stride=(2,), padding=(2,), output_padding=(1,))
      (6): InstanceNorm1d(32, eps=1e-05, momentum=0.1, affine=True, track_running_stats=False)
      (7): GLU()
      (8): Conv1d(32, 1, kernel_size=(15,), stride=(1,), padding=(7,))
    )
    (sex_classifier): SexClassifier(
      (fc1): Linear(in_features=256, out_features=128, bias=True)
      (fc2): Linear(in_features=128, out_features=2, bias=True)
    )
  )
) loading from model_checkpoints/asr_model.ckpt, the object could not use the parameters loaded with the key: 1.encoder.layers.0.self_att.att.in_proj_weight
2022-03-31 04:31:28,665 - speechbrain.utils.checkpoints - WARNING - During parameter transfer to ModuleList(
  (0): ConvAutoencoder(
    (encoder): Sequential(
      (0): Conv1d(1, 32, kernel_size=(15,), stride=(1,), padding=(7,))
      (1): GLU()
      (2): Conv1d(32, 64, kernel_size=(5,), stride=(2,), padding=(2,))
      (3): InstanceNorm1d(64, eps=1e-05, momentum=0.1, affine=True, track_running_stats=False)
      (4): GLU()
      (5): Conv1d(64, 128, kernel_size=(5,), stride=(2,), padding=(2,))
      (6): InstanceNorm1d(128, eps=1e-05, momentum=0.1, affine=True, track_running_stats=False)
      (7): GLU()
    )
    (decoder): Sequential(
      (0): Conv1d(128, 128, kernel_size=(5,), stride=(1,), padding=(2,))
      (1): ConvTranspose1d(128, 64, kernel_size=(5,), stride=(2,), padding=(2,), output_padding=(1,))
      (2): InstanceNorm1d(64, eps=1e-05, momentum=0.1, affine=True, track_running_stats=False)
      (3): GLU()
      (4): Conv1d(64, 64, kernel_size=(5,), stride=(1,), padding=(2,))
      (5): ConvTranspose1d(64, 32, kernel_size=(5,), stride=(2,), padding=(2,), output_padding=(1,))
      (6): InstanceNorm1d(32, eps=1e-05, momentum=0.1, affine=True, track_running_stats=False)
      (7): GLU()
      (8): Conv1d(32, 1, kernel_size=(15,), stride=(1,), padding=(7,))
    )
    (sex_classifier): SexClassifier(
      (fc1): Linear(in_features=256, out_features=128, bias=True)
      (fc2): Linear(in_features=128, out_features=2, bias=True)
    )
  )
) loading from model_checkpoints/asr_model.ckpt, the object could not use the parameters loaded with the key: 1.encoder.layers.0.self_att.att.in_proj_bias
2022-03-31 04:31:28,665 - speechbrain.utils.checkpoints - WARNING - During parameter transfer to ModuleList(
  (0): ConvAutoencoder(
    (encoder): Sequential(
      (0): Conv1d(1, 32, kernel_size=(15,), stride=(1,), padding=(7,))
      (1): GLU()
      (2): Conv1d(32, 64, kernel_size=(5,), stride=(2,), padding=(2,))
      (3): InstanceNorm1d(64, eps=1e-05, momentum=0.1, affine=True, track_running_stats=False)
      (4): GLU()
      (5): Conv1d(64, 128, kernel_size=(5,), stride=(2,), padding=(2,))
      (6): InstanceNorm1d(128, eps=1e-05, momentum=0.1, affine=True, track_running_stats=False)
      (7): GLU()
    )
    (decoder): Sequential(
      (0): Conv1d(128, 128, kernel_size=(5,), stride=(1,), padding=(2,))
      (1): ConvTranspose1d(128, 64, kernel_size=(5,), stride=(2,), padding=(2,), output_padding=(1,))
      (2): InstanceNorm1d(64, eps=1e-05, momentum=0.1, affine=True, track_running_stats=False)
      (3): GLU()
      (4): Conv1d(64, 64, kernel_size=(5,), stride=(1,), padding=(2,))
      (5): ConvTranspose1d(64, 32, kernel_size=(5,), stride=(2,), padding=(2,), output_padding=(1,))
      (6): InstanceNorm1d(32, eps=1e-05, momentum=0.1, affine=True, track_running_stats=False)
      (7): GLU()
      (8): Conv1d(32, 1, kernel_size=(15,), stride=(1,), padding=(7,))
    )
    (sex_classifier): SexClassifier(
      (fc1): Linear(in_features=256, out_features=128, bias=True)
      (fc2): Linear(in_features=128, out_features=2, bias=True)
    )
  )
) loading from model_checkpoints/asr_model.ckpt, the object could not use the parameters loaded with the key: 1.encoder.layers.0.self_att.att.out_proj.weight
2022-03-31 04:31:28,665 - speechbrain.utils.checkpoints - WARNING - During parameter transfer to ModuleList(
  (0): ConvAutoencoder(
    (encoder): Sequential(
      (0): Conv1d(1, 32, kernel_size=(15,), stride=(1,), padding=(7,))
      (1): GLU()
      (2): Conv1d(32, 64, kernel_size=(5,), stride=(2,), padding=(2,))
      (3): InstanceNorm1d(64, eps=1e-05, momentum=0.1, affine=True, track_running_stats=False)
      (4): GLU()
      (5): Conv1d(64, 128, kernel_size=(5,), stride=(2,), padding=(2,))
      (6): InstanceNorm1d(128, eps=1e-05, momentum=0.1, affine=True, track_running_stats=False)
      (7): GLU()
    )
    (decoder): Sequential(
      (0): Conv1d(128, 128, kernel_size=(5,), stride=(1,), padding=(2,))
      (1): ConvTranspose1d(128, 64, kernel_size=(5,), stride=(2,), padding=(2,), output_padding=(1,))
      (2): InstanceNorm1d(64, eps=1e-05, momentum=0.1, affine=True, track_running_stats=False)
      (3): GLU()
      (4): Conv1d(64, 64, kernel_size=(5,), stride=(1,), padding=(2,))
      (5): ConvTranspose1d(64, 32, kernel_size=(5,), stride=(2,), padding=(2,), output_padding=(1,))
      (6): InstanceNorm1d(32, eps=1e-05, momentum=0.1, affine=True, track_running_stats=False)
      (7): GLU()
      (8): Conv1d(32, 1, kernel_size=(15,), stride=(1,), padding=(7,))
    )
    (sex_classifier): SexClassifier(
      (fc1): Linear(in_features=256, out_features=128, bias=True)
      (fc2): Linear(in_features=128, out_features=2, bias=True)
    )
  )
) loading from model_checkpoints/asr_model.ckpt, the object could not use the parameters loaded with the key: 1.encoder.layers.0.self_att.att.out_proj.bias
2022-03-31 04:31:28,666 - speechbrain.utils.checkpoints - WARNING - During parameter transfer to ModuleList(
  (0): ConvAutoencoder(
    (encoder): Sequential(
      (0): Conv1d(1, 32, kernel_size=(15,), stride=(1,), padding=(7,))
      (1): GLU()
      (2): Conv1d(32, 64, kernel_size=(5,), stride=(2,), padding=(2,))
      (3): InstanceNorm1d(64, eps=1e-05, momentum=0.1, affine=True, track_running_stats=False)
      (4): GLU()
      (5): Conv1d(64, 128, kernel_size=(5,), stride=(2,), padding=(2,))
      (6): InstanceNorm1d(128, eps=1e-05, momentum=0.1, affine=True, track_running_stats=False)
      (7): GLU()
    )
    (decoder): Sequential(
      (0): Conv1d(128, 128, kernel_size=(5,), stride=(1,), padding=(2,))
      (1): ConvTranspose1d(128, 64, kernel_size=(5,), stride=(2,), padding=(2,), output_padding=(1,))
      (2): InstanceNorm1d(64, eps=1e-05, momentum=0.1, affine=True, track_running_stats=False)
      (3): GLU()
      (4): Conv1d(64, 64, kernel_size=(5,), stride=(1,), padding=(2,))
      (5): ConvTranspose1d(64, 32, kernel_size=(5,), stride=(2,), padding=(2,), output_padding=(1,))
      (6): InstanceNorm1d(32, eps=1e-05, momentum=0.1, affine=True, track_running_stats=False)
      (7): GLU()
      (8): Conv1d(32, 1, kernel_size=(15,), stride=(1,), padding=(7,))
    )
    (sex_classifier): SexClassifier(
      (fc1): Linear(in_features=256, out_features=128, bias=True)
      (fc2): Linear(in_features=128, out_features=2, bias=True)
    )
  )
) loading from model_checkpoints/asr_model.ckpt, the object could not use the parameters loaded with the key: 1.encoder.layers.0.pos_ffn.ffn.0.weight
2022-03-31 04:31:28,666 - speechbrain.utils.checkpoints - WARNING - During parameter transfer to ModuleList(
  (0): ConvAutoencoder(
    (encoder): Sequential(
      (0): Conv1d(1, 32, kernel_size=(15,), stride=(1,), padding=(7,))
      (1): GLU()
      (2): Conv1d(32, 64, kernel_size=(5,), stride=(2,), padding=(2,))
      (3): InstanceNorm1d(64, eps=1e-05, momentum=0.1, affine=True, track_running_stats=False)
      (4): GLU()
      (5): Conv1d(64, 128, kernel_size=(5,), stride=(2,), padding=(2,))
      (6): InstanceNorm1d(128, eps=1e-05, momentum=0.1, affine=True, track_running_stats=False)
      (7): GLU()
    )
    (decoder): Sequential(
      (0): Conv1d(128, 128, kernel_size=(5,), stride=(1,), padding=(2,))
      (1): ConvTranspose1d(128, 64, kernel_size=(5,), stride=(2,), padding=(2,), output_padding=(1,))
      (2): InstanceNorm1d(64, eps=1e-05, momentum=0.1, affine=True, track_running_stats=False)
      (3): GLU()
      (4): Conv1d(64, 64, kernel_size=(5,), stride=(1,), padding=(2,))
      (5): ConvTranspose1d(64, 32, kernel_size=(5,), stride=(2,), padding=(2,), output_padding=(1,))
      (6): InstanceNorm1d(32, eps=1e-05, momentum=0.1, affine=True, track_running_stats=False)
      (7): GLU()
      (8): Conv1d(32, 1, kernel_size=(15,), stride=(1,), padding=(7,))
    )
    (sex_classifier): SexClassifier(
      (fc1): Linear(in_features=256, out_features=128, bias=True)
      (fc2): Linear(in_features=128, out_features=2, bias=True)
    )
  )
) loading from model_checkpoints/asr_model.ckpt, the object could not use the parameters loaded with the key: 1.encoder.layers.0.pos_ffn.ffn.0.bias
2022-03-31 04:31:28,666 - speechbrain.utils.checkpoints - WARNING - During parameter transfer to ModuleList(
  (0): ConvAutoencoder(
    (encoder): Sequential(
      (0): Conv1d(1, 32, kernel_size=(15,), stride=(1,), padding=(7,))
      (1): GLU()
      (2): Conv1d(32, 64, kernel_size=(5,), stride=(2,), padding=(2,))
      (3): InstanceNorm1d(64, eps=1e-05, momentum=0.1, affine=True, track_running_stats=False)
      (4): GLU()
      (5): Conv1d(64, 128, kernel_size=(5,), stride=(2,), padding=(2,))
      (6): InstanceNorm1d(128, eps=1e-05, momentum=0.1, affine=True, track_running_stats=False)
      (7): GLU()
    )
    (decoder): Sequential(
      (0): Conv1d(128, 128, kernel_size=(5,), stride=(1,), padding=(2,))
      (1): ConvTranspose1d(128, 64, kernel_size=(5,), stride=(2,), padding=(2,), output_padding=(1,))
      (2): InstanceNorm1d(64, eps=1e-05, momentum=0.1, affine=True, track_running_stats=False)
      (3): GLU()
      (4): Conv1d(64, 64, kernel_size=(5,), stride=(1,), padding=(2,))
      (5): ConvTranspose1d(64, 32, kernel_size=(5,), stride=(2,), padding=(2,), output_padding=(1,))
      (6): InstanceNorm1d(32, eps=1e-05, momentum=0.1, affine=True, track_running_stats=False)
      (7): GLU()
      (8): Conv1d(32, 1, kernel_size=(15,), stride=(1,), padding=(7,))
    )
    (sex_classifier): SexClassifier(
      (fc1): Linear(in_features=256, out_features=128, bias=True)
      (fc2): Linear(in_features=128, out_features=2, bias=True)
    )
  )
) loading from model_checkpoints/asr_model.ckpt, the object could not use the parameters loaded with the key: 1.encoder.layers.0.pos_ffn.ffn.3.weight
2022-03-31 04:31:28,666 - speechbrain.utils.checkpoints - WARNING - During parameter transfer to ModuleList(
  (0): ConvAutoencoder(
    (encoder): Sequential(
      (0): Conv1d(1, 32, kernel_size=(15,), stride=(1,), padding=(7,))
      (1): GLU()
      (2): Conv1d(32, 64, kernel_size=(5,), stride=(2,), padding=(2,))
      (3): InstanceNorm1d(64, eps=1e-05, momentum=0.1, affine=True, track_running_stats=False)
      (4): GLU()
      (5): Conv1d(64, 128, kernel_size=(5,), stride=(2,), padding=(2,))
      (6): InstanceNorm1d(128, eps=1e-05, momentum=0.1, affine=True, track_running_stats=False)
      (7): GLU()
    )
    (decoder): Sequential(
      (0): Conv1d(128, 128, kernel_size=(5,), stride=(1,), padding=(2,))
      (1): ConvTranspose1d(128, 64, kernel_size=(5,), stride=(2,), padding=(2,), output_padding=(1,))
      (2): InstanceNorm1d(64, eps=1e-05, momentum=0.1, affine=True, track_running_stats=False)
      (3): GLU()
      (4): Conv1d(64, 64, kernel_size=(5,), stride=(1,), padding=(2,))
      (5): ConvTranspose1d(64, 32, kernel_size=(5,), stride=(2,), padding=(2,), output_padding=(1,))
      (6): InstanceNorm1d(32, eps=1e-05, momentum=0.1, affine=True, track_running_stats=False)
      (7): GLU()
      (8): Conv1d(32, 1, kernel_size=(15,), stride=(1,), padding=(7,))
    )
    (sex_classifier): SexClassifier(
      (fc1): Linear(in_features=256, out_features=128, bias=True)
      (fc2): Linear(in_features=128, out_features=2, bias=True)
    )
  )
) loading from model_checkpoints/asr_model.ckpt, the object could not use the parameters loaded with the key: 1.encoder.layers.0.pos_ffn.ffn.3.bias
2022-03-31 04:31:28,667 - speechbrain.utils.checkpoints - WARNING - During parameter transfer to ModuleList(
  (0): ConvAutoencoder(
    (encoder): Sequential(
      (0): Conv1d(1, 32, kernel_size=(15,), stride=(1,), padding=(7,))
      (1): GLU()
      (2): Conv1d(32, 64, kernel_size=(5,), stride=(2,), padding=(2,))
      (3): InstanceNorm1d(64, eps=1e-05, momentum=0.1, affine=True, track_running_stats=False)
      (4): GLU()
      (5): Conv1d(64, 128, kernel_size=(5,), stride=(2,), padding=(2,))
      (6): InstanceNorm1d(128, eps=1e-05, momentum=0.1, affine=True, track_running_stats=False)
      (7): GLU()
    )
    (decoder): Sequential(
      (0): Conv1d(128, 128, kernel_size=(5,), stride=(1,), padding=(2,))
      (1): ConvTranspose1d(128, 64, kernel_size=(5,), stride=(2,), padding=(2,), output_padding=(1,))
      (2): InstanceNorm1d(64, eps=1e-05, momentum=0.1, affine=True, track_running_stats=False)
      (3): GLU()
      (4): Conv1d(64, 64, kernel_size=(5,), stride=(1,), padding=(2,))
      (5): ConvTranspose1d(64, 32, kernel_size=(5,), stride=(2,), padding=(2,), output_padding=(1,))
      (6): InstanceNorm1d(32, eps=1e-05, momentum=0.1, affine=True, track_running_stats=False)
      (7): GLU()
      (8): Conv1d(32, 1, kernel_size=(15,), stride=(1,), padding=(7,))
    )
    (sex_classifier): SexClassifier(
      (fc1): Linear(in_features=256, out_features=128, bias=True)
      (fc2): Linear(in_features=128, out_features=2, bias=True)
    )
  )
) loading from model_checkpoints/asr_model.ckpt, the object could not use the parameters loaded with the key: 1.encoder.layers.0.norm1.norm.weight
2022-03-31 04:31:28,667 - speechbrain.utils.checkpoints - WARNING - During parameter transfer to ModuleList(
  (0): ConvAutoencoder(
    (encoder): Sequential(
      (0): Conv1d(1, 32, kernel_size=(15,), stride=(1,), padding=(7,))
      (1): GLU()
      (2): Conv1d(32, 64, kernel_size=(5,), stride=(2,), padding=(2,))
      (3): InstanceNorm1d(64, eps=1e-05, momentum=0.1, affine=True, track_running_stats=False)
      (4): GLU()
      (5): Conv1d(64, 128, kernel_size=(5,), stride=(2,), padding=(2,))
      (6): InstanceNorm1d(128, eps=1e-05, momentum=0.1, affine=True, track_running_stats=False)
      (7): GLU()
    )
    (decoder): Sequential(
      (0): Conv1d(128, 128, kernel_size=(5,), stride=(1,), padding=(2,))
      (1): ConvTranspose1d(128, 64, kernel_size=(5,), stride=(2,), padding=(2,), output_padding=(1,))
      (2): InstanceNorm1d(64, eps=1e-05, momentum=0.1, affine=True, track_running_stats=False)
      (3): GLU()
      (4): Conv1d(64, 64, kernel_size=(5,), stride=(1,), padding=(2,))
      (5): ConvTranspose1d(64, 32, kernel_size=(5,), stride=(2,), padding=(2,), output_padding=(1,))
      (6): InstanceNorm1d(32, eps=1e-05, momentum=0.1, affine=True, track_running_stats=False)
      (7): GLU()
      (8): Conv1d(32, 1, kernel_size=(15,), stride=(1,), padding=(7,))
    )
    (sex_classifier): SexClassifier(
      (fc1): Linear(in_features=256, out_features=128, bias=True)
      (fc2): Linear(in_features=128, out_features=2, bias=True)
    )
  )
) loading from model_checkpoints/asr_model.ckpt, the object could not use the parameters loaded with the key: 1.encoder.layers.0.norm1.norm.bias
2022-03-31 04:31:28,667 - speechbrain.utils.checkpoints - WARNING - During parameter transfer to ModuleList(
  (0): ConvAutoencoder(
    (encoder): Sequential(
      (0): Conv1d(1, 32, kernel_size=(15,), stride=(1,), padding=(7,))
      (1): GLU()
      (2): Conv1d(32, 64, kernel_size=(5,), stride=(2,), padding=(2,))
      (3): InstanceNorm1d(64, eps=1e-05, momentum=0.1, affine=True, track_running_stats=False)
      (4): GLU()
      (5): Conv1d(64, 128, kernel_size=(5,), stride=(2,), padding=(2,))
      (6): InstanceNorm1d(128, eps=1e-05, momentum=0.1, affine=True, track_running_stats=False)
      (7): GLU()
    )
    (decoder): Sequential(
      (0): Conv1d(128, 128, kernel_size=(5,), stride=(1,), padding=(2,))
      (1): ConvTranspose1d(128, 64, kernel_size=(5,), stride=(2,), padding=(2,), output_padding=(1,))
      (2): InstanceNorm1d(64, eps=1e-05, momentum=0.1, affine=True, track_running_stats=False)
      (3): GLU()
      (4): Conv1d(64, 64, kernel_size=(5,), stride=(1,), padding=(2,))
      (5): ConvTranspose1d(64, 32, kernel_size=(5,), stride=(2,), padding=(2,), output_padding=(1,))
      (6): InstanceNorm1d(32, eps=1e-05, momentum=0.1, affine=True, track_running_stats=False)
      (7): GLU()
      (8): Conv1d(32, 1, kernel_size=(15,), stride=(1,), padding=(7,))
    )
    (sex_classifier): SexClassifier(
      (fc1): Linear(in_features=256, out_features=128, bias=True)
      (fc2): Linear(in_features=128, out_features=2, bias=True)
    )
  )
) loading from model_checkpoints/asr_model.ckpt, the object could not use the parameters loaded with the key: 1.encoder.layers.0.norm2.norm.weight
2022-03-31 04:31:28,667 - speechbrain.utils.checkpoints - WARNING - During parameter transfer to ModuleList(
  (0): ConvAutoencoder(
    (encoder): Sequential(
      (0): Conv1d(1, 32, kernel_size=(15,), stride=(1,), padding=(7,))
      (1): GLU()
      (2): Conv1d(32, 64, kernel_size=(5,), stride=(2,), padding=(2,))
      (3): InstanceNorm1d(64, eps=1e-05, momentum=0.1, affine=True, track_running_stats=False)
      (4): GLU()
      (5): Conv1d(64, 128, kernel_size=(5,), stride=(2,), padding=(2,))
      (6): InstanceNorm1d(128, eps=1e-05, momentum=0.1, affine=True, track_running_stats=False)
      (7): GLU()
    )
    (decoder): Sequential(
      (0): Conv1d(128, 128, kernel_size=(5,), stride=(1,), padding=(2,))
      (1): ConvTranspose1d(128, 64, kernel_size=(5,), stride=(2,), padding=(2,), output_padding=(1,))
      (2): InstanceNorm1d(64, eps=1e-05, momentum=0.1, affine=True, track_running_stats=False)
      (3): GLU()
      (4): Conv1d(64, 64, kernel_size=(5,), stride=(1,), padding=(2,))
      (5): ConvTranspose1d(64, 32, kernel_size=(5,), stride=(2,), padding=(2,), output_padding=(1,))
      (6): InstanceNorm1d(32, eps=1e-05, momentum=0.1, affine=True, track_running_stats=False)
      (7): GLU()
      (8): Conv1d(32, 1, kernel_size=(15,), stride=(1,), padding=(7,))
    )
    (sex_classifier): SexClassifier(
      (fc1): Linear(in_features=256, out_features=128, bias=True)
      (fc2): Linear(in_features=128, out_features=2, bias=True)
    )
  )
) loading from model_checkpoints/asr_model.ckpt, the object could not use the parameters loaded with the key: 1.encoder.layers.0.norm2.norm.bias
2022-03-31 04:31:28,668 - speechbrain.utils.checkpoints - WARNING - During parameter transfer to ModuleList(
  (0): ConvAutoencoder(
    (encoder): Sequential(
      (0): Conv1d(1, 32, kernel_size=(15,), stride=(1,), padding=(7,))
      (1): GLU()
      (2): Conv1d(32, 64, kernel_size=(5,), stride=(2,), padding=(2,))
      (3): InstanceNorm1d(64, eps=1e-05, momentum=0.1, affine=True, track_running_stats=False)
      (4): GLU()
      (5): Conv1d(64, 128, kernel_size=(5,), stride=(2,), padding=(2,))
      (6): InstanceNorm1d(128, eps=1e-05, momentum=0.1, affine=True, track_running_stats=False)
      (7): GLU()
    )
    (decoder): Sequential(
      (0): Conv1d(128, 128, kernel_size=(5,), stride=(1,), padding=(2,))
      (1): ConvTranspose1d(128, 64, kernel_size=(5,), stride=(2,), padding=(2,), output_padding=(1,))
      (2): InstanceNorm1d(64, eps=1e-05, momentum=0.1, affine=True, track_running_stats=False)
      (3): GLU()
      (4): Conv1d(64, 64, kernel_size=(5,), stride=(1,), padding=(2,))
      (5): ConvTranspose1d(64, 32, kernel_size=(5,), stride=(2,), padding=(2,), output_padding=(1,))
      (6): InstanceNorm1d(32, eps=1e-05, momentum=0.1, affine=True, track_running_stats=False)
      (7): GLU()
      (8): Conv1d(32, 1, kernel_size=(15,), stride=(1,), padding=(7,))
    )
    (sex_classifier): SexClassifier(
      (fc1): Linear(in_features=256, out_features=128, bias=True)
      (fc2): Linear(in_features=128, out_features=2, bias=True)
    )
  )
) loading from model_checkpoints/asr_model.ckpt, the object could not use the parameters loaded with the key: 1.encoder.layers.1.self_att.att.in_proj_weight
2022-03-31 04:31:28,668 - speechbrain.utils.checkpoints - WARNING - During parameter transfer to ModuleList(
  (0): ConvAutoencoder(
    (encoder): Sequential(
      (0): Conv1d(1, 32, kernel_size=(15,), stride=(1,), padding=(7,))
      (1): GLU()
      (2): Conv1d(32, 64, kernel_size=(5,), stride=(2,), padding=(2,))
      (3): InstanceNorm1d(64, eps=1e-05, momentum=0.1, affine=True, track_running_stats=False)
      (4): GLU()
      (5): Conv1d(64, 128, kernel_size=(5,), stride=(2,), padding=(2,))
      (6): InstanceNorm1d(128, eps=1e-05, momentum=0.1, affine=True, track_running_stats=False)
      (7): GLU()
    )
    (decoder): Sequential(
      (0): Conv1d(128, 128, kernel_size=(5,), stride=(1,), padding=(2,))
      (1): ConvTranspose1d(128, 64, kernel_size=(5,), stride=(2,), padding=(2,), output_padding=(1,))
      (2): InstanceNorm1d(64, eps=1e-05, momentum=0.1, affine=True, track_running_stats=False)
      (3): GLU()
      (4): Conv1d(64, 64, kernel_size=(5,), stride=(1,), padding=(2,))
      (5): ConvTranspose1d(64, 32, kernel_size=(5,), stride=(2,), padding=(2,), output_padding=(1,))
      (6): InstanceNorm1d(32, eps=1e-05, momentum=0.1, affine=True, track_running_stats=False)
      (7): GLU()
      (8): Conv1d(32, 1, kernel_size=(15,), stride=(1,), padding=(7,))
    )
    (sex_classifier): SexClassifier(
      (fc1): Linear(in_features=256, out_features=128, bias=True)
      (fc2): Linear(in_features=128, out_features=2, bias=True)
    )
  )
) loading from model_checkpoints/asr_model.ckpt, the object could not use the parameters loaded with the key: 1.encoder.layers.1.self_att.att.in_proj_bias
2022-03-31 04:31:28,668 - speechbrain.utils.checkpoints - WARNING - During parameter transfer to ModuleList(
  (0): ConvAutoencoder(
    (encoder): Sequential(
      (0): Conv1d(1, 32, kernel_size=(15,), stride=(1,), padding=(7,))
      (1): GLU()
      (2): Conv1d(32, 64, kernel_size=(5,), stride=(2,), padding=(2,))
      (3): InstanceNorm1d(64, eps=1e-05, momentum=0.1, affine=True, track_running_stats=False)
      (4): GLU()
      (5): Conv1d(64, 128, kernel_size=(5,), stride=(2,), padding=(2,))
      (6): InstanceNorm1d(128, eps=1e-05, momentum=0.1, affine=True, track_running_stats=False)
      (7): GLU()
    )
    (decoder): Sequential(
      (0): Conv1d(128, 128, kernel_size=(5,), stride=(1,), padding=(2,))
      (1): ConvTranspose1d(128, 64, kernel_size=(5,), stride=(2,), padding=(2,), output_padding=(1,))
      (2): InstanceNorm1d(64, eps=1e-05, momentum=0.1, affine=True, track_running_stats=False)
      (3): GLU()
      (4): Conv1d(64, 64, kernel_size=(5,), stride=(1,), padding=(2,))
      (5): ConvTranspose1d(64, 32, kernel_size=(5,), stride=(2,), padding=(2,), output_padding=(1,))
      (6): InstanceNorm1d(32, eps=1e-05, momentum=0.1, affine=True, track_running_stats=False)
      (7): GLU()
      (8): Conv1d(32, 1, kernel_size=(15,), stride=(1,), padding=(7,))
    )
    (sex_classifier): SexClassifier(
      (fc1): Linear(in_features=256, out_features=128, bias=True)
      (fc2): Linear(in_features=128, out_features=2, bias=True)
    )
  )
) loading from model_checkpoints/asr_model.ckpt, the object could not use the parameters loaded with the key: 1.encoder.layers.1.self_att.att.out_proj.weight
2022-03-31 04:31:28,668 - speechbrain.utils.checkpoints - WARNING - During parameter transfer to ModuleList(
  (0): ConvAutoencoder(
    (encoder): Sequential(
      (0): Conv1d(1, 32, kernel_size=(15,), stride=(1,), padding=(7,))
      (1): GLU()
      (2): Conv1d(32, 64, kernel_size=(5,), stride=(2,), padding=(2,))
      (3): InstanceNorm1d(64, eps=1e-05, momentum=0.1, affine=True, track_running_stats=False)
      (4): GLU()
      (5): Conv1d(64, 128, kernel_size=(5,), stride=(2,), padding=(2,))
      (6): InstanceNorm1d(128, eps=1e-05, momentum=0.1, affine=True, track_running_stats=False)
      (7): GLU()
    )
    (decoder): Sequential(
      (0): Conv1d(128, 128, kernel_size=(5,), stride=(1,), padding=(2,))
      (1): ConvTranspose1d(128, 64, kernel_size=(5,), stride=(2,), padding=(2,), output_padding=(1,))
      (2): InstanceNorm1d(64, eps=1e-05, momentum=0.1, affine=True, track_running_stats=False)
      (3): GLU()
      (4): Conv1d(64, 64, kernel_size=(5,), stride=(1,), padding=(2,))
      (5): ConvTranspose1d(64, 32, kernel_size=(5,), stride=(2,), padding=(2,), output_padding=(1,))
      (6): InstanceNorm1d(32, eps=1e-05, momentum=0.1, affine=True, track_running_stats=False)
      (7): GLU()
      (8): Conv1d(32, 1, kernel_size=(15,), stride=(1,), padding=(7,))
    )
    (sex_classifier): SexClassifier(
      (fc1): Linear(in_features=256, out_features=128, bias=True)
      (fc2): Linear(in_features=128, out_features=2, bias=True)
    )
  )
) loading from model_checkpoints/asr_model.ckpt, the object could not use the parameters loaded with the key: 1.encoder.layers.1.self_att.att.out_proj.bias
2022-03-31 04:31:28,669 - speechbrain.utils.checkpoints - WARNING - During parameter transfer to ModuleList(
  (0): ConvAutoencoder(
    (encoder): Sequential(
      (0): Conv1d(1, 32, kernel_size=(15,), stride=(1,), padding=(7,))
      (1): GLU()
      (2): Conv1d(32, 64, kernel_size=(5,), stride=(2,), padding=(2,))
      (3): InstanceNorm1d(64, eps=1e-05, momentum=0.1, affine=True, track_running_stats=False)
      (4): GLU()
      (5): Conv1d(64, 128, kernel_size=(5,), stride=(2,), padding=(2,))
      (6): InstanceNorm1d(128, eps=1e-05, momentum=0.1, affine=True, track_running_stats=False)
      (7): GLU()
    )
    (decoder): Sequential(
      (0): Conv1d(128, 128, kernel_size=(5,), stride=(1,), padding=(2,))
      (1): ConvTranspose1d(128, 64, kernel_size=(5,), stride=(2,), padding=(2,), output_padding=(1,))
      (2): InstanceNorm1d(64, eps=1e-05, momentum=0.1, affine=True, track_running_stats=False)
      (3): GLU()
      (4): Conv1d(64, 64, kernel_size=(5,), stride=(1,), padding=(2,))
      (5): ConvTranspose1d(64, 32, kernel_size=(5,), stride=(2,), padding=(2,), output_padding=(1,))
      (6): InstanceNorm1d(32, eps=1e-05, momentum=0.1, affine=True, track_running_stats=False)
      (7): GLU()
      (8): Conv1d(32, 1, kernel_size=(15,), stride=(1,), padding=(7,))
    )
    (sex_classifier): SexClassifier(
      (fc1): Linear(in_features=256, out_features=128, bias=True)
      (fc2): Linear(in_features=128, out_features=2, bias=True)
    )
  )
) loading from model_checkpoints/asr_model.ckpt, the object could not use the parameters loaded with the key: 1.encoder.layers.1.pos_ffn.ffn.0.weight
2022-03-31 04:31:28,669 - speechbrain.utils.checkpoints - WARNING - During parameter transfer to ModuleList(
  (0): ConvAutoencoder(
    (encoder): Sequential(
      (0): Conv1d(1, 32, kernel_size=(15,), stride=(1,), padding=(7,))
      (1): GLU()
      (2): Conv1d(32, 64, kernel_size=(5,), stride=(2,), padding=(2,))
      (3): InstanceNorm1d(64, eps=1e-05, momentum=0.1, affine=True, track_running_stats=False)
      (4): GLU()
      (5): Conv1d(64, 128, kernel_size=(5,), stride=(2,), padding=(2,))
      (6): InstanceNorm1d(128, eps=1e-05, momentum=0.1, affine=True, track_running_stats=False)
      (7): GLU()
    )
    (decoder): Sequential(
      (0): Conv1d(128, 128, kernel_size=(5,), stride=(1,), padding=(2,))
      (1): ConvTranspose1d(128, 64, kernel_size=(5,), stride=(2,), padding=(2,), output_padding=(1,))
      (2): InstanceNorm1d(64, eps=1e-05, momentum=0.1, affine=True, track_running_stats=False)
      (3): GLU()
      (4): Conv1d(64, 64, kernel_size=(5,), stride=(1,), padding=(2,))
      (5): ConvTranspose1d(64, 32, kernel_size=(5,), stride=(2,), padding=(2,), output_padding=(1,))
      (6): InstanceNorm1d(32, eps=1e-05, momentum=0.1, affine=True, track_running_stats=False)
      (7): GLU()
      (8): Conv1d(32, 1, kernel_size=(15,), stride=(1,), padding=(7,))
    )
    (sex_classifier): SexClassifier(
      (fc1): Linear(in_features=256, out_features=128, bias=True)
      (fc2): Linear(in_features=128, out_features=2, bias=True)
    )
  )
) loading from model_checkpoints/asr_model.ckpt, the object could not use the parameters loaded with the key: 1.encoder.layers.1.pos_ffn.ffn.0.bias
2022-03-31 04:31:28,669 - speechbrain.utils.checkpoints - WARNING - During parameter transfer to ModuleList(
  (0): ConvAutoencoder(
    (encoder): Sequential(
      (0): Conv1d(1, 32, kernel_size=(15,), stride=(1,), padding=(7,))
      (1): GLU()
      (2): Conv1d(32, 64, kernel_size=(5,), stride=(2,), padding=(2,))
      (3): InstanceNorm1d(64, eps=1e-05, momentum=0.1, affine=True, track_running_stats=False)
      (4): GLU()
      (5): Conv1d(64, 128, kernel_size=(5,), stride=(2,), padding=(2,))
      (6): InstanceNorm1d(128, eps=1e-05, momentum=0.1, affine=True, track_running_stats=False)
      (7): GLU()
    )
    (decoder): Sequential(
      (0): Conv1d(128, 128, kernel_size=(5,), stride=(1,), padding=(2,))
      (1): ConvTranspose1d(128, 64, kernel_size=(5,), stride=(2,), padding=(2,), output_padding=(1,))
      (2): InstanceNorm1d(64, eps=1e-05, momentum=0.1, affine=True, track_running_stats=False)
      (3): GLU()
      (4): Conv1d(64, 64, kernel_size=(5,), stride=(1,), padding=(2,))
      (5): ConvTranspose1d(64, 32, kernel_size=(5,), stride=(2,), padding=(2,), output_padding=(1,))
      (6): InstanceNorm1d(32, eps=1e-05, momentum=0.1, affine=True, track_running_stats=False)
      (7): GLU()
      (8): Conv1d(32, 1, kernel_size=(15,), stride=(1,), padding=(7,))
    )
    (sex_classifier): SexClassifier(
      (fc1): Linear(in_features=256, out_features=128, bias=True)
      (fc2): Linear(in_features=128, out_features=2, bias=True)
    )
  )
) loading from model_checkpoints/asr_model.ckpt, the object could not use the parameters loaded with the key: 1.encoder.layers.1.pos_ffn.ffn.3.weight
2022-03-31 04:31:28,669 - speechbrain.utils.checkpoints - WARNING - During parameter transfer to ModuleList(
  (0): ConvAutoencoder(
    (encoder): Sequential(
      (0): Conv1d(1, 32, kernel_size=(15,), stride=(1,), padding=(7,))
      (1): GLU()
      (2): Conv1d(32, 64, kernel_size=(5,), stride=(2,), padding=(2,))
      (3): InstanceNorm1d(64, eps=1e-05, momentum=0.1, affine=True, track_running_stats=False)
      (4): GLU()
      (5): Conv1d(64, 128, kernel_size=(5,), stride=(2,), padding=(2,))
      (6): InstanceNorm1d(128, eps=1e-05, momentum=0.1, affine=True, track_running_stats=False)
      (7): GLU()
    )
    (decoder): Sequential(
      (0): Conv1d(128, 128, kernel_size=(5,), stride=(1,), padding=(2,))
      (1): ConvTranspose1d(128, 64, kernel_size=(5,), stride=(2,), padding=(2,), output_padding=(1,))
      (2): InstanceNorm1d(64, eps=1e-05, momentum=0.1, affine=True, track_running_stats=False)
      (3): GLU()
      (4): Conv1d(64, 64, kernel_size=(5,), stride=(1,), padding=(2,))
      (5): ConvTranspose1d(64, 32, kernel_size=(5,), stride=(2,), padding=(2,), output_padding=(1,))
      (6): InstanceNorm1d(32, eps=1e-05, momentum=0.1, affine=True, track_running_stats=False)
      (7): GLU()
      (8): Conv1d(32, 1, kernel_size=(15,), stride=(1,), padding=(7,))
    )
    (sex_classifier): SexClassifier(
      (fc1): Linear(in_features=256, out_features=128, bias=True)
      (fc2): Linear(in_features=128, out_features=2, bias=True)
    )
  )
) loading from model_checkpoints/asr_model.ckpt, the object could not use the parameters loaded with the key: 1.encoder.layers.1.pos_ffn.ffn.3.bias
2022-03-31 04:31:28,669 - speechbrain.utils.checkpoints - WARNING - During parameter transfer to ModuleList(
  (0): ConvAutoencoder(
    (encoder): Sequential(
      (0): Conv1d(1, 32, kernel_size=(15,), stride=(1,), padding=(7,))
      (1): GLU()
      (2): Conv1d(32, 64, kernel_size=(5,), stride=(2,), padding=(2,))
      (3): InstanceNorm1d(64, eps=1e-05, momentum=0.1, affine=True, track_running_stats=False)
      (4): GLU()
      (5): Conv1d(64, 128, kernel_size=(5,), stride=(2,), padding=(2,))
      (6): InstanceNorm1d(128, eps=1e-05, momentum=0.1, affine=True, track_running_stats=False)
      (7): GLU()
    )
    (decoder): Sequential(
      (0): Conv1d(128, 128, kernel_size=(5,), stride=(1,), padding=(2,))
      (1): ConvTranspose1d(128, 64, kernel_size=(5,), stride=(2,), padding=(2,), output_padding=(1,))
      (2): InstanceNorm1d(64, eps=1e-05, momentum=0.1, affine=True, track_running_stats=False)
      (3): GLU()
      (4): Conv1d(64, 64, kernel_size=(5,), stride=(1,), padding=(2,))
      (5): ConvTranspose1d(64, 32, kernel_size=(5,), stride=(2,), padding=(2,), output_padding=(1,))
      (6): InstanceNorm1d(32, eps=1e-05, momentum=0.1, affine=True, track_running_stats=False)
      (7): GLU()
      (8): Conv1d(32, 1, kernel_size=(15,), stride=(1,), padding=(7,))
    )
    (sex_classifier): SexClassifier(
      (fc1): Linear(in_features=256, out_features=128, bias=True)
      (fc2): Linear(in_features=128, out_features=2, bias=True)
    )
  )
) loading from model_checkpoints/asr_model.ckpt, the object could not use the parameters loaded with the key: 1.encoder.layers.1.norm1.norm.weight
2022-03-31 04:31:28,670 - speechbrain.utils.checkpoints - WARNING - During parameter transfer to ModuleList(
  (0): ConvAutoencoder(
    (encoder): Sequential(
      (0): Conv1d(1, 32, kernel_size=(15,), stride=(1,), padding=(7,))
      (1): GLU()
      (2): Conv1d(32, 64, kernel_size=(5,), stride=(2,), padding=(2,))
      (3): InstanceNorm1d(64, eps=1e-05, momentum=0.1, affine=True, track_running_stats=False)
      (4): GLU()
      (5): Conv1d(64, 128, kernel_size=(5,), stride=(2,), padding=(2,))
      (6): InstanceNorm1d(128, eps=1e-05, momentum=0.1, affine=True, track_running_stats=False)
      (7): GLU()
    )
    (decoder): Sequential(
      (0): Conv1d(128, 128, kernel_size=(5,), stride=(1,), padding=(2,))
      (1): ConvTranspose1d(128, 64, kernel_size=(5,), stride=(2,), padding=(2,), output_padding=(1,))
      (2): InstanceNorm1d(64, eps=1e-05, momentum=0.1, affine=True, track_running_stats=False)
      (3): GLU()
      (4): Conv1d(64, 64, kernel_size=(5,), stride=(1,), padding=(2,))
      (5): ConvTranspose1d(64, 32, kernel_size=(5,), stride=(2,), padding=(2,), output_padding=(1,))
      (6): InstanceNorm1d(32, eps=1e-05, momentum=0.1, affine=True, track_running_stats=False)
      (7): GLU()
      (8): Conv1d(32, 1, kernel_size=(15,), stride=(1,), padding=(7,))
    )
    (sex_classifier): SexClassifier(
      (fc1): Linear(in_features=256, out_features=128, bias=True)
      (fc2): Linear(in_features=128, out_features=2, bias=True)
    )
  )
) loading from model_checkpoints/asr_model.ckpt, the object could not use the parameters loaded with the key: 1.encoder.layers.1.norm1.norm.bias
2022-03-31 04:31:28,670 - speechbrain.utils.checkpoints - WARNING - During parameter transfer to ModuleList(
  (0): ConvAutoencoder(
    (encoder): Sequential(
      (0): Conv1d(1, 32, kernel_size=(15,), stride=(1,), padding=(7,))
      (1): GLU()
      (2): Conv1d(32, 64, kernel_size=(5,), stride=(2,), padding=(2,))
      (3): InstanceNorm1d(64, eps=1e-05, momentum=0.1, affine=True, track_running_stats=False)
      (4): GLU()
      (5): Conv1d(64, 128, kernel_size=(5,), stride=(2,), padding=(2,))
      (6): InstanceNorm1d(128, eps=1e-05, momentum=0.1, affine=True, track_running_stats=False)
      (7): GLU()
    )
    (decoder): Sequential(
      (0): Conv1d(128, 128, kernel_size=(5,), stride=(1,), padding=(2,))
      (1): ConvTranspose1d(128, 64, kernel_size=(5,), stride=(2,), padding=(2,), output_padding=(1,))
      (2): InstanceNorm1d(64, eps=1e-05, momentum=0.1, affine=True, track_running_stats=False)
      (3): GLU()
      (4): Conv1d(64, 64, kernel_size=(5,), stride=(1,), padding=(2,))
      (5): ConvTranspose1d(64, 32, kernel_size=(5,), stride=(2,), padding=(2,), output_padding=(1,))
      (6): InstanceNorm1d(32, eps=1e-05, momentum=0.1, affine=True, track_running_stats=False)
      (7): GLU()
      (8): Conv1d(32, 1, kernel_size=(15,), stride=(1,), padding=(7,))
    )
    (sex_classifier): SexClassifier(
      (fc1): Linear(in_features=256, out_features=128, bias=True)
      (fc2): Linear(in_features=128, out_features=2, bias=True)
    )
  )
) loading from model_checkpoints/asr_model.ckpt, the object could not use the parameters loaded with the key: 1.encoder.layers.1.norm2.norm.weight
2022-03-31 04:31:28,670 - speechbrain.utils.checkpoints - WARNING - During parameter transfer to ModuleList(
  (0): ConvAutoencoder(
    (encoder): Sequential(
      (0): Conv1d(1, 32, kernel_size=(15,), stride=(1,), padding=(7,))
      (1): GLU()
      (2): Conv1d(32, 64, kernel_size=(5,), stride=(2,), padding=(2,))
      (3): InstanceNorm1d(64, eps=1e-05, momentum=0.1, affine=True, track_running_stats=False)
      (4): GLU()
      (5): Conv1d(64, 128, kernel_size=(5,), stride=(2,), padding=(2,))
      (6): InstanceNorm1d(128, eps=1e-05, momentum=0.1, affine=True, track_running_stats=False)
      (7): GLU()
    )
    (decoder): Sequential(
      (0): Conv1d(128, 128, kernel_size=(5,), stride=(1,), padding=(2,))
      (1): ConvTranspose1d(128, 64, kernel_size=(5,), stride=(2,), padding=(2,), output_padding=(1,))
      (2): InstanceNorm1d(64, eps=1e-05, momentum=0.1, affine=True, track_running_stats=False)
      (3): GLU()
      (4): Conv1d(64, 64, kernel_size=(5,), stride=(1,), padding=(2,))
      (5): ConvTranspose1d(64, 32, kernel_size=(5,), stride=(2,), padding=(2,), output_padding=(1,))
      (6): InstanceNorm1d(32, eps=1e-05, momentum=0.1, affine=True, track_running_stats=False)
      (7): GLU()
      (8): Conv1d(32, 1, kernel_size=(15,), stride=(1,), padding=(7,))
    )
    (sex_classifier): SexClassifier(
      (fc1): Linear(in_features=256, out_features=128, bias=True)
      (fc2): Linear(in_features=128, out_features=2, bias=True)
    )
  )
) loading from model_checkpoints/asr_model.ckpt, the object could not use the parameters loaded with the key: 1.encoder.layers.1.norm2.norm.bias
2022-03-31 04:31:28,670 - speechbrain.utils.checkpoints - WARNING - During parameter transfer to ModuleList(
  (0): ConvAutoencoder(
    (encoder): Sequential(
      (0): Conv1d(1, 32, kernel_size=(15,), stride=(1,), padding=(7,))
      (1): GLU()
      (2): Conv1d(32, 64, kernel_size=(5,), stride=(2,), padding=(2,))
      (3): InstanceNorm1d(64, eps=1e-05, momentum=0.1, affine=True, track_running_stats=False)
      (4): GLU()
      (5): Conv1d(64, 128, kernel_size=(5,), stride=(2,), padding=(2,))
      (6): InstanceNorm1d(128, eps=1e-05, momentum=0.1, affine=True, track_running_stats=False)
      (7): GLU()
    )
    (decoder): Sequential(
      (0): Conv1d(128, 128, kernel_size=(5,), stride=(1,), padding=(2,))
      (1): ConvTranspose1d(128, 64, kernel_size=(5,), stride=(2,), padding=(2,), output_padding=(1,))
      (2): InstanceNorm1d(64, eps=1e-05, momentum=0.1, affine=True, track_running_stats=False)
      (3): GLU()
      (4): Conv1d(64, 64, kernel_size=(5,), stride=(1,), padding=(2,))
      (5): ConvTranspose1d(64, 32, kernel_size=(5,), stride=(2,), padding=(2,), output_padding=(1,))
      (6): InstanceNorm1d(32, eps=1e-05, momentum=0.1, affine=True, track_running_stats=False)
      (7): GLU()
      (8): Conv1d(32, 1, kernel_size=(15,), stride=(1,), padding=(7,))
    )
    (sex_classifier): SexClassifier(
      (fc1): Linear(in_features=256, out_features=128, bias=True)
      (fc2): Linear(in_features=128, out_features=2, bias=True)
    )
  )
) loading from model_checkpoints/asr_model.ckpt, the object could not use the parameters loaded with the key: 1.encoder.layers.2.self_att.att.in_proj_weight
2022-03-31 04:31:28,671 - speechbrain.utils.checkpoints - WARNING - During parameter transfer to ModuleList(
  (0): ConvAutoencoder(
    (encoder): Sequential(
      (0): Conv1d(1, 32, kernel_size=(15,), stride=(1,), padding=(7,))
      (1): GLU()
      (2): Conv1d(32, 64, kernel_size=(5,), stride=(2,), padding=(2,))
      (3): InstanceNorm1d(64, eps=1e-05, momentum=0.1, affine=True, track_running_stats=False)
      (4): GLU()
      (5): Conv1d(64, 128, kernel_size=(5,), stride=(2,), padding=(2,))
      (6): InstanceNorm1d(128, eps=1e-05, momentum=0.1, affine=True, track_running_stats=False)
      (7): GLU()
    )
    (decoder): Sequential(
      (0): Conv1d(128, 128, kernel_size=(5,), stride=(1,), padding=(2,))
      (1): ConvTranspose1d(128, 64, kernel_size=(5,), stride=(2,), padding=(2,), output_padding=(1,))
      (2): InstanceNorm1d(64, eps=1e-05, momentum=0.1, affine=True, track_running_stats=False)
      (3): GLU()
      (4): Conv1d(64, 64, kernel_size=(5,), stride=(1,), padding=(2,))
      (5): ConvTranspose1d(64, 32, kernel_size=(5,), stride=(2,), padding=(2,), output_padding=(1,))
      (6): InstanceNorm1d(32, eps=1e-05, momentum=0.1, affine=True, track_running_stats=False)
      (7): GLU()
      (8): Conv1d(32, 1, kernel_size=(15,), stride=(1,), padding=(7,))
    )
    (sex_classifier): SexClassifier(
      (fc1): Linear(in_features=256, out_features=128, bias=True)
      (fc2): Linear(in_features=128, out_features=2, bias=True)
    )
  )
) loading from model_checkpoints/asr_model.ckpt, the object could not use the parameters loaded with the key: 1.encoder.layers.2.self_att.att.in_proj_bias
2022-03-31 04:31:28,671 - speechbrain.utils.checkpoints - WARNING - During parameter transfer to ModuleList(
  (0): ConvAutoencoder(
    (encoder): Sequential(
      (0): Conv1d(1, 32, kernel_size=(15,), stride=(1,), padding=(7,))
      (1): GLU()
      (2): Conv1d(32, 64, kernel_size=(5,), stride=(2,), padding=(2,))
      (3): InstanceNorm1d(64, eps=1e-05, momentum=0.1, affine=True, track_running_stats=False)
      (4): GLU()
      (5): Conv1d(64, 128, kernel_size=(5,), stride=(2,), padding=(2,))
      (6): InstanceNorm1d(128, eps=1e-05, momentum=0.1, affine=True, track_running_stats=False)
      (7): GLU()
    )
    (decoder): Sequential(
      (0): Conv1d(128, 128, kernel_size=(5,), stride=(1,), padding=(2,))
      (1): ConvTranspose1d(128, 64, kernel_size=(5,), stride=(2,), padding=(2,), output_padding=(1,))
      (2): InstanceNorm1d(64, eps=1e-05, momentum=0.1, affine=True, track_running_stats=False)
      (3): GLU()
      (4): Conv1d(64, 64, kernel_size=(5,), stride=(1,), padding=(2,))
      (5): ConvTranspose1d(64, 32, kernel_size=(5,), stride=(2,), padding=(2,), output_padding=(1,))
      (6): InstanceNorm1d(32, eps=1e-05, momentum=0.1, affine=True, track_running_stats=False)
      (7): GLU()
      (8): Conv1d(32, 1, kernel_size=(15,), stride=(1,), padding=(7,))
    )
    (sex_classifier): SexClassifier(
      (fc1): Linear(in_features=256, out_features=128, bias=True)
      (fc2): Linear(in_features=128, out_features=2, bias=True)
    )
  )
) loading from model_checkpoints/asr_model.ckpt, the object could not use the parameters loaded with the key: 1.encoder.layers.2.self_att.att.out_proj.weight
2022-03-31 04:31:28,672 - speechbrain.utils.checkpoints - WARNING - During parameter transfer to ModuleList(
  (0): ConvAutoencoder(
    (encoder): Sequential(
      (0): Conv1d(1, 32, kernel_size=(15,), stride=(1,), padding=(7,))
      (1): GLU()
      (2): Conv1d(32, 64, kernel_size=(5,), stride=(2,), padding=(2,))
      (3): InstanceNorm1d(64, eps=1e-05, momentum=0.1, affine=True, track_running_stats=False)
      (4): GLU()
      (5): Conv1d(64, 128, kernel_size=(5,), stride=(2,), padding=(2,))
      (6): InstanceNorm1d(128, eps=1e-05, momentum=0.1, affine=True, track_running_stats=False)
      (7): GLU()
    )
    (decoder): Sequential(
      (0): Conv1d(128, 128, kernel_size=(5,), stride=(1,), padding=(2,))
      (1): ConvTranspose1d(128, 64, kernel_size=(5,), stride=(2,), padding=(2,), output_padding=(1,))
      (2): InstanceNorm1d(64, eps=1e-05, momentum=0.1, affine=True, track_running_stats=False)
      (3): GLU()
      (4): Conv1d(64, 64, kernel_size=(5,), stride=(1,), padding=(2,))
      (5): ConvTranspose1d(64, 32, kernel_size=(5,), stride=(2,), padding=(2,), output_padding=(1,))
      (6): InstanceNorm1d(32, eps=1e-05, momentum=0.1, affine=True, track_running_stats=False)
      (7): GLU()
      (8): Conv1d(32, 1, kernel_size=(15,), stride=(1,), padding=(7,))
    )
    (sex_classifier): SexClassifier(
      (fc1): Linear(in_features=256, out_features=128, bias=True)
      (fc2): Linear(in_features=128, out_features=2, bias=True)
    )
  )
) loading from model_checkpoints/asr_model.ckpt, the object could not use the parameters loaded with the key: 1.encoder.layers.2.self_att.att.out_proj.bias
2022-03-31 04:31:28,672 - speechbrain.utils.checkpoints - WARNING - During parameter transfer to ModuleList(
  (0): ConvAutoencoder(
    (encoder): Sequential(
      (0): Conv1d(1, 32, kernel_size=(15,), stride=(1,), padding=(7,))
      (1): GLU()
      (2): Conv1d(32, 64, kernel_size=(5,), stride=(2,), padding=(2,))
      (3): InstanceNorm1d(64, eps=1e-05, momentum=0.1, affine=True, track_running_stats=False)
      (4): GLU()
      (5): Conv1d(64, 128, kernel_size=(5,), stride=(2,), padding=(2,))
      (6): InstanceNorm1d(128, eps=1e-05, momentum=0.1, affine=True, track_running_stats=False)
      (7): GLU()
    )
    (decoder): Sequential(
      (0): Conv1d(128, 128, kernel_size=(5,), stride=(1,), padding=(2,))
      (1): ConvTranspose1d(128, 64, kernel_size=(5,), stride=(2,), padding=(2,), output_padding=(1,))
      (2): InstanceNorm1d(64, eps=1e-05, momentum=0.1, affine=True, track_running_stats=False)
      (3): GLU()
      (4): Conv1d(64, 64, kernel_size=(5,), stride=(1,), padding=(2,))
      (5): ConvTranspose1d(64, 32, kernel_size=(5,), stride=(2,), padding=(2,), output_padding=(1,))
      (6): InstanceNorm1d(32, eps=1e-05, momentum=0.1, affine=True, track_running_stats=False)
      (7): GLU()
      (8): Conv1d(32, 1, kernel_size=(15,), stride=(1,), padding=(7,))
    )
    (sex_classifier): SexClassifier(
      (fc1): Linear(in_features=256, out_features=128, bias=True)
      (fc2): Linear(in_features=128, out_features=2, bias=True)
    )
  )
) loading from model_checkpoints/asr_model.ckpt, the object could not use the parameters loaded with the key: 1.encoder.layers.2.pos_ffn.ffn.0.weight
2022-03-31 04:31:28,672 - speechbrain.utils.checkpoints - WARNING - During parameter transfer to ModuleList(
  (0): ConvAutoencoder(
    (encoder): Sequential(
      (0): Conv1d(1, 32, kernel_size=(15,), stride=(1,), padding=(7,))
      (1): GLU()
      (2): Conv1d(32, 64, kernel_size=(5,), stride=(2,), padding=(2,))
      (3): InstanceNorm1d(64, eps=1e-05, momentum=0.1, affine=True, track_running_stats=False)
      (4): GLU()
      (5): Conv1d(64, 128, kernel_size=(5,), stride=(2,), padding=(2,))
      (6): InstanceNorm1d(128, eps=1e-05, momentum=0.1, affine=True, track_running_stats=False)
      (7): GLU()
    )
    (decoder): Sequential(
      (0): Conv1d(128, 128, kernel_size=(5,), stride=(1,), padding=(2,))
      (1): ConvTranspose1d(128, 64, kernel_size=(5,), stride=(2,), padding=(2,), output_padding=(1,))
      (2): InstanceNorm1d(64, eps=1e-05, momentum=0.1, affine=True, track_running_stats=False)
      (3): GLU()
      (4): Conv1d(64, 64, kernel_size=(5,), stride=(1,), padding=(2,))
      (5): ConvTranspose1d(64, 32, kernel_size=(5,), stride=(2,), padding=(2,), output_padding=(1,))
      (6): InstanceNorm1d(32, eps=1e-05, momentum=0.1, affine=True, track_running_stats=False)
      (7): GLU()
      (8): Conv1d(32, 1, kernel_size=(15,), stride=(1,), padding=(7,))
    )
    (sex_classifier): SexClassifier(
      (fc1): Linear(in_features=256, out_features=128, bias=True)
      (fc2): Linear(in_features=128, out_features=2, bias=True)
    )
  )
) loading from model_checkpoints/asr_model.ckpt, the object could not use the parameters loaded with the key: 1.encoder.layers.2.pos_ffn.ffn.0.bias
2022-03-31 04:31:28,672 - speechbrain.utils.checkpoints - WARNING - During parameter transfer to ModuleList(
  (0): ConvAutoencoder(
    (encoder): Sequential(
      (0): Conv1d(1, 32, kernel_size=(15,), stride=(1,), padding=(7,))
      (1): GLU()
      (2): Conv1d(32, 64, kernel_size=(5,), stride=(2,), padding=(2,))
      (3): InstanceNorm1d(64, eps=1e-05, momentum=0.1, affine=True, track_running_stats=False)
      (4): GLU()
      (5): Conv1d(64, 128, kernel_size=(5,), stride=(2,), padding=(2,))
      (6): InstanceNorm1d(128, eps=1e-05, momentum=0.1, affine=True, track_running_stats=False)
      (7): GLU()
    )
    (decoder): Sequential(
      (0): Conv1d(128, 128, kernel_size=(5,), stride=(1,), padding=(2,))
      (1): ConvTranspose1d(128, 64, kernel_size=(5,), stride=(2,), padding=(2,), output_padding=(1,))
      (2): InstanceNorm1d(64, eps=1e-05, momentum=0.1, affine=True, track_running_stats=False)
      (3): GLU()
      (4): Conv1d(64, 64, kernel_size=(5,), stride=(1,), padding=(2,))
      (5): ConvTranspose1d(64, 32, kernel_size=(5,), stride=(2,), padding=(2,), output_padding=(1,))
      (6): InstanceNorm1d(32, eps=1e-05, momentum=0.1, affine=True, track_running_stats=False)
      (7): GLU()
      (8): Conv1d(32, 1, kernel_size=(15,), stride=(1,), padding=(7,))
    )
    (sex_classifier): SexClassifier(
      (fc1): Linear(in_features=256, out_features=128, bias=True)
      (fc2): Linear(in_features=128, out_features=2, bias=True)
    )
  )
) loading from model_checkpoints/asr_model.ckpt, the object could not use the parameters loaded with the key: 1.encoder.layers.2.pos_ffn.ffn.3.weight
2022-03-31 04:31:28,673 - speechbrain.utils.checkpoints - WARNING - During parameter transfer to ModuleList(
  (0): ConvAutoencoder(
    (encoder): Sequential(
      (0): Conv1d(1, 32, kernel_size=(15,), stride=(1,), padding=(7,))
      (1): GLU()
      (2): Conv1d(32, 64, kernel_size=(5,), stride=(2,), padding=(2,))
      (3): InstanceNorm1d(64, eps=1e-05, momentum=0.1, affine=True, track_running_stats=False)
      (4): GLU()
      (5): Conv1d(64, 128, kernel_size=(5,), stride=(2,), padding=(2,))
      (6): InstanceNorm1d(128, eps=1e-05, momentum=0.1, affine=True, track_running_stats=False)
      (7): GLU()
    )
    (decoder): Sequential(
      (0): Conv1d(128, 128, kernel_size=(5,), stride=(1,), padding=(2,))
      (1): ConvTranspose1d(128, 64, kernel_size=(5,), stride=(2,), padding=(2,), output_padding=(1,))
      (2): InstanceNorm1d(64, eps=1e-05, momentum=0.1, affine=True, track_running_stats=False)
      (3): GLU()
      (4): Conv1d(64, 64, kernel_size=(5,), stride=(1,), padding=(2,))
      (5): ConvTranspose1d(64, 32, kernel_size=(5,), stride=(2,), padding=(2,), output_padding=(1,))
      (6): InstanceNorm1d(32, eps=1e-05, momentum=0.1, affine=True, track_running_stats=False)
      (7): GLU()
      (8): Conv1d(32, 1, kernel_size=(15,), stride=(1,), padding=(7,))
    )
    (sex_classifier): SexClassifier(
      (fc1): Linear(in_features=256, out_features=128, bias=True)
      (fc2): Linear(in_features=128, out_features=2, bias=True)
    )
  )
) loading from model_checkpoints/asr_model.ckpt, the object could not use the parameters loaded with the key: 1.encoder.layers.2.pos_ffn.ffn.3.bias
2022-03-31 04:31:28,673 - speechbrain.utils.checkpoints - WARNING - During parameter transfer to ModuleList(
  (0): ConvAutoencoder(
    (encoder): Sequential(
      (0): Conv1d(1, 32, kernel_size=(15,), stride=(1,), padding=(7,))
      (1): GLU()
      (2): Conv1d(32, 64, kernel_size=(5,), stride=(2,), padding=(2,))
      (3): InstanceNorm1d(64, eps=1e-05, momentum=0.1, affine=True, track_running_stats=False)
      (4): GLU()
      (5): Conv1d(64, 128, kernel_size=(5,), stride=(2,), padding=(2,))
      (6): InstanceNorm1d(128, eps=1e-05, momentum=0.1, affine=True, track_running_stats=False)
      (7): GLU()
    )
    (decoder): Sequential(
      (0): Conv1d(128, 128, kernel_size=(5,), stride=(1,), padding=(2,))
      (1): ConvTranspose1d(128, 64, kernel_size=(5,), stride=(2,), padding=(2,), output_padding=(1,))
      (2): InstanceNorm1d(64, eps=1e-05, momentum=0.1, affine=True, track_running_stats=False)
      (3): GLU()
      (4): Conv1d(64, 64, kernel_size=(5,), stride=(1,), padding=(2,))
      (5): ConvTranspose1d(64, 32, kernel_size=(5,), stride=(2,), padding=(2,), output_padding=(1,))
      (6): InstanceNorm1d(32, eps=1e-05, momentum=0.1, affine=True, track_running_stats=False)
      (7): GLU()
      (8): Conv1d(32, 1, kernel_size=(15,), stride=(1,), padding=(7,))
    )
    (sex_classifier): SexClassifier(
      (fc1): Linear(in_features=256, out_features=128, bias=True)
      (fc2): Linear(in_features=128, out_features=2, bias=True)
    )
  )
) loading from model_checkpoints/asr_model.ckpt, the object could not use the parameters loaded with the key: 1.encoder.layers.2.norm1.norm.weight
2022-03-31 04:31:28,674 - speechbrain.utils.checkpoints - WARNING - During parameter transfer to ModuleList(
  (0): ConvAutoencoder(
    (encoder): Sequential(
      (0): Conv1d(1, 32, kernel_size=(15,), stride=(1,), padding=(7,))
      (1): GLU()
      (2): Conv1d(32, 64, kernel_size=(5,), stride=(2,), padding=(2,))
      (3): InstanceNorm1d(64, eps=1e-05, momentum=0.1, affine=True, track_running_stats=False)
      (4): GLU()
      (5): Conv1d(64, 128, kernel_size=(5,), stride=(2,), padding=(2,))
      (6): InstanceNorm1d(128, eps=1e-05, momentum=0.1, affine=True, track_running_stats=False)
      (7): GLU()
    )
    (decoder): Sequential(
      (0): Conv1d(128, 128, kernel_size=(5,), stride=(1,), padding=(2,))
      (1): ConvTranspose1d(128, 64, kernel_size=(5,), stride=(2,), padding=(2,), output_padding=(1,))
      (2): InstanceNorm1d(64, eps=1e-05, momentum=0.1, affine=True, track_running_stats=False)
      (3): GLU()
      (4): Conv1d(64, 64, kernel_size=(5,), stride=(1,), padding=(2,))
      (5): ConvTranspose1d(64, 32, kernel_size=(5,), stride=(2,), padding=(2,), output_padding=(1,))
      (6): InstanceNorm1d(32, eps=1e-05, momentum=0.1, affine=True, track_running_stats=False)
      (7): GLU()
      (8): Conv1d(32, 1, kernel_size=(15,), stride=(1,), padding=(7,))
    )
    (sex_classifier): SexClassifier(
      (fc1): Linear(in_features=256, out_features=128, bias=True)
      (fc2): Linear(in_features=128, out_features=2, bias=True)
    )
  )
) loading from model_checkpoints/asr_model.ckpt, the object could not use the parameters loaded with the key: 1.encoder.layers.2.norm1.norm.bias
2022-03-31 04:31:28,674 - speechbrain.utils.checkpoints - WARNING - During parameter transfer to ModuleList(
  (0): ConvAutoencoder(
    (encoder): Sequential(
      (0): Conv1d(1, 32, kernel_size=(15,), stride=(1,), padding=(7,))
      (1): GLU()
      (2): Conv1d(32, 64, kernel_size=(5,), stride=(2,), padding=(2,))
      (3): InstanceNorm1d(64, eps=1e-05, momentum=0.1, affine=True, track_running_stats=False)
      (4): GLU()
      (5): Conv1d(64, 128, kernel_size=(5,), stride=(2,), padding=(2,))
      (6): InstanceNorm1d(128, eps=1e-05, momentum=0.1, affine=True, track_running_stats=False)
      (7): GLU()
    )
    (decoder): Sequential(
      (0): Conv1d(128, 128, kernel_size=(5,), stride=(1,), padding=(2,))
      (1): ConvTranspose1d(128, 64, kernel_size=(5,), stride=(2,), padding=(2,), output_padding=(1,))
      (2): InstanceNorm1d(64, eps=1e-05, momentum=0.1, affine=True, track_running_stats=False)
      (3): GLU()
      (4): Conv1d(64, 64, kernel_size=(5,), stride=(1,), padding=(2,))
      (5): ConvTranspose1d(64, 32, kernel_size=(5,), stride=(2,), padding=(2,), output_padding=(1,))
      (6): InstanceNorm1d(32, eps=1e-05, momentum=0.1, affine=True, track_running_stats=False)
      (7): GLU()
      (8): Conv1d(32, 1, kernel_size=(15,), stride=(1,), padding=(7,))
    )
    (sex_classifier): SexClassifier(
      (fc1): Linear(in_features=256, out_features=128, bias=True)
      (fc2): Linear(in_features=128, out_features=2, bias=True)
    )
  )
) loading from model_checkpoints/asr_model.ckpt, the object could not use the parameters loaded with the key: 1.encoder.layers.2.norm2.norm.weight
2022-03-31 04:31:28,674 - speechbrain.utils.checkpoints - WARNING - During parameter transfer to ModuleList(
  (0): ConvAutoencoder(
    (encoder): Sequential(
      (0): Conv1d(1, 32, kernel_size=(15,), stride=(1,), padding=(7,))
      (1): GLU()
      (2): Conv1d(32, 64, kernel_size=(5,), stride=(2,), padding=(2,))
      (3): InstanceNorm1d(64, eps=1e-05, momentum=0.1, affine=True, track_running_stats=False)
      (4): GLU()
      (5): Conv1d(64, 128, kernel_size=(5,), stride=(2,), padding=(2,))
      (6): InstanceNorm1d(128, eps=1e-05, momentum=0.1, affine=True, track_running_stats=False)
      (7): GLU()
    )
    (decoder): Sequential(
      (0): Conv1d(128, 128, kernel_size=(5,), stride=(1,), padding=(2,))
      (1): ConvTranspose1d(128, 64, kernel_size=(5,), stride=(2,), padding=(2,), output_padding=(1,))
      (2): InstanceNorm1d(64, eps=1e-05, momentum=0.1, affine=True, track_running_stats=False)
      (3): GLU()
      (4): Conv1d(64, 64, kernel_size=(5,), stride=(1,), padding=(2,))
      (5): ConvTranspose1d(64, 32, kernel_size=(5,), stride=(2,), padding=(2,), output_padding=(1,))
      (6): InstanceNorm1d(32, eps=1e-05, momentum=0.1, affine=True, track_running_stats=False)
      (7): GLU()
      (8): Conv1d(32, 1, kernel_size=(15,), stride=(1,), padding=(7,))
    )
    (sex_classifier): SexClassifier(
      (fc1): Linear(in_features=256, out_features=128, bias=True)
      (fc2): Linear(in_features=128, out_features=2, bias=True)
    )
  )
) loading from model_checkpoints/asr_model.ckpt, the object could not use the parameters loaded with the key: 1.encoder.layers.2.norm2.norm.bias
2022-03-31 04:31:28,675 - speechbrain.utils.checkpoints - WARNING - During parameter transfer to ModuleList(
  (0): ConvAutoencoder(
    (encoder): Sequential(
      (0): Conv1d(1, 32, kernel_size=(15,), stride=(1,), padding=(7,))
      (1): GLU()
      (2): Conv1d(32, 64, kernel_size=(5,), stride=(2,), padding=(2,))
      (3): InstanceNorm1d(64, eps=1e-05, momentum=0.1, affine=True, track_running_stats=False)
      (4): GLU()
      (5): Conv1d(64, 128, kernel_size=(5,), stride=(2,), padding=(2,))
      (6): InstanceNorm1d(128, eps=1e-05, momentum=0.1, affine=True, track_running_stats=False)
      (7): GLU()
    )
    (decoder): Sequential(
      (0): Conv1d(128, 128, kernel_size=(5,), stride=(1,), padding=(2,))
      (1): ConvTranspose1d(128, 64, kernel_size=(5,), stride=(2,), padding=(2,), output_padding=(1,))
      (2): InstanceNorm1d(64, eps=1e-05, momentum=0.1, affine=True, track_running_stats=False)
      (3): GLU()
      (4): Conv1d(64, 64, kernel_size=(5,), stride=(1,), padding=(2,))
      (5): ConvTranspose1d(64, 32, kernel_size=(5,), stride=(2,), padding=(2,), output_padding=(1,))
      (6): InstanceNorm1d(32, eps=1e-05, momentum=0.1, affine=True, track_running_stats=False)
      (7): GLU()
      (8): Conv1d(32, 1, kernel_size=(15,), stride=(1,), padding=(7,))
    )
    (sex_classifier): SexClassifier(
      (fc1): Linear(in_features=256, out_features=128, bias=True)
      (fc2): Linear(in_features=128, out_features=2, bias=True)
    )
  )
) loading from model_checkpoints/asr_model.ckpt, the object could not use the parameters loaded with the key: 1.encoder.layers.3.self_att.att.in_proj_weight
2022-03-31 04:31:28,675 - speechbrain.utils.checkpoints - WARNING - During parameter transfer to ModuleList(
  (0): ConvAutoencoder(
    (encoder): Sequential(
      (0): Conv1d(1, 32, kernel_size=(15,), stride=(1,), padding=(7,))
      (1): GLU()
      (2): Conv1d(32, 64, kernel_size=(5,), stride=(2,), padding=(2,))
      (3): InstanceNorm1d(64, eps=1e-05, momentum=0.1, affine=True, track_running_stats=False)
      (4): GLU()
      (5): Conv1d(64, 128, kernel_size=(5,), stride=(2,), padding=(2,))
      (6): InstanceNorm1d(128, eps=1e-05, momentum=0.1, affine=True, track_running_stats=False)
      (7): GLU()
    )
    (decoder): Sequential(
      (0): Conv1d(128, 128, kernel_size=(5,), stride=(1,), padding=(2,))
      (1): ConvTranspose1d(128, 64, kernel_size=(5,), stride=(2,), padding=(2,), output_padding=(1,))
      (2): InstanceNorm1d(64, eps=1e-05, momentum=0.1, affine=True, track_running_stats=False)
      (3): GLU()
      (4): Conv1d(64, 64, kernel_size=(5,), stride=(1,), padding=(2,))
      (5): ConvTranspose1d(64, 32, kernel_size=(5,), stride=(2,), padding=(2,), output_padding=(1,))
      (6): InstanceNorm1d(32, eps=1e-05, momentum=0.1, affine=True, track_running_stats=False)
      (7): GLU()
      (8): Conv1d(32, 1, kernel_size=(15,), stride=(1,), padding=(7,))
    )
    (sex_classifier): SexClassifier(
      (fc1): Linear(in_features=256, out_features=128, bias=True)
      (fc2): Linear(in_features=128, out_features=2, bias=True)
    )
  )
) loading from model_checkpoints/asr_model.ckpt, the object could not use the parameters loaded with the key: 1.encoder.layers.3.self_att.att.in_proj_bias
2022-03-31 04:31:28,675 - speechbrain.utils.checkpoints - WARNING - During parameter transfer to ModuleList(
  (0): ConvAutoencoder(
    (encoder): Sequential(
      (0): Conv1d(1, 32, kernel_size=(15,), stride=(1,), padding=(7,))
      (1): GLU()
      (2): Conv1d(32, 64, kernel_size=(5,), stride=(2,), padding=(2,))
      (3): InstanceNorm1d(64, eps=1e-05, momentum=0.1, affine=True, track_running_stats=False)
      (4): GLU()
      (5): Conv1d(64, 128, kernel_size=(5,), stride=(2,), padding=(2,))
      (6): InstanceNorm1d(128, eps=1e-05, momentum=0.1, affine=True, track_running_stats=False)
      (7): GLU()
    )
    (decoder): Sequential(
      (0): Conv1d(128, 128, kernel_size=(5,), stride=(1,), padding=(2,))
      (1): ConvTranspose1d(128, 64, kernel_size=(5,), stride=(2,), padding=(2,), output_padding=(1,))
      (2): InstanceNorm1d(64, eps=1e-05, momentum=0.1, affine=True, track_running_stats=False)
      (3): GLU()
      (4): Conv1d(64, 64, kernel_size=(5,), stride=(1,), padding=(2,))
      (5): ConvTranspose1d(64, 32, kernel_size=(5,), stride=(2,), padding=(2,), output_padding=(1,))
      (6): InstanceNorm1d(32, eps=1e-05, momentum=0.1, affine=True, track_running_stats=False)
      (7): GLU()
      (8): Conv1d(32, 1, kernel_size=(15,), stride=(1,), padding=(7,))
    )
    (sex_classifier): SexClassifier(
      (fc1): Linear(in_features=256, out_features=128, bias=True)
      (fc2): Linear(in_features=128, out_features=2, bias=True)
    )
  )
) loading from model_checkpoints/asr_model.ckpt, the object could not use the parameters loaded with the key: 1.encoder.layers.3.self_att.att.out_proj.weight
2022-03-31 04:31:28,675 - speechbrain.utils.checkpoints - WARNING - During parameter transfer to ModuleList(
  (0): ConvAutoencoder(
    (encoder): Sequential(
      (0): Conv1d(1, 32, kernel_size=(15,), stride=(1,), padding=(7,))
      (1): GLU()
      (2): Conv1d(32, 64, kernel_size=(5,), stride=(2,), padding=(2,))
      (3): InstanceNorm1d(64, eps=1e-05, momentum=0.1, affine=True, track_running_stats=False)
      (4): GLU()
      (5): Conv1d(64, 128, kernel_size=(5,), stride=(2,), padding=(2,))
      (6): InstanceNorm1d(128, eps=1e-05, momentum=0.1, affine=True, track_running_stats=False)
      (7): GLU()
    )
    (decoder): Sequential(
      (0): Conv1d(128, 128, kernel_size=(5,), stride=(1,), padding=(2,))
      (1): ConvTranspose1d(128, 64, kernel_size=(5,), stride=(2,), padding=(2,), output_padding=(1,))
      (2): InstanceNorm1d(64, eps=1e-05, momentum=0.1, affine=True, track_running_stats=False)
      (3): GLU()
      (4): Conv1d(64, 64, kernel_size=(5,), stride=(1,), padding=(2,))
      (5): ConvTranspose1d(64, 32, kernel_size=(5,), stride=(2,), padding=(2,), output_padding=(1,))
      (6): InstanceNorm1d(32, eps=1e-05, momentum=0.1, affine=True, track_running_stats=False)
      (7): GLU()
      (8): Conv1d(32, 1, kernel_size=(15,), stride=(1,), padding=(7,))
    )
    (sex_classifier): SexClassifier(
      (fc1): Linear(in_features=256, out_features=128, bias=True)
      (fc2): Linear(in_features=128, out_features=2, bias=True)
    )
  )
) loading from model_checkpoints/asr_model.ckpt, the object could not use the parameters loaded with the key: 1.encoder.layers.3.self_att.att.out_proj.bias
2022-03-31 04:31:28,676 - speechbrain.utils.checkpoints - WARNING - During parameter transfer to ModuleList(
  (0): ConvAutoencoder(
    (encoder): Sequential(
      (0): Conv1d(1, 32, kernel_size=(15,), stride=(1,), padding=(7,))
      (1): GLU()
      (2): Conv1d(32, 64, kernel_size=(5,), stride=(2,), padding=(2,))
      (3): InstanceNorm1d(64, eps=1e-05, momentum=0.1, affine=True, track_running_stats=False)
      (4): GLU()
      (5): Conv1d(64, 128, kernel_size=(5,), stride=(2,), padding=(2,))
      (6): InstanceNorm1d(128, eps=1e-05, momentum=0.1, affine=True, track_running_stats=False)
      (7): GLU()
    )
    (decoder): Sequential(
      (0): Conv1d(128, 128, kernel_size=(5,), stride=(1,), padding=(2,))
      (1): ConvTranspose1d(128, 64, kernel_size=(5,), stride=(2,), padding=(2,), output_padding=(1,))
      (2): InstanceNorm1d(64, eps=1e-05, momentum=0.1, affine=True, track_running_stats=False)
      (3): GLU()
      (4): Conv1d(64, 64, kernel_size=(5,), stride=(1,), padding=(2,))
      (5): ConvTranspose1d(64, 32, kernel_size=(5,), stride=(2,), padding=(2,), output_padding=(1,))
      (6): InstanceNorm1d(32, eps=1e-05, momentum=0.1, affine=True, track_running_stats=False)
      (7): GLU()
      (8): Conv1d(32, 1, kernel_size=(15,), stride=(1,), padding=(7,))
    )
    (sex_classifier): SexClassifier(
      (fc1): Linear(in_features=256, out_features=128, bias=True)
      (fc2): Linear(in_features=128, out_features=2, bias=True)
    )
  )
) loading from model_checkpoints/asr_model.ckpt, the object could not use the parameters loaded with the key: 1.encoder.layers.3.pos_ffn.ffn.0.weight
2022-03-31 04:31:28,676 - speechbrain.utils.checkpoints - WARNING - During parameter transfer to ModuleList(
  (0): ConvAutoencoder(
    (encoder): Sequential(
      (0): Conv1d(1, 32, kernel_size=(15,), stride=(1,), padding=(7,))
      (1): GLU()
      (2): Conv1d(32, 64, kernel_size=(5,), stride=(2,), padding=(2,))
      (3): InstanceNorm1d(64, eps=1e-05, momentum=0.1, affine=True, track_running_stats=False)
      (4): GLU()
      (5): Conv1d(64, 128, kernel_size=(5,), stride=(2,), padding=(2,))
      (6): InstanceNorm1d(128, eps=1e-05, momentum=0.1, affine=True, track_running_stats=False)
      (7): GLU()
    )
    (decoder): Sequential(
      (0): Conv1d(128, 128, kernel_size=(5,), stride=(1,), padding=(2,))
      (1): ConvTranspose1d(128, 64, kernel_size=(5,), stride=(2,), padding=(2,), output_padding=(1,))
      (2): InstanceNorm1d(64, eps=1e-05, momentum=0.1, affine=True, track_running_stats=False)
      (3): GLU()
      (4): Conv1d(64, 64, kernel_size=(5,), stride=(1,), padding=(2,))
      (5): ConvTranspose1d(64, 32, kernel_size=(5,), stride=(2,), padding=(2,), output_padding=(1,))
      (6): InstanceNorm1d(32, eps=1e-05, momentum=0.1, affine=True, track_running_stats=False)
      (7): GLU()
      (8): Conv1d(32, 1, kernel_size=(15,), stride=(1,), padding=(7,))
    )
    (sex_classifier): SexClassifier(
      (fc1): Linear(in_features=256, out_features=128, bias=True)
      (fc2): Linear(in_features=128, out_features=2, bias=True)
    )
  )
) loading from model_checkpoints/asr_model.ckpt, the object could not use the parameters loaded with the key: 1.encoder.layers.3.pos_ffn.ffn.0.bias
2022-03-31 04:31:28,676 - speechbrain.utils.checkpoints - WARNING - During parameter transfer to ModuleList(
  (0): ConvAutoencoder(
    (encoder): Sequential(
      (0): Conv1d(1, 32, kernel_size=(15,), stride=(1,), padding=(7,))
      (1): GLU()
      (2): Conv1d(32, 64, kernel_size=(5,), stride=(2,), padding=(2,))
      (3): InstanceNorm1d(64, eps=1e-05, momentum=0.1, affine=True, track_running_stats=False)
      (4): GLU()
      (5): Conv1d(64, 128, kernel_size=(5,), stride=(2,), padding=(2,))
      (6): InstanceNorm1d(128, eps=1e-05, momentum=0.1, affine=True, track_running_stats=False)
      (7): GLU()
    )
    (decoder): Sequential(
      (0): Conv1d(128, 128, kernel_size=(5,), stride=(1,), padding=(2,))
      (1): ConvTranspose1d(128, 64, kernel_size=(5,), stride=(2,), padding=(2,), output_padding=(1,))
      (2): InstanceNorm1d(64, eps=1e-05, momentum=0.1, affine=True, track_running_stats=False)
      (3): GLU()
      (4): Conv1d(64, 64, kernel_size=(5,), stride=(1,), padding=(2,))
      (5): ConvTranspose1d(64, 32, kernel_size=(5,), stride=(2,), padding=(2,), output_padding=(1,))
      (6): InstanceNorm1d(32, eps=1e-05, momentum=0.1, affine=True, track_running_stats=False)
      (7): GLU()
      (8): Conv1d(32, 1, kernel_size=(15,), stride=(1,), padding=(7,))
    )
    (sex_classifier): SexClassifier(
      (fc1): Linear(in_features=256, out_features=128, bias=True)
      (fc2): Linear(in_features=128, out_features=2, bias=True)
    )
  )
) loading from model_checkpoints/asr_model.ckpt, the object could not use the parameters loaded with the key: 1.encoder.layers.3.pos_ffn.ffn.3.weight
2022-03-31 04:31:28,677 - speechbrain.utils.checkpoints - WARNING - During parameter transfer to ModuleList(
  (0): ConvAutoencoder(
    (encoder): Sequential(
      (0): Conv1d(1, 32, kernel_size=(15,), stride=(1,), padding=(7,))
      (1): GLU()
      (2): Conv1d(32, 64, kernel_size=(5,), stride=(2,), padding=(2,))
      (3): InstanceNorm1d(64, eps=1e-05, momentum=0.1, affine=True, track_running_stats=False)
      (4): GLU()
      (5): Conv1d(64, 128, kernel_size=(5,), stride=(2,), padding=(2,))
      (6): InstanceNorm1d(128, eps=1e-05, momentum=0.1, affine=True, track_running_stats=False)
      (7): GLU()
    )
    (decoder): Sequential(
      (0): Conv1d(128, 128, kernel_size=(5,), stride=(1,), padding=(2,))
      (1): ConvTranspose1d(128, 64, kernel_size=(5,), stride=(2,), padding=(2,), output_padding=(1,))
      (2): InstanceNorm1d(64, eps=1e-05, momentum=0.1, affine=True, track_running_stats=False)
      (3): GLU()
      (4): Conv1d(64, 64, kernel_size=(5,), stride=(1,), padding=(2,))
      (5): ConvTranspose1d(64, 32, kernel_size=(5,), stride=(2,), padding=(2,), output_padding=(1,))
      (6): InstanceNorm1d(32, eps=1e-05, momentum=0.1, affine=True, track_running_stats=False)
      (7): GLU()
      (8): Conv1d(32, 1, kernel_size=(15,), stride=(1,), padding=(7,))
    )
    (sex_classifier): SexClassifier(
      (fc1): Linear(in_features=256, out_features=128, bias=True)
      (fc2): Linear(in_features=128, out_features=2, bias=True)
    )
  )
) loading from model_checkpoints/asr_model.ckpt, the object could not use the parameters loaded with the key: 1.encoder.layers.3.pos_ffn.ffn.3.bias
2022-03-31 04:31:28,677 - speechbrain.utils.checkpoints - WARNING - During parameter transfer to ModuleList(
  (0): ConvAutoencoder(
    (encoder): Sequential(
      (0): Conv1d(1, 32, kernel_size=(15,), stride=(1,), padding=(7,))
      (1): GLU()
      (2): Conv1d(32, 64, kernel_size=(5,), stride=(2,), padding=(2,))
      (3): InstanceNorm1d(64, eps=1e-05, momentum=0.1, affine=True, track_running_stats=False)
      (4): GLU()
      (5): Conv1d(64, 128, kernel_size=(5,), stride=(2,), padding=(2,))
      (6): InstanceNorm1d(128, eps=1e-05, momentum=0.1, affine=True, track_running_stats=False)
      (7): GLU()
    )
    (decoder): Sequential(
      (0): Conv1d(128, 128, kernel_size=(5,), stride=(1,), padding=(2,))
      (1): ConvTranspose1d(128, 64, kernel_size=(5,), stride=(2,), padding=(2,), output_padding=(1,))
      (2): InstanceNorm1d(64, eps=1e-05, momentum=0.1, affine=True, track_running_stats=False)
      (3): GLU()
      (4): Conv1d(64, 64, kernel_size=(5,), stride=(1,), padding=(2,))
      (5): ConvTranspose1d(64, 32, kernel_size=(5,), stride=(2,), padding=(2,), output_padding=(1,))
      (6): InstanceNorm1d(32, eps=1e-05, momentum=0.1, affine=True, track_running_stats=False)
      (7): GLU()
      (8): Conv1d(32, 1, kernel_size=(15,), stride=(1,), padding=(7,))
    )
    (sex_classifier): SexClassifier(
      (fc1): Linear(in_features=256, out_features=128, bias=True)
      (fc2): Linear(in_features=128, out_features=2, bias=True)
    )
  )
) loading from model_checkpoints/asr_model.ckpt, the object could not use the parameters loaded with the key: 1.encoder.layers.3.norm1.norm.weight
2022-03-31 04:31:28,677 - speechbrain.utils.checkpoints - WARNING - During parameter transfer to ModuleList(
  (0): ConvAutoencoder(
    (encoder): Sequential(
      (0): Conv1d(1, 32, kernel_size=(15,), stride=(1,), padding=(7,))
      (1): GLU()
      (2): Conv1d(32, 64, kernel_size=(5,), stride=(2,), padding=(2,))
      (3): InstanceNorm1d(64, eps=1e-05, momentum=0.1, affine=True, track_running_stats=False)
      (4): GLU()
      (5): Conv1d(64, 128, kernel_size=(5,), stride=(2,), padding=(2,))
      (6): InstanceNorm1d(128, eps=1e-05, momentum=0.1, affine=True, track_running_stats=False)
      (7): GLU()
    )
    (decoder): Sequential(
      (0): Conv1d(128, 128, kernel_size=(5,), stride=(1,), padding=(2,))
      (1): ConvTranspose1d(128, 64, kernel_size=(5,), stride=(2,), padding=(2,), output_padding=(1,))
      (2): InstanceNorm1d(64, eps=1e-05, momentum=0.1, affine=True, track_running_stats=False)
      (3): GLU()
      (4): Conv1d(64, 64, kernel_size=(5,), stride=(1,), padding=(2,))
      (5): ConvTranspose1d(64, 32, kernel_size=(5,), stride=(2,), padding=(2,), output_padding=(1,))
      (6): InstanceNorm1d(32, eps=1e-05, momentum=0.1, affine=True, track_running_stats=False)
      (7): GLU()
      (8): Conv1d(32, 1, kernel_size=(15,), stride=(1,), padding=(7,))
    )
    (sex_classifier): SexClassifier(
      (fc1): Linear(in_features=256, out_features=128, bias=True)
      (fc2): Linear(in_features=128, out_features=2, bias=True)
    )
  )
) loading from model_checkpoints/asr_model.ckpt, the object could not use the parameters loaded with the key: 1.encoder.layers.3.norm1.norm.bias
2022-03-31 04:31:28,677 - speechbrain.utils.checkpoints - WARNING - During parameter transfer to ModuleList(
  (0): ConvAutoencoder(
    (encoder): Sequential(
      (0): Conv1d(1, 32, kernel_size=(15,), stride=(1,), padding=(7,))
      (1): GLU()
      (2): Conv1d(32, 64, kernel_size=(5,), stride=(2,), padding=(2,))
      (3): InstanceNorm1d(64, eps=1e-05, momentum=0.1, affine=True, track_running_stats=False)
      (4): GLU()
      (5): Conv1d(64, 128, kernel_size=(5,), stride=(2,), padding=(2,))
      (6): InstanceNorm1d(128, eps=1e-05, momentum=0.1, affine=True, track_running_stats=False)
      (7): GLU()
    )
    (decoder): Sequential(
      (0): Conv1d(128, 128, kernel_size=(5,), stride=(1,), padding=(2,))
      (1): ConvTranspose1d(128, 64, kernel_size=(5,), stride=(2,), padding=(2,), output_padding=(1,))
      (2): InstanceNorm1d(64, eps=1e-05, momentum=0.1, affine=True, track_running_stats=False)
      (3): GLU()
      (4): Conv1d(64, 64, kernel_size=(5,), stride=(1,), padding=(2,))
      (5): ConvTranspose1d(64, 32, kernel_size=(5,), stride=(2,), padding=(2,), output_padding=(1,))
      (6): InstanceNorm1d(32, eps=1e-05, momentum=0.1, affine=True, track_running_stats=False)
      (7): GLU()
      (8): Conv1d(32, 1, kernel_size=(15,), stride=(1,), padding=(7,))
    )
    (sex_classifier): SexClassifier(
      (fc1): Linear(in_features=256, out_features=128, bias=True)
      (fc2): Linear(in_features=128, out_features=2, bias=True)
    )
  )
) loading from model_checkpoints/asr_model.ckpt, the object could not use the parameters loaded with the key: 1.encoder.layers.3.norm2.norm.weight
2022-03-31 04:31:28,678 - speechbrain.utils.checkpoints - WARNING - During parameter transfer to ModuleList(
  (0): ConvAutoencoder(
    (encoder): Sequential(
      (0): Conv1d(1, 32, kernel_size=(15,), stride=(1,), padding=(7,))
      (1): GLU()
      (2): Conv1d(32, 64, kernel_size=(5,), stride=(2,), padding=(2,))
      (3): InstanceNorm1d(64, eps=1e-05, momentum=0.1, affine=True, track_running_stats=False)
      (4): GLU()
      (5): Conv1d(64, 128, kernel_size=(5,), stride=(2,), padding=(2,))
      (6): InstanceNorm1d(128, eps=1e-05, momentum=0.1, affine=True, track_running_stats=False)
      (7): GLU()
    )
    (decoder): Sequential(
      (0): Conv1d(128, 128, kernel_size=(5,), stride=(1,), padding=(2,))
      (1): ConvTranspose1d(128, 64, kernel_size=(5,), stride=(2,), padding=(2,), output_padding=(1,))
      (2): InstanceNorm1d(64, eps=1e-05, momentum=0.1, affine=True, track_running_stats=False)
      (3): GLU()
      (4): Conv1d(64, 64, kernel_size=(5,), stride=(1,), padding=(2,))
      (5): ConvTranspose1d(64, 32, kernel_size=(5,), stride=(2,), padding=(2,), output_padding=(1,))
      (6): InstanceNorm1d(32, eps=1e-05, momentum=0.1, affine=True, track_running_stats=False)
      (7): GLU()
      (8): Conv1d(32, 1, kernel_size=(15,), stride=(1,), padding=(7,))
    )
    (sex_classifier): SexClassifier(
      (fc1): Linear(in_features=256, out_features=128, bias=True)
      (fc2): Linear(in_features=128, out_features=2, bias=True)
    )
  )
) loading from model_checkpoints/asr_model.ckpt, the object could not use the parameters loaded with the key: 1.encoder.layers.3.norm2.norm.bias
2022-03-31 04:31:28,678 - speechbrain.utils.checkpoints - WARNING - During parameter transfer to ModuleList(
  (0): ConvAutoencoder(
    (encoder): Sequential(
      (0): Conv1d(1, 32, kernel_size=(15,), stride=(1,), padding=(7,))
      (1): GLU()
      (2): Conv1d(32, 64, kernel_size=(5,), stride=(2,), padding=(2,))
      (3): InstanceNorm1d(64, eps=1e-05, momentum=0.1, affine=True, track_running_stats=False)
      (4): GLU()
      (5): Conv1d(64, 128, kernel_size=(5,), stride=(2,), padding=(2,))
      (6): InstanceNorm1d(128, eps=1e-05, momentum=0.1, affine=True, track_running_stats=False)
      (7): GLU()
    )
    (decoder): Sequential(
      (0): Conv1d(128, 128, kernel_size=(5,), stride=(1,), padding=(2,))
      (1): ConvTranspose1d(128, 64, kernel_size=(5,), stride=(2,), padding=(2,), output_padding=(1,))
      (2): InstanceNorm1d(64, eps=1e-05, momentum=0.1, affine=True, track_running_stats=False)
      (3): GLU()
      (4): Conv1d(64, 64, kernel_size=(5,), stride=(1,), padding=(2,))
      (5): ConvTranspose1d(64, 32, kernel_size=(5,), stride=(2,), padding=(2,), output_padding=(1,))
      (6): InstanceNorm1d(32, eps=1e-05, momentum=0.1, affine=True, track_running_stats=False)
      (7): GLU()
      (8): Conv1d(32, 1, kernel_size=(15,), stride=(1,), padding=(7,))
    )
    (sex_classifier): SexClassifier(
      (fc1): Linear(in_features=256, out_features=128, bias=True)
      (fc2): Linear(in_features=128, out_features=2, bias=True)
    )
  )
) loading from model_checkpoints/asr_model.ckpt, the object could not use the parameters loaded with the key: 1.encoder.layers.4.self_att.att.in_proj_weight
2022-03-31 04:31:28,678 - speechbrain.utils.checkpoints - WARNING - During parameter transfer to ModuleList(
  (0): ConvAutoencoder(
    (encoder): Sequential(
      (0): Conv1d(1, 32, kernel_size=(15,), stride=(1,), padding=(7,))
      (1): GLU()
      (2): Conv1d(32, 64, kernel_size=(5,), stride=(2,), padding=(2,))
      (3): InstanceNorm1d(64, eps=1e-05, momentum=0.1, affine=True, track_running_stats=False)
      (4): GLU()
      (5): Conv1d(64, 128, kernel_size=(5,), stride=(2,), padding=(2,))
      (6): InstanceNorm1d(128, eps=1e-05, momentum=0.1, affine=True, track_running_stats=False)
      (7): GLU()
    )
    (decoder): Sequential(
      (0): Conv1d(128, 128, kernel_size=(5,), stride=(1,), padding=(2,))
      (1): ConvTranspose1d(128, 64, kernel_size=(5,), stride=(2,), padding=(2,), output_padding=(1,))
      (2): InstanceNorm1d(64, eps=1e-05, momentum=0.1, affine=True, track_running_stats=False)
      (3): GLU()
      (4): Conv1d(64, 64, kernel_size=(5,), stride=(1,), padding=(2,))
      (5): ConvTranspose1d(64, 32, kernel_size=(5,), stride=(2,), padding=(2,), output_padding=(1,))
      (6): InstanceNorm1d(32, eps=1e-05, momentum=0.1, affine=True, track_running_stats=False)
      (7): GLU()
      (8): Conv1d(32, 1, kernel_size=(15,), stride=(1,), padding=(7,))
    )
    (sex_classifier): SexClassifier(
      (fc1): Linear(in_features=256, out_features=128, bias=True)
      (fc2): Linear(in_features=128, out_features=2, bias=True)
    )
  )
) loading from model_checkpoints/asr_model.ckpt, the object could not use the parameters loaded with the key: 1.encoder.layers.4.self_att.att.in_proj_bias
2022-03-31 04:31:28,678 - speechbrain.utils.checkpoints - WARNING - During parameter transfer to ModuleList(
  (0): ConvAutoencoder(
    (encoder): Sequential(
      (0): Conv1d(1, 32, kernel_size=(15,), stride=(1,), padding=(7,))
      (1): GLU()
      (2): Conv1d(32, 64, kernel_size=(5,), stride=(2,), padding=(2,))
      (3): InstanceNorm1d(64, eps=1e-05, momentum=0.1, affine=True, track_running_stats=False)
      (4): GLU()
      (5): Conv1d(64, 128, kernel_size=(5,), stride=(2,), padding=(2,))
      (6): InstanceNorm1d(128, eps=1e-05, momentum=0.1, affine=True, track_running_stats=False)
      (7): GLU()
    )
    (decoder): Sequential(
      (0): Conv1d(128, 128, kernel_size=(5,), stride=(1,), padding=(2,))
      (1): ConvTranspose1d(128, 64, kernel_size=(5,), stride=(2,), padding=(2,), output_padding=(1,))
      (2): InstanceNorm1d(64, eps=1e-05, momentum=0.1, affine=True, track_running_stats=False)
      (3): GLU()
      (4): Conv1d(64, 64, kernel_size=(5,), stride=(1,), padding=(2,))
      (5): ConvTranspose1d(64, 32, kernel_size=(5,), stride=(2,), padding=(2,), output_padding=(1,))
      (6): InstanceNorm1d(32, eps=1e-05, momentum=0.1, affine=True, track_running_stats=False)
      (7): GLU()
      (8): Conv1d(32, 1, kernel_size=(15,), stride=(1,), padding=(7,))
    )
    (sex_classifier): SexClassifier(
      (fc1): Linear(in_features=256, out_features=128, bias=True)
      (fc2): Linear(in_features=128, out_features=2, bias=True)
    )
  )
) loading from model_checkpoints/asr_model.ckpt, the object could not use the parameters loaded with the key: 1.encoder.layers.4.self_att.att.out_proj.weight
2022-03-31 04:31:28,679 - speechbrain.utils.checkpoints - WARNING - During parameter transfer to ModuleList(
  (0): ConvAutoencoder(
    (encoder): Sequential(
      (0): Conv1d(1, 32, kernel_size=(15,), stride=(1,), padding=(7,))
      (1): GLU()
      (2): Conv1d(32, 64, kernel_size=(5,), stride=(2,), padding=(2,))
      (3): InstanceNorm1d(64, eps=1e-05, momentum=0.1, affine=True, track_running_stats=False)
      (4): GLU()
      (5): Conv1d(64, 128, kernel_size=(5,), stride=(2,), padding=(2,))
      (6): InstanceNorm1d(128, eps=1e-05, momentum=0.1, affine=True, track_running_stats=False)
      (7): GLU()
    )
    (decoder): Sequential(
      (0): Conv1d(128, 128, kernel_size=(5,), stride=(1,), padding=(2,))
      (1): ConvTranspose1d(128, 64, kernel_size=(5,), stride=(2,), padding=(2,), output_padding=(1,))
      (2): InstanceNorm1d(64, eps=1e-05, momentum=0.1, affine=True, track_running_stats=False)
      (3): GLU()
      (4): Conv1d(64, 64, kernel_size=(5,), stride=(1,), padding=(2,))
      (5): ConvTranspose1d(64, 32, kernel_size=(5,), stride=(2,), padding=(2,), output_padding=(1,))
      (6): InstanceNorm1d(32, eps=1e-05, momentum=0.1, affine=True, track_running_stats=False)
      (7): GLU()
      (8): Conv1d(32, 1, kernel_size=(15,), stride=(1,), padding=(7,))
    )
    (sex_classifier): SexClassifier(
      (fc1): Linear(in_features=256, out_features=128, bias=True)
      (fc2): Linear(in_features=128, out_features=2, bias=True)
    )
  )
) loading from model_checkpoints/asr_model.ckpt, the object could not use the parameters loaded with the key: 1.encoder.layers.4.self_att.att.out_proj.bias
2022-03-31 04:31:28,679 - speechbrain.utils.checkpoints - WARNING - During parameter transfer to ModuleList(
  (0): ConvAutoencoder(
    (encoder): Sequential(
      (0): Conv1d(1, 32, kernel_size=(15,), stride=(1,), padding=(7,))
      (1): GLU()
      (2): Conv1d(32, 64, kernel_size=(5,), stride=(2,), padding=(2,))
      (3): InstanceNorm1d(64, eps=1e-05, momentum=0.1, affine=True, track_running_stats=False)
      (4): GLU()
      (5): Conv1d(64, 128, kernel_size=(5,), stride=(2,), padding=(2,))
      (6): InstanceNorm1d(128, eps=1e-05, momentum=0.1, affine=True, track_running_stats=False)
      (7): GLU()
    )
    (decoder): Sequential(
      (0): Conv1d(128, 128, kernel_size=(5,), stride=(1,), padding=(2,))
      (1): ConvTranspose1d(128, 64, kernel_size=(5,), stride=(2,), padding=(2,), output_padding=(1,))
      (2): InstanceNorm1d(64, eps=1e-05, momentum=0.1, affine=True, track_running_stats=False)
      (3): GLU()
      (4): Conv1d(64, 64, kernel_size=(5,), stride=(1,), padding=(2,))
      (5): ConvTranspose1d(64, 32, kernel_size=(5,), stride=(2,), padding=(2,), output_padding=(1,))
      (6): InstanceNorm1d(32, eps=1e-05, momentum=0.1, affine=True, track_running_stats=False)
      (7): GLU()
      (8): Conv1d(32, 1, kernel_size=(15,), stride=(1,), padding=(7,))
    )
    (sex_classifier): SexClassifier(
      (fc1): Linear(in_features=256, out_features=128, bias=True)
      (fc2): Linear(in_features=128, out_features=2, bias=True)
    )
  )
) loading from model_checkpoints/asr_model.ckpt, the object could not use the parameters loaded with the key: 1.encoder.layers.4.pos_ffn.ffn.0.weight
2022-03-31 04:31:28,679 - speechbrain.utils.checkpoints - WARNING - During parameter transfer to ModuleList(
  (0): ConvAutoencoder(
    (encoder): Sequential(
      (0): Conv1d(1, 32, kernel_size=(15,), stride=(1,), padding=(7,))
      (1): GLU()
      (2): Conv1d(32, 64, kernel_size=(5,), stride=(2,), padding=(2,))
      (3): InstanceNorm1d(64, eps=1e-05, momentum=0.1, affine=True, track_running_stats=False)
      (4): GLU()
      (5): Conv1d(64, 128, kernel_size=(5,), stride=(2,), padding=(2,))
      (6): InstanceNorm1d(128, eps=1e-05, momentum=0.1, affine=True, track_running_stats=False)
      (7): GLU()
    )
    (decoder): Sequential(
      (0): Conv1d(128, 128, kernel_size=(5,), stride=(1,), padding=(2,))
      (1): ConvTranspose1d(128, 64, kernel_size=(5,), stride=(2,), padding=(2,), output_padding=(1,))
      (2): InstanceNorm1d(64, eps=1e-05, momentum=0.1, affine=True, track_running_stats=False)
      (3): GLU()
      (4): Conv1d(64, 64, kernel_size=(5,), stride=(1,), padding=(2,))
      (5): ConvTranspose1d(64, 32, kernel_size=(5,), stride=(2,), padding=(2,), output_padding=(1,))
      (6): InstanceNorm1d(32, eps=1e-05, momentum=0.1, affine=True, track_running_stats=False)
      (7): GLU()
      (8): Conv1d(32, 1, kernel_size=(15,), stride=(1,), padding=(7,))
    )
    (sex_classifier): SexClassifier(
      (fc1): Linear(in_features=256, out_features=128, bias=True)
      (fc2): Linear(in_features=128, out_features=2, bias=True)
    )
  )
) loading from model_checkpoints/asr_model.ckpt, the object could not use the parameters loaded with the key: 1.encoder.layers.4.pos_ffn.ffn.0.bias
2022-03-31 04:31:28,679 - speechbrain.utils.checkpoints - WARNING - During parameter transfer to ModuleList(
  (0): ConvAutoencoder(
    (encoder): Sequential(
      (0): Conv1d(1, 32, kernel_size=(15,), stride=(1,), padding=(7,))
      (1): GLU()
      (2): Conv1d(32, 64, kernel_size=(5,), stride=(2,), padding=(2,))
      (3): InstanceNorm1d(64, eps=1e-05, momentum=0.1, affine=True, track_running_stats=False)
      (4): GLU()
      (5): Conv1d(64, 128, kernel_size=(5,), stride=(2,), padding=(2,))
      (6): InstanceNorm1d(128, eps=1e-05, momentum=0.1, affine=True, track_running_stats=False)
      (7): GLU()
    )
    (decoder): Sequential(
      (0): Conv1d(128, 128, kernel_size=(5,), stride=(1,), padding=(2,))
      (1): ConvTranspose1d(128, 64, kernel_size=(5,), stride=(2,), padding=(2,), output_padding=(1,))
      (2): InstanceNorm1d(64, eps=1e-05, momentum=0.1, affine=True, track_running_stats=False)
      (3): GLU()
      (4): Conv1d(64, 64, kernel_size=(5,), stride=(1,), padding=(2,))
      (5): ConvTranspose1d(64, 32, kernel_size=(5,), stride=(2,), padding=(2,), output_padding=(1,))
      (6): InstanceNorm1d(32, eps=1e-05, momentum=0.1, affine=True, track_running_stats=False)
      (7): GLU()
      (8): Conv1d(32, 1, kernel_size=(15,), stride=(1,), padding=(7,))
    )
    (sex_classifier): SexClassifier(
      (fc1): Linear(in_features=256, out_features=128, bias=True)
      (fc2): Linear(in_features=128, out_features=2, bias=True)
    )
  )
) loading from model_checkpoints/asr_model.ckpt, the object could not use the parameters loaded with the key: 1.encoder.layers.4.pos_ffn.ffn.3.weight
2022-03-31 04:31:28,680 - speechbrain.utils.checkpoints - WARNING - During parameter transfer to ModuleList(
  (0): ConvAutoencoder(
    (encoder): Sequential(
      (0): Conv1d(1, 32, kernel_size=(15,), stride=(1,), padding=(7,))
      (1): GLU()
      (2): Conv1d(32, 64, kernel_size=(5,), stride=(2,), padding=(2,))
      (3): InstanceNorm1d(64, eps=1e-05, momentum=0.1, affine=True, track_running_stats=False)
      (4): GLU()
      (5): Conv1d(64, 128, kernel_size=(5,), stride=(2,), padding=(2,))
      (6): InstanceNorm1d(128, eps=1e-05, momentum=0.1, affine=True, track_running_stats=False)
      (7): GLU()
    )
    (decoder): Sequential(
      (0): Conv1d(128, 128, kernel_size=(5,), stride=(1,), padding=(2,))
      (1): ConvTranspose1d(128, 64, kernel_size=(5,), stride=(2,), padding=(2,), output_padding=(1,))
      (2): InstanceNorm1d(64, eps=1e-05, momentum=0.1, affine=True, track_running_stats=False)
      (3): GLU()
      (4): Conv1d(64, 64, kernel_size=(5,), stride=(1,), padding=(2,))
      (5): ConvTranspose1d(64, 32, kernel_size=(5,), stride=(2,), padding=(2,), output_padding=(1,))
      (6): InstanceNorm1d(32, eps=1e-05, momentum=0.1, affine=True, track_running_stats=False)
      (7): GLU()
      (8): Conv1d(32, 1, kernel_size=(15,), stride=(1,), padding=(7,))
    )
    (sex_classifier): SexClassifier(
      (fc1): Linear(in_features=256, out_features=128, bias=True)
      (fc2): Linear(in_features=128, out_features=2, bias=True)
    )
  )
) loading from model_checkpoints/asr_model.ckpt, the object could not use the parameters loaded with the key: 1.encoder.layers.4.pos_ffn.ffn.3.bias
2022-03-31 04:31:28,680 - speechbrain.utils.checkpoints - WARNING - During parameter transfer to ModuleList(
  (0): ConvAutoencoder(
    (encoder): Sequential(
      (0): Conv1d(1, 32, kernel_size=(15,), stride=(1,), padding=(7,))
      (1): GLU()
      (2): Conv1d(32, 64, kernel_size=(5,), stride=(2,), padding=(2,))
      (3): InstanceNorm1d(64, eps=1e-05, momentum=0.1, affine=True, track_running_stats=False)
      (4): GLU()
      (5): Conv1d(64, 128, kernel_size=(5,), stride=(2,), padding=(2,))
      (6): InstanceNorm1d(128, eps=1e-05, momentum=0.1, affine=True, track_running_stats=False)
      (7): GLU()
    )
    (decoder): Sequential(
      (0): Conv1d(128, 128, kernel_size=(5,), stride=(1,), padding=(2,))
      (1): ConvTranspose1d(128, 64, kernel_size=(5,), stride=(2,), padding=(2,), output_padding=(1,))
      (2): InstanceNorm1d(64, eps=1e-05, momentum=0.1, affine=True, track_running_stats=False)
      (3): GLU()
      (4): Conv1d(64, 64, kernel_size=(5,), stride=(1,), padding=(2,))
      (5): ConvTranspose1d(64, 32, kernel_size=(5,), stride=(2,), padding=(2,), output_padding=(1,))
      (6): InstanceNorm1d(32, eps=1e-05, momentum=0.1, affine=True, track_running_stats=False)
      (7): GLU()
      (8): Conv1d(32, 1, kernel_size=(15,), stride=(1,), padding=(7,))
    )
    (sex_classifier): SexClassifier(
      (fc1): Linear(in_features=256, out_features=128, bias=True)
      (fc2): Linear(in_features=128, out_features=2, bias=True)
    )
  )
) loading from model_checkpoints/asr_model.ckpt, the object could not use the parameters loaded with the key: 1.encoder.layers.4.norm1.norm.weight
2022-03-31 04:31:28,680 - speechbrain.utils.checkpoints - WARNING - During parameter transfer to ModuleList(
  (0): ConvAutoencoder(
    (encoder): Sequential(
      (0): Conv1d(1, 32, kernel_size=(15,), stride=(1,), padding=(7,))
      (1): GLU()
      (2): Conv1d(32, 64, kernel_size=(5,), stride=(2,), padding=(2,))
      (3): InstanceNorm1d(64, eps=1e-05, momentum=0.1, affine=True, track_running_stats=False)
      (4): GLU()
      (5): Conv1d(64, 128, kernel_size=(5,), stride=(2,), padding=(2,))
      (6): InstanceNorm1d(128, eps=1e-05, momentum=0.1, affine=True, track_running_stats=False)
      (7): GLU()
    )
    (decoder): Sequential(
      (0): Conv1d(128, 128, kernel_size=(5,), stride=(1,), padding=(2,))
      (1): ConvTranspose1d(128, 64, kernel_size=(5,), stride=(2,), padding=(2,), output_padding=(1,))
      (2): InstanceNorm1d(64, eps=1e-05, momentum=0.1, affine=True, track_running_stats=False)
      (3): GLU()
      (4): Conv1d(64, 64, kernel_size=(5,), stride=(1,), padding=(2,))
      (5): ConvTranspose1d(64, 32, kernel_size=(5,), stride=(2,), padding=(2,), output_padding=(1,))
      (6): InstanceNorm1d(32, eps=1e-05, momentum=0.1, affine=True, track_running_stats=False)
      (7): GLU()
      (8): Conv1d(32, 1, kernel_size=(15,), stride=(1,), padding=(7,))
    )
    (sex_classifier): SexClassifier(
      (fc1): Linear(in_features=256, out_features=128, bias=True)
      (fc2): Linear(in_features=128, out_features=2, bias=True)
    )
  )
) loading from model_checkpoints/asr_model.ckpt, the object could not use the parameters loaded with the key: 1.encoder.layers.4.norm1.norm.bias
2022-03-31 04:31:28,681 - speechbrain.utils.checkpoints - WARNING - During parameter transfer to ModuleList(
  (0): ConvAutoencoder(
    (encoder): Sequential(
      (0): Conv1d(1, 32, kernel_size=(15,), stride=(1,), padding=(7,))
      (1): GLU()
      (2): Conv1d(32, 64, kernel_size=(5,), stride=(2,), padding=(2,))
      (3): InstanceNorm1d(64, eps=1e-05, momentum=0.1, affine=True, track_running_stats=False)
      (4): GLU()
      (5): Conv1d(64, 128, kernel_size=(5,), stride=(2,), padding=(2,))
      (6): InstanceNorm1d(128, eps=1e-05, momentum=0.1, affine=True, track_running_stats=False)
      (7): GLU()
    )
    (decoder): Sequential(
      (0): Conv1d(128, 128, kernel_size=(5,), stride=(1,), padding=(2,))
      (1): ConvTranspose1d(128, 64, kernel_size=(5,), stride=(2,), padding=(2,), output_padding=(1,))
      (2): InstanceNorm1d(64, eps=1e-05, momentum=0.1, affine=True, track_running_stats=False)
      (3): GLU()
      (4): Conv1d(64, 64, kernel_size=(5,), stride=(1,), padding=(2,))
      (5): ConvTranspose1d(64, 32, kernel_size=(5,), stride=(2,), padding=(2,), output_padding=(1,))
      (6): InstanceNorm1d(32, eps=1e-05, momentum=0.1, affine=True, track_running_stats=False)
      (7): GLU()
      (8): Conv1d(32, 1, kernel_size=(15,), stride=(1,), padding=(7,))
    )
    (sex_classifier): SexClassifier(
      (fc1): Linear(in_features=256, out_features=128, bias=True)
      (fc2): Linear(in_features=128, out_features=2, bias=True)
    )
  )
) loading from model_checkpoints/asr_model.ckpt, the object could not use the parameters loaded with the key: 1.encoder.layers.4.norm2.norm.weight
2022-03-31 04:31:28,681 - speechbrain.utils.checkpoints - WARNING - During parameter transfer to ModuleList(
  (0): ConvAutoencoder(
    (encoder): Sequential(
      (0): Conv1d(1, 32, kernel_size=(15,), stride=(1,), padding=(7,))
      (1): GLU()
      (2): Conv1d(32, 64, kernel_size=(5,), stride=(2,), padding=(2,))
      (3): InstanceNorm1d(64, eps=1e-05, momentum=0.1, affine=True, track_running_stats=False)
      (4): GLU()
      (5): Conv1d(64, 128, kernel_size=(5,), stride=(2,), padding=(2,))
      (6): InstanceNorm1d(128, eps=1e-05, momentum=0.1, affine=True, track_running_stats=False)
      (7): GLU()
    )
    (decoder): Sequential(
      (0): Conv1d(128, 128, kernel_size=(5,), stride=(1,), padding=(2,))
      (1): ConvTranspose1d(128, 64, kernel_size=(5,), stride=(2,), padding=(2,), output_padding=(1,))
      (2): InstanceNorm1d(64, eps=1e-05, momentum=0.1, affine=True, track_running_stats=False)
      (3): GLU()
      (4): Conv1d(64, 64, kernel_size=(5,), stride=(1,), padding=(2,))
      (5): ConvTranspose1d(64, 32, kernel_size=(5,), stride=(2,), padding=(2,), output_padding=(1,))
      (6): InstanceNorm1d(32, eps=1e-05, momentum=0.1, affine=True, track_running_stats=False)
      (7): GLU()
      (8): Conv1d(32, 1, kernel_size=(15,), stride=(1,), padding=(7,))
    )
    (sex_classifier): SexClassifier(
      (fc1): Linear(in_features=256, out_features=128, bias=True)
      (fc2): Linear(in_features=128, out_features=2, bias=True)
    )
  )
) loading from model_checkpoints/asr_model.ckpt, the object could not use the parameters loaded with the key: 1.encoder.layers.4.norm2.norm.bias
2022-03-31 04:31:28,681 - speechbrain.utils.checkpoints - WARNING - During parameter transfer to ModuleList(
  (0): ConvAutoencoder(
    (encoder): Sequential(
      (0): Conv1d(1, 32, kernel_size=(15,), stride=(1,), padding=(7,))
      (1): GLU()
      (2): Conv1d(32, 64, kernel_size=(5,), stride=(2,), padding=(2,))
      (3): InstanceNorm1d(64, eps=1e-05, momentum=0.1, affine=True, track_running_stats=False)
      (4): GLU()
      (5): Conv1d(64, 128, kernel_size=(5,), stride=(2,), padding=(2,))
      (6): InstanceNorm1d(128, eps=1e-05, momentum=0.1, affine=True, track_running_stats=False)
      (7): GLU()
    )
    (decoder): Sequential(
      (0): Conv1d(128, 128, kernel_size=(5,), stride=(1,), padding=(2,))
      (1): ConvTranspose1d(128, 64, kernel_size=(5,), stride=(2,), padding=(2,), output_padding=(1,))
      (2): InstanceNorm1d(64, eps=1e-05, momentum=0.1, affine=True, track_running_stats=False)
      (3): GLU()
      (4): Conv1d(64, 64, kernel_size=(5,), stride=(1,), padding=(2,))
      (5): ConvTranspose1d(64, 32, kernel_size=(5,), stride=(2,), padding=(2,), output_padding=(1,))
      (6): InstanceNorm1d(32, eps=1e-05, momentum=0.1, affine=True, track_running_stats=False)
      (7): GLU()
      (8): Conv1d(32, 1, kernel_size=(15,), stride=(1,), padding=(7,))
    )
    (sex_classifier): SexClassifier(
      (fc1): Linear(in_features=256, out_features=128, bias=True)
      (fc2): Linear(in_features=128, out_features=2, bias=True)
    )
  )
) loading from model_checkpoints/asr_model.ckpt, the object could not use the parameters loaded with the key: 1.encoder.layers.5.self_att.att.in_proj_weight
2022-03-31 04:31:28,681 - speechbrain.utils.checkpoints - WARNING - During parameter transfer to ModuleList(
  (0): ConvAutoencoder(
    (encoder): Sequential(
      (0): Conv1d(1, 32, kernel_size=(15,), stride=(1,), padding=(7,))
      (1): GLU()
      (2): Conv1d(32, 64, kernel_size=(5,), stride=(2,), padding=(2,))
      (3): InstanceNorm1d(64, eps=1e-05, momentum=0.1, affine=True, track_running_stats=False)
      (4): GLU()
      (5): Conv1d(64, 128, kernel_size=(5,), stride=(2,), padding=(2,))
      (6): InstanceNorm1d(128, eps=1e-05, momentum=0.1, affine=True, track_running_stats=False)
      (7): GLU()
    )
    (decoder): Sequential(
      (0): Conv1d(128, 128, kernel_size=(5,), stride=(1,), padding=(2,))
      (1): ConvTranspose1d(128, 64, kernel_size=(5,), stride=(2,), padding=(2,), output_padding=(1,))
      (2): InstanceNorm1d(64, eps=1e-05, momentum=0.1, affine=True, track_running_stats=False)
      (3): GLU()
      (4): Conv1d(64, 64, kernel_size=(5,), stride=(1,), padding=(2,))
      (5): ConvTranspose1d(64, 32, kernel_size=(5,), stride=(2,), padding=(2,), output_padding=(1,))
      (6): InstanceNorm1d(32, eps=1e-05, momentum=0.1, affine=True, track_running_stats=False)
      (7): GLU()
      (8): Conv1d(32, 1, kernel_size=(15,), stride=(1,), padding=(7,))
    )
    (sex_classifier): SexClassifier(
      (fc1): Linear(in_features=256, out_features=128, bias=True)
      (fc2): Linear(in_features=128, out_features=2, bias=True)
    )
  )
) loading from model_checkpoints/asr_model.ckpt, the object could not use the parameters loaded with the key: 1.encoder.layers.5.self_att.att.in_proj_bias
2022-03-31 04:31:28,682 - speechbrain.utils.checkpoints - WARNING - During parameter transfer to ModuleList(
  (0): ConvAutoencoder(
    (encoder): Sequential(
      (0): Conv1d(1, 32, kernel_size=(15,), stride=(1,), padding=(7,))
      (1): GLU()
      (2): Conv1d(32, 64, kernel_size=(5,), stride=(2,), padding=(2,))
      (3): InstanceNorm1d(64, eps=1e-05, momentum=0.1, affine=True, track_running_stats=False)
      (4): GLU()
      (5): Conv1d(64, 128, kernel_size=(5,), stride=(2,), padding=(2,))
      (6): InstanceNorm1d(128, eps=1e-05, momentum=0.1, affine=True, track_running_stats=False)
      (7): GLU()
    )
    (decoder): Sequential(
      (0): Conv1d(128, 128, kernel_size=(5,), stride=(1,), padding=(2,))
      (1): ConvTranspose1d(128, 64, kernel_size=(5,), stride=(2,), padding=(2,), output_padding=(1,))
      (2): InstanceNorm1d(64, eps=1e-05, momentum=0.1, affine=True, track_running_stats=False)
      (3): GLU()
      (4): Conv1d(64, 64, kernel_size=(5,), stride=(1,), padding=(2,))
      (5): ConvTranspose1d(64, 32, kernel_size=(5,), stride=(2,), padding=(2,), output_padding=(1,))
      (6): InstanceNorm1d(32, eps=1e-05, momentum=0.1, affine=True, track_running_stats=False)
      (7): GLU()
      (8): Conv1d(32, 1, kernel_size=(15,), stride=(1,), padding=(7,))
    )
    (sex_classifier): SexClassifier(
      (fc1): Linear(in_features=256, out_features=128, bias=True)
      (fc2): Linear(in_features=128, out_features=2, bias=True)
    )
  )
) loading from model_checkpoints/asr_model.ckpt, the object could not use the parameters loaded with the key: 1.encoder.layers.5.self_att.att.out_proj.weight
2022-03-31 04:31:28,682 - speechbrain.utils.checkpoints - WARNING - During parameter transfer to ModuleList(
  (0): ConvAutoencoder(
    (encoder): Sequential(
      (0): Conv1d(1, 32, kernel_size=(15,), stride=(1,), padding=(7,))
      (1): GLU()
      (2): Conv1d(32, 64, kernel_size=(5,), stride=(2,), padding=(2,))
      (3): InstanceNorm1d(64, eps=1e-05, momentum=0.1, affine=True, track_running_stats=False)
      (4): GLU()
      (5): Conv1d(64, 128, kernel_size=(5,), stride=(2,), padding=(2,))
      (6): InstanceNorm1d(128, eps=1e-05, momentum=0.1, affine=True, track_running_stats=False)
…
      (5): Conv1d(64, 128, kernel_size=(5,), stride=(2,), padding=(2,))
      (6): InstanceNorm1d(128, eps=1e-05, momentum=0.1, affine=True, track_running_stats=False)
      (7): GLU()
    )
    (decoder): Sequential(
      (0): Conv1d(128, 128, kernel_size=(5,), stride=(1,), padding=(2,))
      (1): ConvTranspose1d(128, 64, kernel_size=(5,), stride=(2,), padding=(2,), output_padding=(1,))
      (2): InstanceNorm1d(64, eps=1e-05, momentum=0.1, affine=True, track_running_stats=False)
      (3): GLU()
      (4): Conv1d(64, 64, kernel_size=(5,), stride=(1,), padding=(2,))
      (5): ConvTranspose1d(64, 32, kernel_size=(5,), stride=(2,), padding=(2,), output_padding=(1,))
      (6): InstanceNorm1d(32, eps=1e-05, momentum=0.1, affine=True, track_running_stats=False)
      (7): GLU()
      (8): Conv1d(32, 1, kernel_size=(15,), stride=(1,), padding=(7,))
    )
    (sex_classifier): SexClassifier(
      (fc1): Linear(in_features=256, out_features=128, bias=True)
      (fc2): Linear(in_features=128, out_features=2, bias=True)
    )
  )
) loading from model_checkpoints/asr_model.ckpt, the object could not use the parameters loaded with the key: 1.decoder.layers.5.norm3.norm.bias
2022-03-31 04:31:28,733 - speechbrain.utils.checkpoints - WARNING - During parameter transfer to ModuleList(
  (0): ConvAutoencoder(
    (encoder): Sequential(
      (0): Conv1d(1, 32, kernel_size=(15,), stride=(1,), padding=(7,))
      (1): GLU()
      (2): Conv1d(32, 64, kernel_size=(5,), stride=(2,), padding=(2,))
      (3): InstanceNorm1d(64, eps=1e-05, momentum=0.1, affine=True, track_running_stats=False)
      (4): GLU()
      (5): Conv1d(64, 128, kernel_size=(5,), stride=(2,), padding=(2,))
      (6): InstanceNorm1d(128, eps=1e-05, momentum=0.1, affine=True, track_running_stats=False)
      (7): GLU()
    )
    (decoder): Sequential(
      (0): Conv1d(128, 128, kernel_size=(5,), stride=(1,), padding=(2,))
      (1): ConvTranspose1d(128, 64, kernel_size=(5,), stride=(2,), padding=(2,), output_padding=(1,))
      (2): InstanceNorm1d(64, eps=1e-05, momentum=0.1, affine=True, track_running_stats=False)
      (3): GLU()
      (4): Conv1d(64, 64, kernel_size=(5,), stride=(1,), padding=(2,))
      (5): ConvTranspose1d(64, 32, kernel_size=(5,), stride=(2,), padding=(2,), output_padding=(1,))
      (6): InstanceNorm1d(32, eps=1e-05, momentum=0.1, affine=True, track_running_stats=False)
      (7): GLU()
      (8): Conv1d(32, 1, kernel_size=(15,), stride=(1,), padding=(7,))
    )
    (sex_classifier): SexClassifier(
      (fc1): Linear(in_features=256, out_features=128, bias=True)
      (fc2): Linear(in_features=128, out_features=2, bias=True)
    )
  )
) loading from model_checkpoints/asr_model.ckpt, the object could not use the parameters loaded with the key: 1.decoder.norm.norm.weight
2022-03-31 04:31:28,733 - speechbrain.utils.checkpoints - WARNING - During parameter transfer to ModuleList(
  (0): ConvAutoencoder(
    (encoder): Sequential(
      (0): Conv1d(1, 32, kernel_size=(15,), stride=(1,), padding=(7,))
      (1): GLU()
      (2): Conv1d(32, 64, kernel_size=(5,), stride=(2,), padding=(2,))
      (3): InstanceNorm1d(64, eps=1e-05, momentum=0.1, affine=True, track_running_stats=False)
      (4): GLU()
      (5): Conv1d(64, 128, kernel_size=(5,), stride=(2,), padding=(2,))
      (6): InstanceNorm1d(128, eps=1e-05, momentum=0.1, affine=True, track_running_stats=False)
      (7): GLU()
    )
    (decoder): Sequential(
      (0): Conv1d(128, 128, kernel_size=(5,), stride=(1,), padding=(2,))
      (1): ConvTranspose1d(128, 64, kernel_size=(5,), stride=(2,), padding=(2,), output_padding=(1,))
      (2): InstanceNorm1d(64, eps=1e-05, momentum=0.1, affine=True, track_running_stats=False)
      (3): GLU()
      (4): Conv1d(64, 64, kernel_size=(5,), stride=(1,), padding=(2,))
      (5): ConvTranspose1d(64, 32, kernel_size=(5,), stride=(2,), padding=(2,), output_padding=(1,))
      (6): InstanceNorm1d(32, eps=1e-05, momentum=0.1, affine=True, track_running_stats=False)
      (7): GLU()
      (8): Conv1d(32, 1, kernel_size=(15,), stride=(1,), padding=(7,))
    )
    (sex_classifier): SexClassifier(
      (fc1): Linear(in_features=256, out_features=128, bias=True)
      (fc2): Linear(in_features=128, out_features=2, bias=True)
    )
  )
) loading from model_checkpoints/asr_model.ckpt, the object could not use the parameters loaded with the key: 1.decoder.norm.norm.bias
2022-03-31 04:31:28,733 - speechbrain.utils.checkpoints - WARNING - During parameter transfer to ModuleList(
  (0): ConvAutoencoder(
    (encoder): Sequential(
      (0): Conv1d(1, 32, kernel_size=(15,), stride=(1,), padding=(7,))
      (1): GLU()
      (2): Conv1d(32, 64, kernel_size=(5,), stride=(2,), padding=(2,))
      (3): InstanceNorm1d(64, eps=1e-05, momentum=0.1, affine=True, track_running_stats=False)
      (4): GLU()
      (5): Conv1d(64, 128, kernel_size=(5,), stride=(2,), padding=(2,))
      (6): InstanceNorm1d(128, eps=1e-05, momentum=0.1, affine=True, track_running_stats=False)
      (7): GLU()
    )
    (decoder): Sequential(
      (0): Conv1d(128, 128, kernel_size=(5,), stride=(1,), padding=(2,))
      (1): ConvTranspose1d(128, 64, kernel_size=(5,), stride=(2,), padding=(2,), output_padding=(1,))
      (2): InstanceNorm1d(64, eps=1e-05, momentum=0.1, affine=True, track_running_stats=False)
      (3): GLU()
      (4): Conv1d(64, 64, kernel_size=(5,), stride=(1,), padding=(2,))
      (5): ConvTranspose1d(64, 32, kernel_size=(5,), stride=(2,), padding=(2,), output_padding=(1,))
      (6): InstanceNorm1d(32, eps=1e-05, momentum=0.1, affine=True, track_running_stats=False)
      (7): GLU()
      (8): Conv1d(32, 1, kernel_size=(15,), stride=(1,), padding=(7,))
    )
    (sex_classifier): SexClassifier(
      (fc1): Linear(in_features=256, out_features=128, bias=True)
      (fc2): Linear(in_features=128, out_features=2, bias=True)
    )
  )
) loading from model_checkpoints/asr_model.ckpt, the object could not use the parameters loaded with the key: 1.custom_src_module.layers.0.w.weight
2022-03-31 04:31:28,733 - speechbrain.utils.checkpoints - WARNING - During parameter transfer to ModuleList(
  (0): ConvAutoencoder(
    (encoder): Sequential(
      (0): Conv1d(1, 32, kernel_size=(15,), stride=(1,), padding=(7,))
      (1): GLU()
      (2): Conv1d(32, 64, kernel_size=(5,), stride=(2,), padding=(2,))
      (3): InstanceNorm1d(64, eps=1e-05, momentum=0.1, affine=True, track_running_stats=False)
      (4): GLU()
      (5): Conv1d(64, 128, kernel_size=(5,), stride=(2,), padding=(2,))
      (6): InstanceNorm1d(128, eps=1e-05, momentum=0.1, affine=True, track_running_stats=False)
      (7): GLU()
    )
    (decoder): Sequential(
      (0): Conv1d(128, 128, kernel_size=(5,), stride=(1,), padding=(2,))
      (1): ConvTranspose1d(128, 64, kernel_size=(5,), stride=(2,), padding=(2,), output_padding=(1,))
      (2): InstanceNorm1d(64, eps=1e-05, momentum=0.1, affine=True, track_running_stats=False)
      (3): GLU()
      (4): Conv1d(64, 64, kernel_size=(5,), stride=(1,), padding=(2,))
      (5): ConvTranspose1d(64, 32, kernel_size=(5,), stride=(2,), padding=(2,), output_padding=(1,))
      (6): InstanceNorm1d(32, eps=1e-05, momentum=0.1, affine=True, track_running_stats=False)
      (7): GLU()
      (8): Conv1d(32, 1, kernel_size=(15,), stride=(1,), padding=(7,))
    )
    (sex_classifier): SexClassifier(
      (fc1): Linear(in_features=256, out_features=128, bias=True)
      (fc2): Linear(in_features=128, out_features=2, bias=True)
    )
  )
) loading from model_checkpoints/asr_model.ckpt, the object could not use the parameters loaded with the key: 1.custom_src_module.layers.0.w.bias
2022-03-31 04:31:28,733 - speechbrain.utils.checkpoints - WARNING - During parameter transfer to ModuleList(
  (0): ConvAutoencoder(
    (encoder): Sequential(
      (0): Conv1d(1, 32, kernel_size=(15,), stride=(1,), padding=(7,))
      (1): GLU()
      (2): Conv1d(32, 64, kernel_size=(5,), stride=(2,), padding=(2,))
      (3): InstanceNorm1d(64, eps=1e-05, momentum=0.1, affine=True, track_running_stats=False)
      (4): GLU()
      (5): Conv1d(64, 128, kernel_size=(5,), stride=(2,), padding=(2,))
      (6): InstanceNorm1d(128, eps=1e-05, momentum=0.1, affine=True, track_running_stats=False)
      (7): GLU()
    )
    (decoder): Sequential(
      (0): Conv1d(128, 128, kernel_size=(5,), stride=(1,), padding=(2,))
      (1): ConvTranspose1d(128, 64, kernel_size=(5,), stride=(2,), padding=(2,), output_padding=(1,))
      (2): InstanceNorm1d(64, eps=1e-05, momentum=0.1, affine=True, track_running_stats=False)
      (3): GLU()
      (4): Conv1d(64, 64, kernel_size=(5,), stride=(1,), padding=(2,))
      (5): ConvTranspose1d(64, 32, kernel_size=(5,), stride=(2,), padding=(2,), output_padding=(1,))
      (6): InstanceNorm1d(32, eps=1e-05, momentum=0.1, affine=True, track_running_stats=False)
      (7): GLU()
      (8): Conv1d(32, 1, kernel_size=(15,), stride=(1,), padding=(7,))
    )
    (sex_classifier): SexClassifier(
      (fc1): Linear(in_features=256, out_features=128, bias=True)
      (fc2): Linear(in_features=128, out_features=2, bias=True)
    )
  )
) loading from model_checkpoints/asr_model.ckpt, the object could not use the parameters loaded with the key: 1.custom_tgt_module.layers.0.emb.Embedding.weight
2022-03-31 04:31:28,734 - speechbrain.utils.checkpoints - WARNING - During parameter transfer to ModuleList(
  (0): ConvAutoencoder(
    (encoder): Sequential(
      (0): Conv1d(1, 32, kernel_size=(15,), stride=(1,), padding=(7,))
      (1): GLU()
      (2): Conv1d(32, 64, kernel_size=(5,), stride=(2,), padding=(2,))
      (3): InstanceNorm1d(64, eps=1e-05, momentum=0.1, affine=True, track_running_stats=False)
      (4): GLU()
      (5): Conv1d(64, 128, kernel_size=(5,), stride=(2,), padding=(2,))
      (6): InstanceNorm1d(128, eps=1e-05, momentum=0.1, affine=True, track_running_stats=False)
      (7): GLU()
    )
    (decoder): Sequential(
      (0): Conv1d(128, 128, kernel_size=(5,), stride=(1,), padding=(2,))
      (1): ConvTranspose1d(128, 64, kernel_size=(5,), stride=(2,), padding=(2,), output_padding=(1,))
      (2): InstanceNorm1d(64, eps=1e-05, momentum=0.1, affine=True, track_running_stats=False)
      (3): GLU()
      (4): Conv1d(64, 64, kernel_size=(5,), stride=(1,), padding=(2,))
      (5): ConvTranspose1d(64, 32, kernel_size=(5,), stride=(2,), padding=(2,), output_padding=(1,))
      (6): InstanceNorm1d(32, eps=1e-05, momentum=0.1, affine=True, track_running_stats=False)
      (7): GLU()
      (8): Conv1d(32, 1, kernel_size=(15,), stride=(1,), padding=(7,))
    )
    (sex_classifier): SexClassifier(
      (fc1): Linear(in_features=256, out_features=128, bias=True)
      (fc2): Linear(in_features=128, out_features=2, bias=True)
    )
  )
) loading from model_checkpoints/asr_model.ckpt, the object could not use the parameters loaded with the key: 2.w.weight
2022-03-31 04:31:28,734 - speechbrain.utils.checkpoints - WARNING - During parameter transfer to ModuleList(
  (0): ConvAutoencoder(
    (encoder): Sequential(
      (0): Conv1d(1, 32, kernel_size=(15,), stride=(1,), padding=(7,))
      (1): GLU()
      (2): Conv1d(32, 64, kernel_size=(5,), stride=(2,), padding=(2,))
      (3): InstanceNorm1d(64, eps=1e-05, momentum=0.1, affine=True, track_running_stats=False)
      (4): GLU()
      (5): Conv1d(64, 128, kernel_size=(5,), stride=(2,), padding=(2,))
      (6): InstanceNorm1d(128, eps=1e-05, momentum=0.1, affine=True, track_running_stats=False)
      (7): GLU()
    )
    (decoder): Sequential(
      (0): Conv1d(128, 128, kernel_size=(5,), stride=(1,), padding=(2,))
      (1): ConvTranspose1d(128, 64, kernel_size=(5,), stride=(2,), padding=(2,), output_padding=(1,))
      (2): InstanceNorm1d(64, eps=1e-05, momentum=0.1, affine=True, track_running_stats=False)
      (3): GLU()
      (4): Conv1d(64, 64, kernel_size=(5,), stride=(1,), padding=(2,))
      (5): ConvTranspose1d(64, 32, kernel_size=(5,), stride=(2,), padding=(2,), output_padding=(1,))
      (6): InstanceNorm1d(32, eps=1e-05, momentum=0.1, affine=True, track_running_stats=False)
      (7): GLU()
      (8): Conv1d(32, 1, kernel_size=(15,), stride=(1,), padding=(7,))
    )
    (sex_classifier): SexClassifier(
      (fc1): Linear(in_features=256, out_features=128, bias=True)
      (fc2): Linear(in_features=128, out_features=2, bias=True)
    )
  )
) loading from model_checkpoints/asr_model.ckpt, the object could not use the parameters loaded with the key: 2.w.bias
2022-03-31 04:31:28,734 - speechbrain.utils.checkpoints - WARNING - During parameter transfer to ModuleList(
  (0): ConvAutoencoder(
    (encoder): Sequential(
      (0): Conv1d(1, 32, kernel_size=(15,), stride=(1,), padding=(7,))
      (1): GLU()
      (2): Conv1d(32, 64, kernel_size=(5,), stride=(2,), padding=(2,))
      (3): InstanceNorm1d(64, eps=1e-05, momentum=0.1, affine=True, track_running_stats=False)
      (4): GLU()
      (5): Conv1d(64, 128, kernel_size=(5,), stride=(2,), padding=(2,))
      (6): InstanceNorm1d(128, eps=1e-05, momentum=0.1, affine=True, track_running_stats=False)
      (7): GLU()
    )
    (decoder): Sequential(
      (0): Conv1d(128, 128, kernel_size=(5,), stride=(1,), padding=(2,))
      (1): ConvTranspose1d(128, 64, kernel_size=(5,), stride=(2,), padding=(2,), output_padding=(1,))
      (2): InstanceNorm1d(64, eps=1e-05, momentum=0.1, affine=True, track_running_stats=False)
      (3): GLU()
      (4): Conv1d(64, 64, kernel_size=(5,), stride=(1,), padding=(2,))
      (5): ConvTranspose1d(64, 32, kernel_size=(5,), stride=(2,), padding=(2,), output_padding=(1,))
      (6): InstanceNorm1d(32, eps=1e-05, momentum=0.1, affine=True, track_running_stats=False)
      (7): GLU()
      (8): Conv1d(32, 1, kernel_size=(15,), stride=(1,), padding=(7,))
    )
    (sex_classifier): SexClassifier(
      (fc1): Linear(in_features=256, out_features=128, bias=True)
      (fc2): Linear(in_features=128, out_features=2, bias=True)
    )
  )
) loading from model_checkpoints/asr_model.ckpt, the object could not use the parameters loaded with the key: 3.w.weight
2022-03-31 04:31:28,734 - speechbrain.utils.checkpoints - WARNING - During parameter transfer to ModuleList(
  (0): ConvAutoencoder(
    (encoder): Sequential(
      (0): Conv1d(1, 32, kernel_size=(15,), stride=(1,), padding=(7,))
      (1): GLU()
      (2): Conv1d(32, 64, kernel_size=(5,), stride=(2,), padding=(2,))
      (3): InstanceNorm1d(64, eps=1e-05, momentum=0.1, affine=True, track_running_stats=False)
      (4): GLU()
      (5): Conv1d(64, 128, kernel_size=(5,), stride=(2,), padding=(2,))
      (6): InstanceNorm1d(128, eps=1e-05, momentum=0.1, affine=True, track_running_stats=False)
      (7): GLU()
    )
    (decoder): Sequential(
      (0): Conv1d(128, 128, kernel_size=(5,), stride=(1,), padding=(2,))
      (1): ConvTranspose1d(128, 64, kernel_size=(5,), stride=(2,), padding=(2,), output_padding=(1,))
      (2): InstanceNorm1d(64, eps=1e-05, momentum=0.1, affine=True, track_running_stats=False)
      (3): GLU()
      (4): Conv1d(64, 64, kernel_size=(5,), stride=(1,), padding=(2,))
      (5): ConvTranspose1d(64, 32, kernel_size=(5,), stride=(2,), padding=(2,), output_padding=(1,))
      (6): InstanceNorm1d(32, eps=1e-05, momentum=0.1, affine=True, track_running_stats=False)
      (7): GLU()
      (8): Conv1d(32, 1, kernel_size=(15,), stride=(1,), padding=(7,))
    )
    (sex_classifier): SexClassifier(
      (fc1): Linear(in_features=256, out_features=128, bias=True)
      (fc2): Linear(in_features=128, out_features=2, bias=True)
    )
  )
) loading from model_checkpoints/asr_model.ckpt, the object could not use the parameters loaded with the key: 3.w.bias
2022-03-31 04:31:28,735 - speechbrain.utils.checkpoints - WARNING - During parameter transfer to ModuleList(
  (0): ConvAutoencoder(
    (encoder): Sequential(
      (0): Conv1d(1, 32, kernel_size=(15,), stride=(1,), padding=(7,))
      (1): GLU()
      (2): Conv1d(32, 64, kernel_size=(5,), stride=(2,), padding=(2,))
      (3): InstanceNorm1d(64, eps=1e-05, momentum=0.1, affine=True, track_running_stats=False)
      (4): GLU()
      (5): Conv1d(64, 128, kernel_size=(5,), stride=(2,), padding=(2,))
      (6): InstanceNorm1d(128, eps=1e-05, momentum=0.1, affine=True, track_running_stats=False)
      (7): GLU()
    )
    (decoder): Sequential(
      (0): Conv1d(128, 128, kernel_size=(5,), stride=(1,), padding=(2,))
      (1): ConvTranspose1d(128, 64, kernel_size=(5,), stride=(2,), padding=(2,), output_padding=(1,))
      (2): InstanceNorm1d(64, eps=1e-05, momentum=0.1, affine=True, track_running_stats=False)
      (3): GLU()
      (4): Conv1d(64, 64, kernel_size=(5,), stride=(1,), padding=(2,))
      (5): ConvTranspose1d(64, 32, kernel_size=(5,), stride=(2,), padding=(2,), output_padding=(1,))
      (6): InstanceNorm1d(32, eps=1e-05, momentum=0.1, affine=True, track_running_stats=False)
      (7): GLU()
      (8): Conv1d(32, 1, kernel_size=(15,), stride=(1,), padding=(7,))
    )
    (sex_classifier): SexClassifier(
      (fc1): Linear(in_features=256, out_features=128, bias=True)
      (fc2): Linear(in_features=128, out_features=2, bias=True)
    )
  )
) loading from model_checkpoints/asr_model.ckpt, the object could not use the parameters loaded with the key: 0.convblock_0.convs.conv_0.conv.weight
2022-03-31 04:31:28,735 - speechbrain.utils.checkpoints - WARNING - During parameter transfer to ModuleList(
  (0): ConvAutoencoder(
    (encoder): Sequential(
      (0): Conv1d(1, 32, kernel_size=(15,), stride=(1,), padding=(7,))
      (1): GLU()
      (2): Conv1d(32, 64, kernel_size=(5,), stride=(2,), padding=(2,))
      (3): InstanceNorm1d(64, eps=1e-05, momentum=0.1, affine=True, track_running_stats=False)
      (4): GLU()
      (5): Conv1d(64, 128, kernel_size=(5,), stride=(2,), padding=(2,))
      (6): InstanceNorm1d(128, eps=1e-05, momentum=0.1, affine=True, track_running_stats=False)
      (7): GLU()
    )
    (decoder): Sequential(
      (0): Conv1d(128, 128, kernel_size=(5,), stride=(1,), padding=(2,))
      (1): ConvTranspose1d(128, 64, kernel_size=(5,), stride=(2,), padding=(2,), output_padding=(1,))
      (2): InstanceNorm1d(64, eps=1e-05, momentum=0.1, affine=True, track_running_stats=False)
      (3): GLU()
      (4): Conv1d(64, 64, kernel_size=(5,), stride=(1,), padding=(2,))
      (5): ConvTranspose1d(64, 32, kernel_size=(5,), stride=(2,), padding=(2,), output_padding=(1,))
      (6): InstanceNorm1d(32, eps=1e-05, momentum=0.1, affine=True, track_running_stats=False)
      (7): GLU()
      (8): Conv1d(32, 1, kernel_size=(15,), stride=(1,), padding=(7,))
    )
    (sex_classifier): SexClassifier(
      (fc1): Linear(in_features=256, out_features=128, bias=True)
      (fc2): Linear(in_features=128, out_features=2, bias=True)
    )
  )
) loading from model_checkpoints/asr_model.ckpt, the object could not use the parameters loaded with the key: 0.convblock_0.convs.conv_0.conv.bias
2022-03-31 04:31:28,735 - speechbrain.utils.checkpoints - WARNING - During parameter transfer to ModuleList(
  (0): ConvAutoencoder(
    (encoder): Sequential(
      (0): Conv1d(1, 32, kernel_size=(15,), stride=(1,), padding=(7,))
      (1): GLU()
      (2): Conv1d(32, 64, kernel_size=(5,), stride=(2,), padding=(2,))
      (3): InstanceNorm1d(64, eps=1e-05, momentum=0.1, affine=True, track_running_stats=False)
      (4): GLU()
      (5): Conv1d(64, 128, kernel_size=(5,), stride=(2,), padding=(2,))
      (6): InstanceNorm1d(128, eps=1e-05, momentum=0.1, affine=True, track_running_stats=False)
      (7): GLU()
    )
    (decoder): Sequential(
      (0): Conv1d(128, 128, kernel_size=(5,), stride=(1,), padding=(2,))
      (1): ConvTranspose1d(128, 64, kernel_size=(5,), stride=(2,), padding=(2,), output_padding=(1,))
      (2): InstanceNorm1d(64, eps=1e-05, momentum=0.1, affine=True, track_running_stats=False)
      (3): GLU()
      (4): Conv1d(64, 64, kernel_size=(5,), stride=(1,), padding=(2,))
      (5): ConvTranspose1d(64, 32, kernel_size=(5,), stride=(2,), padding=(2,), output_padding=(1,))
      (6): InstanceNorm1d(32, eps=1e-05, momentum=0.1, affine=True, track_running_stats=False)
      (7): GLU()
      (8): Conv1d(32, 1, kernel_size=(15,), stride=(1,), padding=(7,))
    )
    (sex_classifier): SexClassifier(
      (fc1): Linear(in_features=256, out_features=128, bias=True)
      (fc2): Linear(in_features=128, out_features=2, bias=True)
    )
  )
) loading from model_checkpoints/asr_model.ckpt, the object could not use the parameters loaded with the key: 0.convblock_0.convs.norm_0.norm.weight
2022-03-31 04:31:28,735 - speechbrain.utils.checkpoints - WARNING - During parameter transfer to ModuleList(
  (0): ConvAutoencoder(
    (encoder): Sequential(
      (0): Conv1d(1, 32, kernel_size=(15,), stride=(1,), padding=(7,))
      (1): GLU()
      (2): Conv1d(32, 64, kernel_size=(5,), stride=(2,), padding=(2,))
      (3): InstanceNorm1d(64, eps=1e-05, momentum=0.1, affine=True, track_running_stats=False)
      (4): GLU()
      (5): Conv1d(64, 128, kernel_size=(5,), stride=(2,), padding=(2,))
      (6): InstanceNorm1d(128, eps=1e-05, momentum=0.1, affine=True, track_running_stats=False)
      (7): GLU()
    )
    (decoder): Sequential(
      (0): Conv1d(128, 128, kernel_size=(5,), stride=(1,), padding=(2,))
      (1): ConvTranspose1d(128, 64, kernel_size=(5,), stride=(2,), padding=(2,), output_padding=(1,))
      (2): InstanceNorm1d(64, eps=1e-05, momentum=0.1, affine=True, track_running_stats=False)
      (3): GLU()
      (4): Conv1d(64, 64, kernel_size=(5,), stride=(1,), padding=(2,))
      (5): ConvTranspose1d(64, 32, kernel_size=(5,), stride=(2,), padding=(2,), output_padding=(1,))
      (6): InstanceNorm1d(32, eps=1e-05, momentum=0.1, affine=True, track_running_stats=False)
      (7): GLU()
      (8): Conv1d(32, 1, kernel_size=(15,), stride=(1,), padding=(7,))
    )
    (sex_classifier): SexClassifier(
      (fc1): Linear(in_features=256, out_features=128, bias=True)
      (fc2): Linear(in_features=128, out_features=2, bias=True)
    )
  )
) loading from model_checkpoints/asr_model.ckpt, the object could not use the parameters loaded with the key: 0.convblock_0.convs.norm_0.norm.bias
2022-03-31 04:31:28,735 - speechbrain.utils.checkpoints - WARNING - During parameter transfer to ModuleList(
  (0): ConvAutoencoder(
    (encoder): Sequential(
      (0): Conv1d(1, 32, kernel_size=(15,), stride=(1,), padding=(7,))
      (1): GLU()
      (2): Conv1d(32, 64, kernel_size=(5,), stride=(2,), padding=(2,))
      (3): InstanceNorm1d(64, eps=1e-05, momentum=0.1, affine=True, track_running_stats=False)
      (4): GLU()
      (5): Conv1d(64, 128, kernel_size=(5,), stride=(2,), padding=(2,))
      (6): InstanceNorm1d(128, eps=1e-05, momentum=0.1, affine=True, track_running_stats=False)
      (7): GLU()
    )
    (decoder): Sequential(
      (0): Conv1d(128, 128, kernel_size=(5,), stride=(1,), padding=(2,))
      (1): ConvTranspose1d(128, 64, kernel_size=(5,), stride=(2,), padding=(2,), output_padding=(1,))
      (2): InstanceNorm1d(64, eps=1e-05, momentum=0.1, affine=True, track_running_stats=False)
      (3): GLU()
      (4): Conv1d(64, 64, kernel_size=(5,), stride=(1,), padding=(2,))
      (5): ConvTranspose1d(64, 32, kernel_size=(5,), stride=(2,), padding=(2,), output_padding=(1,))
      (6): InstanceNorm1d(32, eps=1e-05, momentum=0.1, affine=True, track_running_stats=False)
      (7): GLU()
      (8): Conv1d(32, 1, kernel_size=(15,), stride=(1,), padding=(7,))
    )
    (sex_classifier): SexClassifier(
      (fc1): Linear(in_features=256, out_features=128, bias=True)
      (fc2): Linear(in_features=128, out_features=2, bias=True)
    )
  )
) loading from model_checkpoints/asr_model.ckpt, the object could not use the parameters loaded with the key: 0.convblock_0.convs.norm_0.norm.running_mean
2022-03-31 04:31:28,736 - speechbrain.utils.checkpoints - WARNING - During parameter transfer to ModuleList(
  (0): ConvAutoencoder(
    (encoder): Sequential(
      (0): Conv1d(1, 32, kernel_size=(15,), stride=(1,), padding=(7,))
      (1): GLU()
      (2): Conv1d(32, 64, kernel_size=(5,), stride=(2,), padding=(2,))
      (3): InstanceNorm1d(64, eps=1e-05, momentum=0.1, affine=True, track_running_stats=False)
      (4): GLU()
      (5): Conv1d(64, 128, kernel_size=(5,), stride=(2,), padding=(2,))
      (6): InstanceNorm1d(128, eps=1e-05, momentum=0.1, affine=True, track_running_stats=False)
      (7): GLU()
    )
    (decoder): Sequential(
      (0): Conv1d(128, 128, kernel_size=(5,), stride=(1,), padding=(2,))
      (1): ConvTranspose1d(128, 64, kernel_size=(5,), stride=(2,), padding=(2,), output_padding=(1,))
      (2): InstanceNorm1d(64, eps=1e-05, momentum=0.1, affine=True, track_running_stats=False)
      (3): GLU()
      (4): Conv1d(64, 64, kernel_size=(5,), stride=(1,), padding=(2,))
      (5): ConvTranspose1d(64, 32, kernel_size=(5,), stride=(2,), padding=(2,), output_padding=(1,))
      (6): InstanceNorm1d(32, eps=1e-05, momentum=0.1, affine=True, track_running_stats=False)
      (7): GLU()
      (8): Conv1d(32, 1, kernel_size=(15,), stride=(1,), padding=(7,))
    )
    (sex_classifier): SexClassifier(
      (fc1): Linear(in_features=256, out_features=128, bias=True)
      (fc2): Linear(in_features=128, out_features=2, bias=True)
    )
  )
) loading from model_checkpoints/asr_model.ckpt, the object could not use the parameters loaded with the key: 0.convblock_0.convs.norm_0.norm.running_var
2022-03-31 04:31:28,736 - speechbrain.utils.checkpoints - WARNING - During parameter transfer to ModuleList(
  (0): ConvAutoencoder(
    (encoder): Sequential(
      (0): Conv1d(1, 32, kernel_size=(15,), stride=(1,), padding=(7,))
      (1): GLU()
      (2): Conv1d(32, 64, kernel_size=(5,), stride=(2,), padding=(2,))
      (3): InstanceNorm1d(64, eps=1e-05, momentum=0.1, affine=True, track_running_stats=False)
      (4): GLU()
      (5): Conv1d(64, 128, kernel_size=(5,), stride=(2,), padding=(2,))
      (6): InstanceNorm1d(128, eps=1e-05, momentum=0.1, affine=True, track_running_stats=False)
      (7): GLU()
    )
    (decoder): Sequential(
      (0): Conv1d(128, 128, kernel_size=(5,), stride=(1,), padding=(2,))
      (1): ConvTranspose1d(128, 64, kernel_size=(5,), stride=(2,), padding=(2,), output_padding=(1,))
      (2): InstanceNorm1d(64, eps=1e-05, momentum=0.1, affine=True, track_running_stats=False)
      (3): GLU()
      (4): Conv1d(64, 64, kernel_size=(5,), stride=(1,), padding=(2,))
      (5): ConvTranspose1d(64, 32, kernel_size=(5,), stride=(2,), padding=(2,), output_padding=(1,))
      (6): InstanceNorm1d(32, eps=1e-05, momentum=0.1, affine=True, track_running_stats=False)
      (7): GLU()
      (8): Conv1d(32, 1, kernel_size=(15,), stride=(1,), padding=(7,))
    )
    (sex_classifier): SexClassifier(
      (fc1): Linear(in_features=256, out_features=128, bias=True)
      (fc2): Linear(in_features=128, out_features=2, bias=True)
    )
  )
) loading from model_checkpoints/asr_model.ckpt, the object could not use the parameters loaded with the key: 0.convblock_0.convs.norm_0.norm.num_batches_tracked
2022-03-31 04:31:28,736 - speechbrain.utils.checkpoints - WARNING - During parameter transfer to ModuleList(
  (0): ConvAutoencoder(
    (encoder): Sequential(
      (0): Conv1d(1, 32, kernel_size=(15,), stride=(1,), padding=(7,))
      (1): GLU()
      (2): Conv1d(32, 64, kernel_size=(5,), stride=(2,), padding=(2,))
      (3): InstanceNorm1d(64, eps=1e-05, momentum=0.1, affine=True, track_running_stats=False)
      (4): GLU()
      (5): Conv1d(64, 128, kernel_size=(5,), stride=(2,), padding=(2,))
      (6): InstanceNorm1d(128, eps=1e-05, momentum=0.1, affine=True, track_running_stats=False)
      (7): GLU()
    )
    (decoder): Sequential(
      (0): Conv1d(128, 128, kernel_size=(5,), stride=(1,), padding=(2,))
      (1): ConvTranspose1d(128, 64, kernel_size=(5,), stride=(2,), padding=(2,), output_padding=(1,))
      (2): InstanceNorm1d(64, eps=1e-05, momentum=0.1, affine=True, track_running_stats=False)
      (3): GLU()
      (4): Conv1d(64, 64, kernel_size=(5,), stride=(1,), padding=(2,))
      (5): ConvTranspose1d(64, 32, kernel_size=(5,), stride=(2,), padding=(2,), output_padding=(1,))
      (6): InstanceNorm1d(32, eps=1e-05, momentum=0.1, affine=True, track_running_stats=False)
      (7): GLU()
      (8): Conv1d(32, 1, kernel_size=(15,), stride=(1,), padding=(7,))
    )
    (sex_classifier): SexClassifier(
      (fc1): Linear(in_features=256, out_features=128, bias=True)
      (fc2): Linear(in_features=128, out_features=2, bias=True)
    )
  )
) loading from model_checkpoints/asr_model.ckpt, the object could not use the parameters loaded with the key: 0.convblock_1.convs.conv_0.conv.weight
2022-03-31 04:31:28,736 - speechbrain.utils.checkpoints - WARNING - During parameter transfer to ModuleList(
  (0): ConvAutoencoder(
    (encoder): Sequential(
      (0): Conv1d(1, 32, kernel_size=(15,), stride=(1,), padding=(7,))
      (1): GLU()
      (2): Conv1d(32, 64, kernel_size=(5,), stride=(2,), padding=(2,))
      (3): InstanceNorm1d(64, eps=1e-05, momentum=0.1, affine=True, track_running_stats=False)
      (4): GLU()
      (5): Conv1d(64, 128, kernel_size=(5,), stride=(2,), padding=(2,))
      (6): InstanceNorm1d(128, eps=1e-05, momentum=0.1, affine=True, track_running_stats=False)
      (7): GLU()
    )
    (decoder): Sequential(
      (0): Conv1d(128, 128, kernel_size=(5,), stride=(1,), padding=(2,))
      (1): ConvTranspose1d(128, 64, kernel_size=(5,), stride=(2,), padding=(2,), output_padding=(1,))
      (2): InstanceNorm1d(64, eps=1e-05, momentum=0.1, affine=True, track_running_stats=False)
      (3): GLU()
      (4): Conv1d(64, 64, kernel_size=(5,), stride=(1,), padding=(2,))
      (5): ConvTranspose1d(64, 32, kernel_size=(5,), stride=(2,), padding=(2,), output_padding=(1,))
      (6): InstanceNorm1d(32, eps=1e-05, momentum=0.1, affine=True, track_running_stats=False)
      (7): GLU()
      (8): Conv1d(32, 1, kernel_size=(15,), stride=(1,), padding=(7,))
    )
    (sex_classifier): SexClassifier(
      (fc1): Linear(in_features=256, out_features=128, bias=True)
      (fc2): Linear(in_features=128, out_features=2, bias=True)
    )
  )
) loading from model_checkpoints/asr_model.ckpt, the object could not use the parameters loaded with the key: 0.convblock_1.convs.conv_0.conv.bias
2022-03-31 04:31:28,737 - speechbrain.utils.checkpoints - WARNING - During parameter transfer to ModuleList(
  (0): ConvAutoencoder(
    (encoder): Sequential(
      (0): Conv1d(1, 32, kernel_size=(15,), stride=(1,), padding=(7,))
      (1): GLU()
      (2): Conv1d(32, 64, kernel_size=(5,), stride=(2,), padding=(2,))
      (3): InstanceNorm1d(64, eps=1e-05, momentum=0.1, affine=True, track_running_stats=False)
      (4): GLU()
      (5): Conv1d(64, 128, kernel_size=(5,), stride=(2,), padding=(2,))
      (6): InstanceNorm1d(128, eps=1e-05, momentum=0.1, affine=True, track_running_stats=False)
      (7): GLU()
    )
    (decoder): Sequential(
      (0): Conv1d(128, 128, kernel_size=(5,), stride=(1,), padding=(2,))
      (1): ConvTranspose1d(128, 64, kernel_size=(5,), stride=(2,), padding=(2,), output_padding=(1,))
      (2): InstanceNorm1d(64, eps=1e-05, momentum=0.1, affine=True, track_running_stats=False)
      (3): GLU()
      (4): Conv1d(64, 64, kernel_size=(5,), stride=(1,), padding=(2,))
      (5): ConvTranspose1d(64, 32, kernel_size=(5,), stride=(2,), padding=(2,), output_padding=(1,))
      (6): InstanceNorm1d(32, eps=1e-05, momentum=0.1, affine=True, track_running_stats=False)
      (7): GLU()
      (8): Conv1d(32, 1, kernel_size=(15,), stride=(1,), padding=(7,))
    )
    (sex_classifier): SexClassifier(
      (fc1): Linear(in_features=256, out_features=128, bias=True)
      (fc2): Linear(in_features=128, out_features=2, bias=True)
    )
  )
) loading from model_checkpoints/asr_model.ckpt, the object could not use the parameters loaded with the key: 0.convblock_1.convs.norm_0.norm.weight
2022-03-31 04:31:28,737 - speechbrain.utils.checkpoints - WARNING - During parameter transfer to ModuleList(
  (0): ConvAutoencoder(
    (encoder): Sequential(
      (0): Conv1d(1, 32, kernel_size=(15,), stride=(1,), padding=(7,))
      (1): GLU()
      (2): Conv1d(32, 64, kernel_size=(5,), stride=(2,), padding=(2,))
      (3): InstanceNorm1d(64, eps=1e-05, momentum=0.1, affine=True, track_running_stats=False)
      (4): GLU()
      (5): Conv1d(64, 128, kernel_size=(5,), stride=(2,), padding=(2,))
      (6): InstanceNorm1d(128, eps=1e-05, momentum=0.1, affine=True, track_running_stats=False)
      (7): GLU()
    )
    (decoder): Sequential(
      (0): Conv1d(128, 128, kernel_size=(5,), stride=(1,), padding=(2,))
      (1): ConvTranspose1d(128, 64, kernel_size=(5,), stride=(2,), padding=(2,), output_padding=(1,))
      (2): InstanceNorm1d(64, eps=1e-05, momentum=0.1, affine=True, track_running_stats=False)
      (3): GLU()
      (4): Conv1d(64, 64, kernel_size=(5,), stride=(1,), padding=(2,))
      (5): ConvTranspose1d(64, 32, kernel_size=(5,), stride=(2,), padding=(2,), output_padding=(1,))
      (6): InstanceNorm1d(32, eps=1e-05, momentum=0.1, affine=True, track_running_stats=False)
      (7): GLU()
      (8): Conv1d(32, 1, kernel_size=(15,), stride=(1,), padding=(7,))
    )
    (sex_classifier): SexClassifier(
      (fc1): Linear(in_features=256, out_features=128, bias=True)
      (fc2): Linear(in_features=128, out_features=2, bias=True)
    )
  )
) loading from model_checkpoints/asr_model.ckpt, the object could not use the parameters loaded with the key: 0.convblock_1.convs.norm_0.norm.bias
2022-03-31 04:31:28,737 - speechbrain.utils.checkpoints - WARNING - During parameter transfer to ModuleList(
  (0): ConvAutoencoder(
    (encoder): Sequential(
      (0): Conv1d(1, 32, kernel_size=(15,), stride=(1,), padding=(7,))
      (1): GLU()
      (2): Conv1d(32, 64, kernel_size=(5,), stride=(2,), padding=(2,))
      (3): InstanceNorm1d(64, eps=1e-05, momentum=0.1, affine=True, track_running_stats=False)
      (4): GLU()
      (5): Conv1d(64, 128, kernel_size=(5,), stride=(2,), padding=(2,))
      (6): InstanceNorm1d(128, eps=1e-05, momentum=0.1, affine=True, track_running_stats=False)
      (7): GLU()
    )
    (decoder): Sequential(
      (0): Conv1d(128, 128, kernel_size=(5,), stride=(1,), padding=(2,))
      (1): ConvTranspose1d(128, 64, kernel_size=(5,), stride=(2,), padding=(2,), output_padding=(1,))
      (2): InstanceNorm1d(64, eps=1e-05, momentum=0.1, affine=True, track_running_stats=False)
      (3): GLU()
      (4): Conv1d(64, 64, kernel_size=(5,), stride=(1,), padding=(2,))
      (5): ConvTranspose1d(64, 32, kernel_size=(5,), stride=(2,), padding=(2,), output_padding=(1,))
      (6): InstanceNorm1d(32, eps=1e-05, momentum=0.1, affine=True, track_running_stats=False)
      (7): GLU()
      (8): Conv1d(32, 1, kernel_size=(15,), stride=(1,), padding=(7,))
    )
    (sex_classifier): SexClassifier(
      (fc1): Linear(in_features=256, out_features=128, bias=True)
      (fc2): Linear(in_features=128, out_features=2, bias=True)
    )
  )
) loading from model_checkpoints/asr_model.ckpt, the object could not use the parameters loaded with the key: 0.convblock_1.convs.norm_0.norm.running_mean
2022-03-31 04:31:28,737 - speechbrain.utils.checkpoints - WARNING - During parameter transfer to ModuleList(
  (0): ConvAutoencoder(
    (encoder): Sequential(
      (0): Conv1d(1, 32, kernel_size=(15,), stride=(1,), padding=(7,))
      (1): GLU()
      (2): Conv1d(32, 64, kernel_size=(5,), stride=(2,), padding=(2,))
      (3): InstanceNorm1d(64, eps=1e-05, momentum=0.1, affine=True, track_running_stats=False)
      (4): GLU()
      (5): Conv1d(64, 128, kernel_size=(5,), stride=(2,), padding=(2,))
      (6): InstanceNorm1d(128, eps=1e-05, momentum=0.1, affine=True, track_running_stats=False)
      (7): GLU()
    )
    (decoder): Sequential(
      (0): Conv1d(128, 128, kernel_size=(5,), stride=(1,), padding=(2,))
      (1): ConvTranspose1d(128, 64, kernel_size=(5,), stride=(2,), padding=(2,), output_padding=(1,))
      (2): InstanceNorm1d(64, eps=1e-05, momentum=0.1, affine=True, track_running_stats=False)
      (3): GLU()
      (4): Conv1d(64, 64, kernel_size=(5,), stride=(1,), padding=(2,))
      (5): ConvTranspose1d(64, 32, kernel_size=(5,), stride=(2,), padding=(2,), output_padding=(1,))
      (6): InstanceNorm1d(32, eps=1e-05, momentum=0.1, affine=True, track_running_stats=False)
      (7): GLU()
      (8): Conv1d(32, 1, kernel_size=(15,), stride=(1,), padding=(7,))
    )
    (sex_classifier): SexClassifier(
      (fc1): Linear(in_features=256, out_features=128, bias=True)
      (fc2): Linear(in_features=128, out_features=2, bias=True)
    )
  )
) loading from model_checkpoints/asr_model.ckpt, the object could not use the parameters loaded with the key: 0.convblock_1.convs.norm_0.norm.running_var
2022-03-31 04:31:28,738 - speechbrain.utils.checkpoints - WARNING - During parameter transfer to ModuleList(
  (0): ConvAutoencoder(
    (encoder): Sequential(
      (0): Conv1d(1, 32, kernel_size=(15,), stride=(1,), padding=(7,))
      (1): GLU()
      (2): Conv1d(32, 64, kernel_size=(5,), stride=(2,), padding=(2,))
      (3): InstanceNorm1d(64, eps=1e-05, momentum=0.1, affine=True, track_running_stats=False)
      (4): GLU()
      (5): Conv1d(64, 128, kernel_size=(5,), stride=(2,), padding=(2,))
      (6): InstanceNorm1d(128, eps=1e-05, momentum=0.1, affine=True, track_running_stats=False)
      (7): GLU()
    )
    (decoder): Sequential(
      (0): Conv1d(128, 128, kernel_size=(5,), stride=(1,), padding=(2,))
      (1): ConvTranspose1d(128, 64, kernel_size=(5,), stride=(2,), padding=(2,), output_padding=(1,))
      (2): InstanceNorm1d(64, eps=1e-05, momentum=0.1, affine=True, track_running_stats=False)
      (3): GLU()
      (4): Conv1d(64, 64, kernel_size=(5,), stride=(1,), padding=(2,))
      (5): ConvTranspose1d(64, 32, kernel_size=(5,), stride=(2,), padding=(2,), output_padding=(1,))
      (6): InstanceNorm1d(32, eps=1e-05, momentum=0.1, affine=True, track_running_stats=False)
      (7): GLU()
      (8): Conv1d(32, 1, kernel_size=(15,), stride=(1,), padding=(7,))
    )
    (sex_classifier): SexClassifier(
      (fc1): Linear(in_features=256, out_features=128, bias=True)
      (fc2): Linear(in_features=128, out_features=2, bias=True)
    )
  )
) loading from model_checkpoints/asr_model.ckpt, the object could not use the parameters loaded with the key: 0.convblock_1.convs.norm_0.norm.num_batches_tracked
2022-03-31 04:31:28,738 - speechbrain.utils.checkpoints - WARNING - During parameter transfer to ModuleList(
  (0): ConvAutoencoder(
    (encoder): Sequential(
      (0): Conv1d(1, 32, kernel_size=(15,), stride=(1,), padding=(7,))
      (1): GLU()
      (2): Conv1d(32, 64, kernel_size=(5,), stride=(2,), padding=(2,))
      (3): InstanceNorm1d(64, eps=1e-05, momentum=0.1, affine=True, track_running_stats=False)
      (4): GLU()
      (5): Conv1d(64, 128, kernel_size=(5,), stride=(2,), padding=(2,))
      (6): InstanceNorm1d(128, eps=1e-05, momentum=0.1, affine=True, track_running_stats=False)
      (7): GLU()
    )
    (decoder): Sequential(
      (0): Conv1d(128, 128, kernel_size=(5,), stride=(1,), padding=(2,))
      (1): ConvTranspose1d(128, 64, kernel_size=(5,), stride=(2,), padding=(2,), output_padding=(1,))
      (2): InstanceNorm1d(64, eps=1e-05, momentum=0.1, affine=True, track_running_stats=False)
      (3): GLU()
      (4): Conv1d(64, 64, kernel_size=(5,), stride=(1,), padding=(2,))
      (5): ConvTranspose1d(64, 32, kernel_size=(5,), stride=(2,), padding=(2,), output_padding=(1,))
      (6): InstanceNorm1d(32, eps=1e-05, momentum=0.1, affine=True, track_running_stats=False)
      (7): GLU()
      (8): Conv1d(32, 1, kernel_size=(15,), stride=(1,), padding=(7,))
    )
    (sex_classifier): SexClassifier(
      (fc1): Linear(in_features=256, out_features=128, bias=True)
      (fc2): Linear(in_features=128, out_features=2, bias=True)
    )
  )
) loading from model_checkpoints/asr_model.ckpt, the object could not use the parameters loaded with the key: 0.convblock_2.convs.conv_0.conv.weight
2022-03-31 04:31:28,738 - speechbrain.utils.checkpoints - WARNING - During parameter transfer to ModuleList(
  (0): ConvAutoencoder(
    (encoder): Sequential(
      (0): Conv1d(1, 32, kernel_size=(15,), stride=(1,), padding=(7,))
      (1): GLU()
      (2): Conv1d(32, 64, kernel_size=(5,), stride=(2,), padding=(2,))
      (3): InstanceNorm1d(64, eps=1e-05, momentum=0.1, affine=True, track_running_stats=False)
      (4): GLU()
      (5): Conv1d(64, 128, kernel_size=(5,), stride=(2,), padding=(2,))
      (6): InstanceNorm1d(128, eps=1e-05, momentum=0.1, affine=True, track_running_stats=False)
      (7): GLU()
    )
    (decoder): Sequential(
      (0): Conv1d(128, 128, kernel_size=(5,), stride=(1,), padding=(2,))
      (1): ConvTranspose1d(128, 64, kernel_size=(5,), stride=(2,), padding=(2,), output_padding=(1,))
      (2): InstanceNorm1d(64, eps=1e-05, momentum=0.1, affine=True, track_running_stats=False)
      (3): GLU()
      (4): Conv1d(64, 64, kernel_size=(5,), stride=(1,), padding=(2,))
      (5): ConvTranspose1d(64, 32, kernel_size=(5,), stride=(2,), padding=(2,), output_padding=(1,))
      (6): InstanceNorm1d(32, eps=1e-05, momentum=0.1, affine=True, track_running_stats=False)
      (7): GLU()
      (8): Conv1d(32, 1, kernel_size=(15,), stride=(1,), padding=(7,))
    )
    (sex_classifier): SexClassifier(
      (fc1): Linear(in_features=256, out_features=128, bias=True)
      (fc2): Linear(in_features=128, out_features=2, bias=True)
    )
  )
) loading from model_checkpoints/asr_model.ckpt, the object could not use the parameters loaded with the key: 0.convblock_2.convs.conv_0.conv.bias
2022-03-31 04:31:28,738 - speechbrain.utils.checkpoints - WARNING - During parameter transfer to ModuleList(
  (0): ConvAutoencoder(
    (encoder): Sequential(
      (0): Conv1d(1, 32, kernel_size=(15,), stride=(1,), padding=(7,))
      (1): GLU()
      (2): Conv1d(32, 64, kernel_size=(5,), stride=(2,), padding=(2,))
      (3): InstanceNorm1d(64, eps=1e-05, momentum=0.1, affine=True, track_running_stats=False)
      (4): GLU()
      (5): Conv1d(64, 128, kernel_size=(5,), stride=(2,), padding=(2,))
      (6): InstanceNorm1d(128, eps=1e-05, momentum=0.1, affine=True, track_running_stats=False)
      (7): GLU()
    )
    (decoder): Sequential(
      (0): Conv1d(128, 128, kernel_size=(5,), stride=(1,), padding=(2,))
      (1): ConvTranspose1d(128, 64, kernel_size=(5,), stride=(2,), padding=(2,), output_padding=(1,))
      (2): InstanceNorm1d(64, eps=1e-05, momentum=0.1, affine=True, track_running_stats=False)
      (3): GLU()
      (4): Conv1d(64, 64, kernel_size=(5,), stride=(1,), padding=(2,))
      (5): ConvTranspose1d(64, 32, kernel_size=(5,), stride=(2,), padding=(2,), output_padding=(1,))
      (6): InstanceNorm1d(32, eps=1e-05, momentum=0.1, affine=True, track_running_stats=False)
      (7): GLU()
      (8): Conv1d(32, 1, kernel_size=(15,), stride=(1,), padding=(7,))
    )
    (sex_classifier): SexClassifier(
      (fc1): Linear(in_features=256, out_features=128, bias=True)
      (fc2): Linear(in_features=128, out_features=2, bias=True)
    )
  )
) loading from model_checkpoints/asr_model.ckpt, the object could not use the parameters loaded with the key: 0.convblock_2.convs.norm_0.norm.weight
2022-03-31 04:31:28,739 - speechbrain.utils.checkpoints - WARNING - During parameter transfer to ModuleList(
  (0): ConvAutoencoder(
    (encoder): Sequential(
      (0): Conv1d(1, 32, kernel_size=(15,), stride=(1,), padding=(7,))
      (1): GLU()
      (2): Conv1d(32, 64, kernel_size=(5,), stride=(2,), padding=(2,))
      (3): InstanceNorm1d(64, eps=1e-05, momentum=0.1, affine=True, track_running_stats=False)
      (4): GLU()
      (5): Conv1d(64, 128, kernel_size=(5,), stride=(2,), padding=(2,))
      (6): InstanceNorm1d(128, eps=1e-05, momentum=0.1, affine=True, track_running_stats=False)
      (7): GLU()
    )
    (decoder): Sequential(
      (0): Conv1d(128, 128, kernel_size=(5,), stride=(1,), padding=(2,))
      (1): ConvTranspose1d(128, 64, kernel_size=(5,), stride=(2,), padding=(2,), output_padding=(1,))
      (2): InstanceNorm1d(64, eps=1e-05, momentum=0.1, affine=True, track_running_stats=False)
      (3): GLU()
      (4): Conv1d(64, 64, kernel_size=(5,), stride=(1,), padding=(2,))
      (5): ConvTranspose1d(64, 32, kernel_size=(5,), stride=(2,), padding=(2,), output_padding=(1,))
      (6): InstanceNorm1d(32, eps=1e-05, momentum=0.1, affine=True, track_running_stats=False)
      (7): GLU()
      (8): Conv1d(32, 1, kernel_size=(15,), stride=(1,), padding=(7,))
    )
    (sex_classifier): SexClassifier(
      (fc1): Linear(in_features=256, out_features=128, bias=True)
      (fc2): Linear(in_features=128, out_features=2, bias=True)
    )
  )
) loading from model_checkpoints/asr_model.ckpt, the object could not use the parameters loaded with the key: 0.convblock_2.convs.norm_0.norm.bias
2022-03-31 04:31:28,739 - speechbrain.utils.checkpoints - WARNING - During parameter transfer to ModuleList(
  (0): ConvAutoencoder(
    (encoder): Sequential(
      (0): Conv1d(1, 32, kernel_size=(15,), stride=(1,), padding=(7,))
      (1): GLU()
      (2): Conv1d(32, 64, kernel_size=(5,), stride=(2,), padding=(2,))
      (3): InstanceNorm1d(64, eps=1e-05, momentum=0.1, affine=True, track_running_stats=False)
      (4): GLU()
      (5): Conv1d(64, 128, kernel_size=(5,), stride=(2,), padding=(2,))
      (6): InstanceNorm1d(128, eps=1e-05, momentum=0.1, affine=True, track_running_stats=False)
      (7): GLU()
    )
    (decoder): Sequential(
      (0): Conv1d(128, 128, kernel_size=(5,), stride=(1,), padding=(2,))
      (1): ConvTranspose1d(128, 64, kernel_size=(5,), stride=(2,), padding=(2,), output_padding=(1,))
      (2): InstanceNorm1d(64, eps=1e-05, momentum=0.1, affine=True, track_running_stats=False)
      (3): GLU()
      (4): Conv1d(64, 64, kernel_size=(5,), stride=(1,), padding=(2,))
      (5): ConvTranspose1d(64, 32, kernel_size=(5,), stride=(2,), padding=(2,), output_padding=(1,))
      (6): InstanceNorm1d(32, eps=1e-05, momentum=0.1, affine=True, track_running_stats=False)
      (7): GLU()
      (8): Conv1d(32, 1, kernel_size=(15,), stride=(1,), padding=(7,))
    )
    (sex_classifier): SexClassifier(
      (fc1): Linear(in_features=256, out_features=128, bias=True)
      (fc2): Linear(in_features=128, out_features=2, bias=True)
    )
  )
) loading from model_checkpoints/asr_model.ckpt, the object could not use the parameters loaded with the key: 0.convblock_2.convs.norm_0.norm.running_mean
2022-03-31 04:31:28,739 - speechbrain.utils.checkpoints - WARNING - During parameter transfer to ModuleList(
  (0): ConvAutoencoder(
    (encoder): Sequential(
      (0): Conv1d(1, 32, kernel_size=(15,), stride=(1,), padding=(7,))
      (1): GLU()
      (2): Conv1d(32, 64, kernel_size=(5,), stride=(2,), padding=(2,))
      (3): InstanceNorm1d(64, eps=1e-05, momentum=0.1, affine=True, track_running_stats=False)
      (4): GLU()
      (5): Conv1d(64, 128, kernel_size=(5,), stride=(2,), padding=(2,))
      (6): InstanceNorm1d(128, eps=1e-05, momentum=0.1, affine=True, track_running_stats=False)
      (7): GLU()
    )
    (decoder): Sequential(
      (0): Conv1d(128, 128, kernel_size=(5,), stride=(1,), padding=(2,))
      (1): ConvTranspose1d(128, 64, kernel_size=(5,), stride=(2,), padding=(2,), output_padding=(1,))
      (2): InstanceNorm1d(64, eps=1e-05, momentum=0.1, affine=True, track_running_stats=False)
      (3): GLU()
      (4): Conv1d(64, 64, kernel_size=(5,), stride=(1,), padding=(2,))
      (5): ConvTranspose1d(64, 32, kernel_size=(5,), stride=(2,), padding=(2,), output_padding=(1,))
      (6): InstanceNorm1d(32, eps=1e-05, momentum=0.1, affine=True, track_running_stats=False)
      (7): GLU()
      (8): Conv1d(32, 1, kernel_size=(15,), stride=(1,), padding=(7,))
    )
    (sex_classifier): SexClassifier(
      (fc1): Linear(in_features=256, out_features=128, bias=True)
      (fc2): Linear(in_features=128, out_features=2, bias=True)
    )
  )
) loading from model_checkpoints/asr_model.ckpt, the object could not use the parameters loaded with the key: 0.convblock_2.convs.norm_0.norm.running_var
2022-03-31 04:31:28,739 - speechbrain.utils.checkpoints - WARNING - During parameter transfer to ModuleList(
  (0): ConvAutoencoder(
    (encoder): Sequential(
      (0): Conv1d(1, 32, kernel_size=(15,), stride=(1,), padding=(7,))
      (1): GLU()
      (2): Conv1d(32, 64, kernel_size=(5,), stride=(2,), padding=(2,))
      (3): InstanceNorm1d(64, eps=1e-05, momentum=0.1, affine=True, track_running_stats=False)
      (4): GLU()
      (5): Conv1d(64, 128, kernel_size=(5,), stride=(2,), padding=(2,))
      (6): InstanceNorm1d(128, eps=1e-05, momentum=0.1, affine=True, track_running_stats=False)
      (7): GLU()
    )
    (decoder): Sequential(
      (0): Conv1d(128, 128, kernel_size=(5,), stride=(1,), padding=(2,))
      (1): ConvTranspose1d(128, 64, kernel_size=(5,), stride=(2,), padding=(2,), output_padding=(1,))
      (2): InstanceNorm1d(64, eps=1e-05, momentum=0.1, affine=True, track_running_stats=False)
      (3): GLU()
      (4): Conv1d(64, 64, kernel_size=(5,), stride=(1,), padding=(2,))
      (5): ConvTranspose1d(64, 32, kernel_size=(5,), stride=(2,), padding=(2,), output_padding=(1,))
      (6): InstanceNorm1d(32, eps=1e-05, momentum=0.1, affine=True, track_running_stats=False)
      (7): GLU()
      (8): Conv1d(32, 1, kernel_size=(15,), stride=(1,), padding=(7,))
    )
    (sex_classifier): SexClassifier(
      (fc1): Linear(in_features=256, out_features=128, bias=True)
      (fc2): Linear(in_features=128, out_features=2, bias=True)
    )
  )
) loading from model_checkpoints/asr_model.ckpt, the object could not use the parameters loaded with the key: 0.convblock_2.convs.norm_0.norm.num_batches_tracked
2022-03-31 04:31:28,740 - speechbrain.core - INFO - Info: ckpt_interval_minutes arg from hparam file is used
2022-03-31 04:31:28,921 - speechbrain.core - INFO - 161.6M trainable parameters in ASR
…
