…
2022-03-23 20:58:52,074 - speechbrain.pretrained.fetching - INFO - Fetch asr.ckpt: Using existing file/symlink in model_checkpoints/asr_model.ckpt.
2022-03-23 20:58:52,074 - speechbrain.pretrained.fetching - INFO - Fetch normalizer.ckpt: Using existing file/symlink in model_checkpoints/normalize.ckpt.
2022-03-23 20:58:52,075 - speechbrain.utils.parameter_transfer - INFO - Loading pretrained files for: lm, tokenizer, asr_model, normalize
2022-03-23 20:58:55,969 - speechbrain.utils.checkpoints - WARNING - During parameter transfer to ModuleList(
  (0): FullyConnectedAutoencoder(
    (encoder): Sequential(
      (0): Linear(in_features=80, out_features=60, bias=True)
      (1): ReLU()
      (2): Linear(in_features=60, out_features=40, bias=True)
      (3): ReLU()
      (4): Linear(in_features=40, out_features=20, bias=True)
    )
    (decoder): Sequential(
      (0): Linear(in_features=20, out_features=40, bias=True)
      (1): ReLU()
      (2): Linear(in_features=40, out_features=60, bias=True)
      (3): ReLU()
      (4): Linear(in_features=60, out_features=80, bias=True)
    )
    (sex_classifier): FullyConnSexClassifier(
      (fc1): Linear(in_features=40, out_features=20, bias=True)
      (fc2): Linear(in_features=20, out_features=2, bias=True)
    )
  )
) loading from model_checkpoints/asr_model.ckpt, the transferred parameters did not have parameters for the key: 0.encoder.0.weight
2022-03-23 20:58:55,970 - speechbrain.utils.checkpoints - WARNING - During parameter transfer to ModuleList(
  (0): FullyConnectedAutoencoder(
    (encoder): Sequential(
      (0): Linear(in_features=80, out_features=60, bias=True)
      (1): ReLU()
      (2): Linear(in_features=60, out_features=40, bias=True)
      (3): ReLU()
      (4): Linear(in_features=40, out_features=20, bias=True)
    )
    (decoder): Sequential(
      (0): Linear(in_features=20, out_features=40, bias=True)
      (1): ReLU()
      (2): Linear(in_features=40, out_features=60, bias=True)
      (3): ReLU()
      (4): Linear(in_features=60, out_features=80, bias=True)
    )
    (sex_classifier): FullyConnSexClassifier(
      (fc1): Linear(in_features=40, out_features=20, bias=True)
      (fc2): Linear(in_features=20, out_features=2, bias=True)
    )
  )
) loading from model_checkpoints/asr_model.ckpt, the transferred parameters did not have parameters for the key: 0.encoder.0.bias
2022-03-23 20:58:55,970 - speechbrain.utils.checkpoints - WARNING - During parameter transfer to ModuleList(
  (0): FullyConnectedAutoencoder(
    (encoder): Sequential(
      (0): Linear(in_features=80, out_features=60, bias=True)
      (1): ReLU()
      (2): Linear(in_features=60, out_features=40, bias=True)
      (3): ReLU()
      (4): Linear(in_features=40, out_features=20, bias=True)
    )
    (decoder): Sequential(
      (0): Linear(in_features=20, out_features=40, bias=True)
      (1): ReLU()
      (2): Linear(in_features=40, out_features=60, bias=True)
      (3): ReLU()
      (4): Linear(in_features=60, out_features=80, bias=True)
    )
    (sex_classifier): FullyConnSexClassifier(
      (fc1): Linear(in_features=40, out_features=20, bias=True)
      (fc2): Linear(in_features=20, out_features=2, bias=True)
    )
  )
) loading from model_checkpoints/asr_model.ckpt, the transferred parameters did not have parameters for the key: 0.encoder.2.weight
2022-03-23 20:58:55,970 - speechbrain.utils.checkpoints - WARNING - During parameter transfer to ModuleList(
  (0): FullyConnectedAutoencoder(
    (encoder): Sequential(
      (0): Linear(in_features=80, out_features=60, bias=True)
      (1): ReLU()
      (2): Linear(in_features=60, out_features=40, bias=True)
      (3): ReLU()
      (4): Linear(in_features=40, out_features=20, bias=True)
    )
    (decoder): Sequential(
      (0): Linear(in_features=20, out_features=40, bias=True)
      (1): ReLU()
      (2): Linear(in_features=40, out_features=60, bias=True)
      (3): ReLU()
      (4): Linear(in_features=60, out_features=80, bias=True)
    )
    (sex_classifier): FullyConnSexClassifier(
      (fc1): Linear(in_features=40, out_features=20, bias=True)
      (fc2): Linear(in_features=20, out_features=2, bias=True)
    )
  )
) loading from model_checkpoints/asr_model.ckpt, the transferred parameters did not have parameters for the key: 0.encoder.2.bias
2022-03-23 20:58:55,971 - speechbrain.utils.checkpoints - WARNING - During parameter transfer to ModuleList(
  (0): FullyConnectedAutoencoder(
    (encoder): Sequential(
      (0): Linear(in_features=80, out_features=60, bias=True)
      (1): ReLU()
      (2): Linear(in_features=60, out_features=40, bias=True)
      (3): ReLU()
      (4): Linear(in_features=40, out_features=20, bias=True)
    )
    (decoder): Sequential(
      (0): Linear(in_features=20, out_features=40, bias=True)
      (1): ReLU()
      (2): Linear(in_features=40, out_features=60, bias=True)
      (3): ReLU()
      (4): Linear(in_features=60, out_features=80, bias=True)
    )
    (sex_classifier): FullyConnSexClassifier(
      (fc1): Linear(in_features=40, out_features=20, bias=True)
      (fc2): Linear(in_features=20, out_features=2, bias=True)
    )
  )
) loading from model_checkpoints/asr_model.ckpt, the transferred parameters did not have parameters for the key: 0.encoder.4.weight
2022-03-23 20:58:55,971 - speechbrain.utils.checkpoints - WARNING - During parameter transfer to ModuleList(
  (0): FullyConnectedAutoencoder(
    (encoder): Sequential(
      (0): Linear(in_features=80, out_features=60, bias=True)
      (1): ReLU()
      (2): Linear(in_features=60, out_features=40, bias=True)
      (3): ReLU()
      (4): Linear(in_features=40, out_features=20, bias=True)
    )
    (decoder): Sequential(
      (0): Linear(in_features=20, out_features=40, bias=True)
      (1): ReLU()
      (2): Linear(in_features=40, out_features=60, bias=True)
      (3): ReLU()
      (4): Linear(in_features=60, out_features=80, bias=True)
    )
    (sex_classifier): FullyConnSexClassifier(
      (fc1): Linear(in_features=40, out_features=20, bias=True)
      (fc2): Linear(in_features=20, out_features=2, bias=True)
    )
  )
) loading from model_checkpoints/asr_model.ckpt, the transferred parameters did not have parameters for the key: 0.encoder.4.bias
2022-03-23 20:58:55,971 - speechbrain.utils.checkpoints - WARNING - During parameter transfer to ModuleList(
  (0): FullyConnectedAutoencoder(
    (encoder): Sequential(
      (0): Linear(in_features=80, out_features=60, bias=True)
      (1): ReLU()
      (2): Linear(in_features=60, out_features=40, bias=True)
      (3): ReLU()
      (4): Linear(in_features=40, out_features=20, bias=True)
    )
    (decoder): Sequential(
      (0): Linear(in_features=20, out_features=40, bias=True)
      (1): ReLU()
      (2): Linear(in_features=40, out_features=60, bias=True)
      (3): ReLU()
      (4): Linear(in_features=60, out_features=80, bias=True)
    )
    (sex_classifier): FullyConnSexClassifier(
      (fc1): Linear(in_features=40, out_features=20, bias=True)
      (fc2): Linear(in_features=20, out_features=2, bias=True)
    )
  )
) loading from model_checkpoints/asr_model.ckpt, the transferred parameters did not have parameters for the key: 0.decoder.0.weight
2022-03-23 20:58:55,971 - speechbrain.utils.checkpoints - WARNING - During parameter transfer to ModuleList(
  (0): FullyConnectedAutoencoder(
    (encoder): Sequential(
      (0): Linear(in_features=80, out_features=60, bias=True)
      (1): ReLU()
      (2): Linear(in_features=60, out_features=40, bias=True)
      (3): ReLU()
      (4): Linear(in_features=40, out_features=20, bias=True)
    )
    (decoder): Sequential(
      (0): Linear(in_features=20, out_features=40, bias=True)
      (1): ReLU()
      (2): Linear(in_features=40, out_features=60, bias=True)
      (3): ReLU()
      (4): Linear(in_features=60, out_features=80, bias=True)
    )
    (sex_classifier): FullyConnSexClassifier(
      (fc1): Linear(in_features=40, out_features=20, bias=True)
      (fc2): Linear(in_features=20, out_features=2, bias=True)
    )
  )
) loading from model_checkpoints/asr_model.ckpt, the transferred parameters did not have parameters for the key: 0.decoder.0.bias
2022-03-23 20:58:55,972 - speechbrain.utils.checkpoints - WARNING - During parameter transfer to ModuleList(
  (0): FullyConnectedAutoencoder(
    (encoder): Sequential(
      (0): Linear(in_features=80, out_features=60, bias=True)
      (1): ReLU()
      (2): Linear(in_features=60, out_features=40, bias=True)
      (3): ReLU()
      (4): Linear(in_features=40, out_features=20, bias=True)
    )
    (decoder): Sequential(
      (0): Linear(in_features=20, out_features=40, bias=True)
      (1): ReLU()
      (2): Linear(in_features=40, out_features=60, bias=True)
      (3): ReLU()
      (4): Linear(in_features=60, out_features=80, bias=True)
    )
    (sex_classifier): FullyConnSexClassifier(
      (fc1): Linear(in_features=40, out_features=20, bias=True)
      (fc2): Linear(in_features=20, out_features=2, bias=True)
    )
  )
) loading from model_checkpoints/asr_model.ckpt, the transferred parameters did not have parameters for the key: 0.decoder.2.weight
2022-03-23 20:58:55,972 - speechbrain.utils.checkpoints - WARNING - During parameter transfer to ModuleList(
  (0): FullyConnectedAutoencoder(
    (encoder): Sequential(
      (0): Linear(in_features=80, out_features=60, bias=True)
      (1): ReLU()
      (2): Linear(in_features=60, out_features=40, bias=True)
      (3): ReLU()
      (4): Linear(in_features=40, out_features=20, bias=True)
    )
    (decoder): Sequential(
      (0): Linear(in_features=20, out_features=40, bias=True)
      (1): ReLU()
      (2): Linear(in_features=40, out_features=60, bias=True)
      (3): ReLU()
      (4): Linear(in_features=60, out_features=80, bias=True)
    )
    (sex_classifier): FullyConnSexClassifier(
      (fc1): Linear(in_features=40, out_features=20, bias=True)
      (fc2): Linear(in_features=20, out_features=2, bias=True)
    )
  )
) loading from model_checkpoints/asr_model.ckpt, the transferred parameters did not have parameters for the key: 0.decoder.2.bias
2022-03-23 20:58:55,972 - speechbrain.utils.checkpoints - WARNING - During parameter transfer to ModuleList(
  (0): FullyConnectedAutoencoder(
    (encoder): Sequential(
      (0): Linear(in_features=80, out_features=60, bias=True)
      (1): ReLU()
      (2): Linear(in_features=60, out_features=40, bias=True)
      (3): ReLU()
      (4): Linear(in_features=40, out_features=20, bias=True)
    )
    (decoder): Sequential(
      (0): Linear(in_features=20, out_features=40, bias=True)
      (1): ReLU()
      (2): Linear(in_features=40, out_features=60, bias=True)
      (3): ReLU()
      (4): Linear(in_features=60, out_features=80, bias=True)
    )
    (sex_classifier): FullyConnSexClassifier(
      (fc1): Linear(in_features=40, out_features=20, bias=True)
      (fc2): Linear(in_features=20, out_features=2, bias=True)
    )
  )
) loading from model_checkpoints/asr_model.ckpt, the transferred parameters did not have parameters for the key: 0.decoder.4.weight
2022-03-23 20:58:55,972 - speechbrain.utils.checkpoints - WARNING - During parameter transfer to ModuleList(
  (0): FullyConnectedAutoencoder(
    (encoder): Sequential(
      (0): Linear(in_features=80, out_features=60, bias=True)
      (1): ReLU()
      (2): Linear(in_features=60, out_features=40, bias=True)
      (3): ReLU()
      (4): Linear(in_features=40, out_features=20, bias=True)
    )
    (decoder): Sequential(
      (0): Linear(in_features=20, out_features=40, bias=True)
      (1): ReLU()
      (2): Linear(in_features=40, out_features=60, bias=True)
      (3): ReLU()
      (4): Linear(in_features=60, out_features=80, bias=True)
    )
    (sex_classifier): FullyConnSexClassifier(
      (fc1): Linear(in_features=40, out_features=20, bias=True)
      (fc2): Linear(in_features=20, out_features=2, bias=True)
    )
  )
) loading from model_checkpoints/asr_model.ckpt, the transferred parameters did not have parameters for the key: 0.decoder.4.bias
2022-03-23 20:58:55,972 - speechbrain.utils.checkpoints - WARNING - During parameter transfer to ModuleList(
  (0): FullyConnectedAutoencoder(
    (encoder): Sequential(
      (0): Linear(in_features=80, out_features=60, bias=True)
      (1): ReLU()
      (2): Linear(in_features=60, out_features=40, bias=True)
      (3): ReLU()
      (4): Linear(in_features=40, out_features=20, bias=True)
    )
    (decoder): Sequential(
      (0): Linear(in_features=20, out_features=40, bias=True)
      (1): ReLU()
      (2): Linear(in_features=40, out_features=60, bias=True)
      (3): ReLU()
      (4): Linear(in_features=60, out_features=80, bias=True)
    )
    (sex_classifier): FullyConnSexClassifier(
      (fc1): Linear(in_features=40, out_features=20, bias=True)
      (fc2): Linear(in_features=20, out_features=2, bias=True)
    )
  )
) loading from model_checkpoints/asr_model.ckpt, the transferred parameters did not have parameters for the key: 0.sex_classifier.fc1.weight
2022-03-23 20:58:55,973 - speechbrain.utils.checkpoints - WARNING - During parameter transfer to ModuleList(
  (0): FullyConnectedAutoencoder(
    (encoder): Sequential(
      (0): Linear(in_features=80, out_features=60, bias=True)
      (1): ReLU()
      (2): Linear(in_features=60, out_features=40, bias=True)
      (3): ReLU()
      (4): Linear(in_features=40, out_features=20, bias=True)
    )
    (decoder): Sequential(
      (0): Linear(in_features=20, out_features=40, bias=True)
      (1): ReLU()
      (2): Linear(in_features=40, out_features=60, bias=True)
      (3): ReLU()
      (4): Linear(in_features=60, out_features=80, bias=True)
    )
    (sex_classifier): FullyConnSexClassifier(
      (fc1): Linear(in_features=40, out_features=20, bias=True)
      (fc2): Linear(in_features=20, out_features=2, bias=True)
    )
  )
) loading from model_checkpoints/asr_model.ckpt, the transferred parameters did not have parameters for the key: 0.sex_classifier.fc1.bias
2022-03-23 20:58:55,973 - speechbrain.utils.checkpoints - WARNING - During parameter transfer to ModuleList(
  (0): FullyConnectedAutoencoder(
    (encoder): Sequential(
      (0): Linear(in_features=80, out_features=60, bias=True)
      (1): ReLU()
      (2): Linear(in_features=60, out_features=40, bias=True)
      (3): ReLU()
      (4): Linear(in_features=40, out_features=20, bias=True)
    )
    (decoder): Sequential(
      (0): Linear(in_features=20, out_features=40, bias=True)
      (1): ReLU()
      (2): Linear(in_features=40, out_features=60, bias=True)
      (3): ReLU()
      (4): Linear(in_features=60, out_features=80, bias=True)
    )
    (sex_classifier): FullyConnSexClassifier(
      (fc1): Linear(in_features=40, out_features=20, bias=True)
      (fc2): Linear(in_features=20, out_features=2, bias=True)
    )
  )
) loading from model_checkpoints/asr_model.ckpt, the transferred parameters did not have parameters for the key: 0.sex_classifier.fc2.weight
2022-03-23 20:58:55,973 - speechbrain.utils.checkpoints - WARNING - During parameter transfer to ModuleList(
  (0): FullyConnectedAutoencoder(
    (encoder): Sequential(
      (0): Linear(in_features=80, out_features=60, bias=True)
      (1): ReLU()
      (2): Linear(in_features=60, out_features=40, bias=True)
      (3): ReLU()
      (4): Linear(in_features=40, out_features=20, bias=True)
    )
    (decoder): Sequential(
      (0): Linear(in_features=20, out_features=40, bias=True)
      (1): ReLU()
      (2): Linear(in_features=40, out_features=60, bias=True)
      (3): ReLU()
      (4): Linear(in_features=60, out_features=80, bias=True)
    )
    (sex_classifier): FullyConnSexClassifier(
      (fc1): Linear(in_features=40, out_features=20, bias=True)
      (fc2): Linear(in_features=20, out_features=2, bias=True)
    )
  )
) loading from model_checkpoints/asr_model.ckpt, the transferred parameters did not have parameters for the key: 0.sex_classifier.fc2.bias
2022-03-23 20:58:55,974 - speechbrain.utils.checkpoints - WARNING - During parameter transfer to ModuleList(
  (0): FullyConnectedAutoencoder(
    (encoder): Sequential(
      (0): Linear(in_features=80, out_features=60, bias=True)
      (1): ReLU()
      (2): Linear(in_features=60, out_features=40, bias=True)
      (3): ReLU()
      (4): Linear(in_features=40, out_features=20, bias=True)
    )
    (decoder): Sequential(
      (0): Linear(in_features=20, out_features=40, bias=True)
      (1): ReLU()
      (2): Linear(in_features=40, out_features=60, bias=True)
      (3): ReLU()
      (4): Linear(in_features=60, out_features=80, bias=True)
    )
    (sex_classifier): FullyConnSexClassifier(
      (fc1): Linear(in_features=40, out_features=20, bias=True)
      (fc2): Linear(in_features=20, out_features=2, bias=True)
    )
  )
) loading from model_checkpoints/asr_model.ckpt, the object could not use the parameters loaded with the key: 1.positional_encoding.pe
2022-03-23 20:58:55,974 - speechbrain.utils.checkpoints - WARNING - During parameter transfer to ModuleList(
  (0): FullyConnectedAutoencoder(
    (encoder): Sequential(
      (0): Linear(in_features=80, out_features=60, bias=True)
      (1): ReLU()
      (2): Linear(in_features=60, out_features=40, bias=True)
      (3): ReLU()
      (4): Linear(in_features=40, out_features=20, bias=True)
    )
    (decoder): Sequential(
      (0): Linear(in_features=20, out_features=40, bias=True)
      (1): ReLU()
      (2): Linear(in_features=40, out_features=60, bias=True)
      (3): ReLU()
      (4): Linear(in_features=60, out_features=80, bias=True)
    )
    (sex_classifier): FullyConnSexClassifier(
      (fc1): Linear(in_features=40, out_features=20, bias=True)
      (fc2): Linear(in_features=20, out_features=2, bias=True)
    )
  )
) loading from model_checkpoints/asr_model.ckpt, the object could not use the parameters loaded with the key: 1.encoder.layers.0.self_att.att.in_proj_weight
2022-03-23 20:58:55,983 - speechbrain.utils.checkpoints - WARNING - During parameter transfer to ModuleList(
  (0): FullyConnectedAutoencoder(
    (encoder): Sequential(
      (0): Linear(in_features=80, out_features=60, bias=True)
      (1): ReLU()
      (2): Linear(in_features=60, out_features=40, bias=True)
      (3): ReLU()
      (4): Linear(in_features=40, out_features=20, bias=True)
    )
    (decoder): Sequential(
      (0): Linear(in_features=20, out_features=40, bias=True)
      (1): ReLU()
      (2): Linear(in_features=40, out_features=60, bias=True)
      (3): ReLU()
      (4): Linear(in_features=60, out_features=80, bias=True)
    )
    (sex_classifier): FullyConnSexClassifier(
      (fc1): Linear(in_features=40, out_features=20, bias=True)
      (fc2): Linear(in_features=20, out_features=2, bias=True)
    )
  )
) loading from model_checkpoints/asr_model.ckpt, the object could not use the parameters loaded with the key: 1.encoder.layers.0.self_att.att.in_proj_bias
2022-03-23 20:58:55,984 - speechbrain.utils.checkpoints - WARNING - During parameter transfer to ModuleList(
  (0): FullyConnectedAutoencoder(
    (encoder): Sequential(
      (0): Linear(in_features=80, out_features=60, bias=True)
      (1): ReLU()
      (2): Linear(in_features=60, out_features=40, bias=True)
      (3): ReLU()
      (4): Linear(in_features=40, out_features=20, bias=True)
    )
    (decoder): Sequential(
      (0): Linear(in_features=20, out_features=40, bias=True)
      (1): ReLU()
      (2): Linear(in_features=40, out_features=60, bias=True)
      (3): ReLU()
      (4): Linear(in_features=60, out_features=80, bias=True)
    )
    (sex_classifier): FullyConnSexClassifier(
      (fc1): Linear(in_features=40, out_features=20, bias=True)
      (fc2): Linear(in_features=20, out_features=2, bias=True)
    )
  )
) loading from model_checkpoints/asr_model.ckpt, the object could not use the parameters loaded with the key: 1.encoder.layers.0.self_att.att.out_proj.weight
2022-03-23 20:58:55,984 - speechbrain.utils.checkpoints - WARNING - During parameter transfer to ModuleList(
  (0): FullyConnectedAutoencoder(
    (encoder): Sequential(
      (0): Linear(in_features=80, out_features=60, bias=True)
      (1): ReLU()
      (2): Linear(in_features=60, out_features=40, bias=True)
      (3): ReLU()
      (4): Linear(in_features=40, out_features=20, bias=True)
    )
    (decoder): Sequential(
      (0): Linear(in_features=20, out_features=40, bias=True)
      (1): ReLU()
      (2): Linear(in_features=40, out_features=60, bias=True)
      (3): ReLU()
      (4): Linear(in_features=60, out_features=80, bias=True)
    )
    (sex_classifier): FullyConnSexClassifier(
      (fc1): Linear(in_features=40, out_features=20, bias=True)
      (fc2): Linear(in_features=20, out_features=2, bias=True)
    )
  )
) loading from model_checkpoints/asr_model.ckpt, the object could not use the parameters loaded with the key: 1.encoder.layers.0.self_att.att.out_proj.bias
2022-03-23 20:58:55,984 - speechbrain.utils.checkpoints - WARNING - During parameter transfer to ModuleList(
  (0): FullyConnectedAutoencoder(
    (encoder): Sequential(
      (0): Linear(in_features=80, out_features=60, bias=True)
      (1): ReLU()
      (2): Linear(in_features=60, out_features=40, bias=True)
      (3): ReLU()
      (4): Linear(in_features=40, out_features=20, bias=True)
    )
    (decoder): Sequential(
      (0): Linear(in_features=20, out_features=40, bias=True)
      (1): ReLU()
      (2): Linear(in_features=40, out_features=60, bias=True)
      (3): ReLU()
      (4): Linear(in_features=60, out_features=80, bias=True)
    )
    (sex_classifier): FullyConnSexClassifier(
      (fc1): Linear(in_features=40, out_features=20, bias=True)
      (fc2): Linear(in_features=20, out_features=2, bias=True)
    )
  )
) loading from model_checkpoints/asr_model.ckpt, the object could not use the parameters loaded with the key: 1.encoder.layers.0.pos_ffn.ffn.0.weight
2022-03-23 20:58:55,984 - speechbrain.utils.checkpoints - WARNING - During parameter transfer to ModuleList(
  (0): FullyConnectedAutoencoder(
    (encoder): Sequential(
      (0): Linear(in_features=80, out_features=60, bias=True)
      (1): ReLU()
      (2): Linear(in_features=60, out_features=40, bias=True)
      (3): ReLU()
      (4): Linear(in_features=40, out_features=20, bias=True)
    )
    (decoder): Sequential(
      (0): Linear(in_features=20, out_features=40, bias=True)
      (1): ReLU()
      (2): Linear(in_features=40, out_features=60, bias=True)
      (3): ReLU()
      (4): Linear(in_features=60, out_features=80, bias=True)
    )
    (sex_classifier): FullyConnSexClassifier(
      (fc1): Linear(in_features=40, out_features=20, bias=True)
      (fc2): Linear(in_features=20, out_features=2, bias=True)
    )
  )
) loading from model_checkpoints/asr_model.ckpt, the object could not use the parameters loaded with the key: 1.encoder.layers.0.pos_ffn.ffn.0.bias
2022-03-23 20:58:55,985 - speechbrain.utils.checkpoints - WARNING - During parameter transfer to ModuleList(
  (0): FullyConnectedAutoencoder(
    (encoder): Sequential(
      (0): Linear(in_features=80, out_features=60, bias=True)
      (1): ReLU()
      (2): Linear(in_features=60, out_features=40, bias=True)
      (3): ReLU()
      (4): Linear(in_features=40, out_features=20, bias=True)
    )
    (decoder): Sequential(
      (0): Linear(in_features=20, out_features=40, bias=True)
      (1): ReLU()
      (2): Linear(in_features=40, out_features=60, bias=True)
      (3): ReLU()
      (4): Linear(in_features=60, out_features=80, bias=True)
    )
    (sex_classifier): FullyConnSexClassifier(
      (fc1): Linear(in_features=40, out_features=20, bias=True)
      (fc2): Linear(in_features=20, out_features=2, bias=True)
    )
  )
) loading from model_checkpoints/asr_model.ckpt, the object could not use the parameters loaded with the key: 1.encoder.layers.0.pos_ffn.ffn.3.weight
2022-03-23 20:58:55,985 - speechbrain.utils.checkpoints - WARNING - During parameter transfer to ModuleList(
  (0): FullyConnectedAutoencoder(
    (encoder): Sequential(
      (0): Linear(in_features=80, out_features=60, bias=True)
      (1): ReLU()
      (2): Linear(in_features=60, out_features=40, bias=True)
      (3): ReLU()
      (4): Linear(in_features=40, out_features=20, bias=True)
    )
    (decoder): Sequential(
      (0): Linear(in_features=20, out_features=40, bias=True)
      (1): ReLU()
      (2): Linear(in_features=40, out_features=60, bias=True)
      (3): ReLU()
      (4): Linear(in_features=60, out_features=80, bias=True)
    )
    (sex_classifier): FullyConnSexClassifier(
      (fc1): Linear(in_features=40, out_features=20, bias=True)
      (fc2): Linear(in_features=20, out_features=2, bias=True)
    )
  )
) loading from model_checkpoints/asr_model.ckpt, the object could not use the parameters loaded with the key: 1.encoder.layers.0.pos_ffn.ffn.3.bias
2022-03-23 20:58:55,985 - speechbrain.utils.checkpoints - WARNING - During parameter transfer to ModuleList(
  (0): FullyConnectedAutoencoder(
    (encoder): Sequential(
      (0): Linear(in_features=80, out_features=60, bias=True)
      (1): ReLU()
      (2): Linear(in_features=60, out_features=40, bias=True)
      (3): ReLU()
      (4): Linear(in_features=40, out_features=20, bias=True)
    )
    (decoder): Sequential(
      (0): Linear(in_features=20, out_features=40, bias=True)
      (1): ReLU()
      (2): Linear(in_features=40, out_features=60, bias=True)
      (3): ReLU()
      (4): Linear(in_features=60, out_features=80, bias=True)
    )
    (sex_classifier): FullyConnSexClassifier(
      (fc1): Linear(in_features=40, out_features=20, bias=True)
      (fc2): Linear(in_features=20, out_features=2, bias=True)
    )
  )
) loading from model_checkpoints/asr_model.ckpt, the object could not use the parameters loaded with the key: 1.encoder.layers.0.norm1.norm.weight
2022-03-23 20:58:55,985 - speechbrain.utils.checkpoints - WARNING - During parameter transfer to ModuleList(
  (0): FullyConnectedAutoencoder(
    (encoder): Sequential(
      (0): Linear(in_features=80, out_features=60, bias=True)
      (1): ReLU()
      (2): Linear(in_features=60, out_features=40, bias=True)
      (3): ReLU()
      (4): Linear(in_features=40, out_features=20, bias=True)
    )
    (decoder): Sequential(
      (0): Linear(in_features=20, out_features=40, bias=True)
      (1): ReLU()
      (2): Linear(in_features=40, out_features=60, bias=True)
      (3): ReLU()
      (4): Linear(in_features=60, out_features=80, bias=True)
    )
    (sex_classifier): FullyConnSexClassifier(
      (fc1): Linear(in_features=40, out_features=20, bias=True)
      (fc2): Linear(in_features=20, out_features=2, bias=True)
    )
  )
) loading from model_checkpoints/asr_model.ckpt, the object could not use the parameters loaded with the key: 1.encoder.layers.0.norm1.norm.bias
2022-03-23 20:58:55,986 - speechbrain.utils.checkpoints - WARNING - During parameter transfer to ModuleList(
  (0): FullyConnectedAutoencoder(
    (encoder): Sequential(
      (0): Linear(in_features=80, out_features=60, bias=True)
      (1): ReLU()
      (2): Linear(in_features=60, out_features=40, bias=True)
      (3): ReLU()
      (4): Linear(in_features=40, out_features=20, bias=True)
    )
    (decoder): Sequential(
      (0): Linear(in_features=20, out_features=40, bias=True)
      (1): ReLU()
      (2): Linear(in_features=40, out_features=60, bias=True)
      (3): ReLU()
      (4): Linear(in_features=60, out_features=80, bias=True)
    )
    (sex_classifier): FullyConnSexClassifier(
      (fc1): Linear(in_features=40, out_features=20, bias=True)
      (fc2): Linear(in_features=20, out_features=2, bias=True)
    )
  )
) loading from model_checkpoints/asr_model.ckpt, the object could not use the parameters loaded with the key: 1.encoder.layers.0.norm2.norm.weight
2022-03-23 20:58:55,986 - speechbrain.utils.checkpoints - WARNING - During parameter transfer to ModuleList(
  (0): FullyConnectedAutoencoder(
    (encoder): Sequential(
      (0): Linear(in_features=80, out_features=60, bias=True)
      (1): ReLU()
      (2): Linear(in_features=60, out_features=40, bias=True)
      (3): ReLU()
      (4): Linear(in_features=40, out_features=20, bias=True)
    )
    (decoder): Sequential(
      (0): Linear(in_features=20, out_features=40, bias=True)
      (1): ReLU()
      (2): Linear(in_features=40, out_features=60, bias=True)
      (3): ReLU()
      (4): Linear(in_features=60, out_features=80, bias=True)
    )
    (sex_classifier): FullyConnSexClassifier(
      (fc1): Linear(in_features=40, out_features=20, bias=True)
      (fc2): Linear(in_features=20, out_features=2, bias=True)
    )
  )
) loading from model_checkpoints/asr_model.ckpt, the object could not use the parameters loaded with the key: 1.encoder.layers.0.norm2.norm.bias
2022-03-23 20:58:55,986 - speechbrain.utils.checkpoints - WARNING - During parameter transfer to ModuleList(
  (0): FullyConnectedAutoencoder(
    (encoder): Sequential(
      (0): Linear(in_features=80, out_features=60, bias=True)
      (1): ReLU()
      (2): Linear(in_features=60, out_features=40, bias=True)
      (3): ReLU()
      (4): Linear(in_features=40, out_features=20, bias=True)
    )
    (decoder): Sequential(
      (0): Linear(in_features=20, out_features=40, bias=True)
      (1): ReLU()
      (2): Linear(in_features=40, out_features=60, bias=True)
      (3): ReLU()
      (4): Linear(in_features=60, out_features=80, bias=True)
    )
    (sex_classifier): FullyConnSexClassifier(
      (fc1): Linear(in_features=40, out_features=20, bias=True)
      (fc2): Linear(in_features=20, out_features=2, bias=True)
    )
  )
) loading from model_checkpoints/asr_model.ckpt, the object could not use the parameters loaded with the key: 1.encoder.layers.1.self_att.att.in_proj_weight
2022-03-23 20:58:55,986 - speechbrain.utils.checkpoints - WARNING - During parameter transfer to ModuleList(
  (0): FullyConnectedAutoencoder(
    (encoder): Sequential(
      (0): Linear(in_features=80, out_features=60, bias=True)
      (1): ReLU()
      (2): Linear(in_features=60, out_features=40, bias=True)
      (3): ReLU()
      (4): Linear(in_features=40, out_features=20, bias=True)
    )
    (decoder): Sequential(
      (0): Linear(in_features=20, out_features=40, bias=True)
      (1): ReLU()
      (2): Linear(in_features=40, out_features=60, bias=True)
      (3): ReLU()
      (4): Linear(in_features=60, out_features=80, bias=True)
    )
    (sex_classifier): FullyConnSexClassifier(
      (fc1): Linear(in_features=40, out_features=20, bias=True)
      (fc2): Linear(in_features=20, out_features=2, bias=True)
    )
  )
) loading from model_checkpoints/asr_model.ckpt, the object could not use the parameters loaded with the key: 1.encoder.layers.1.self_att.att.in_proj_bias
2022-03-23 20:58:55,986 - speechbrain.utils.checkpoints - WARNING - During parameter transfer to ModuleList(
  (0): FullyConnectedAutoencoder(
    (encoder): Sequential(
      (0): Linear(in_features=80, out_features=60, bias=True)
      (1): ReLU()
      (2): Linear(in_features=60, out_features=40, bias=True)
      (3): ReLU()
      (4): Linear(in_features=40, out_features=20, bias=True)
    )
    (decoder): Sequential(
      (0): Linear(in_features=20, out_features=40, bias=True)
      (1): ReLU()
      (2): Linear(in_features=40, out_features=60, bias=True)
      (3): ReLU()
      (4): Linear(in_features=60, out_features=80, bias=True)
    )
    (sex_classifier): FullyConnSexClassifier(
      (fc1): Linear(in_features=40, out_features=20, bias=True)
      (fc2): Linear(in_features=20, out_features=2, bias=True)
    )
  )
) loading from model_checkpoints/asr_model.ckpt, the object could not use the parameters loaded with the key: 1.encoder.layers.1.self_att.att.out_proj.weight
2022-03-23 20:58:55,987 - speechbrain.utils.checkpoints - WARNING - During parameter transfer to ModuleList(
  (0): FullyConnectedAutoencoder(
    (encoder): Sequential(
      (0): Linear(in_features=80, out_features=60, bias=True)
      (1): ReLU()
      (2): Linear(in_features=60, out_features=40, bias=True)
      (3): ReLU()
      (4): Linear(in_features=40, out_features=20, bias=True)
    )
    (decoder): Sequential(
      (0): Linear(in_features=20, out_features=40, bias=True)
      (1): ReLU()
      (2): Linear(in_features=40, out_features=60, bias=True)
      (3): ReLU()
      (4): Linear(in_features=60, out_features=80, bias=True)
    )
    (sex_classifier): FullyConnSexClassifier(
      (fc1): Linear(in_features=40, out_features=20, bias=True)
      (fc2): Linear(in_features=20, out_features=2, bias=True)
    )
  )
) loading from model_checkpoints/asr_model.ckpt, the object could not use the parameters loaded with the key: 1.encoder.layers.1.self_att.att.out_proj.bias
2022-03-23 20:58:55,987 - speechbrain.utils.checkpoints - WARNING - During parameter transfer to ModuleList(
  (0): FullyConnectedAutoencoder(
    (encoder): Sequential(
      (0): Linear(in_features=80, out_features=60, bias=True)
      (1): ReLU()
      (2): Linear(in_features=60, out_features=40, bias=True)
      (3): ReLU()
      (4): Linear(in_features=40, out_features=20, bias=True)
    )
    (decoder): Sequential(
      (0): Linear(in_features=20, out_features=40, bias=True)
      (1): ReLU()
      (2): Linear(in_features=40, out_features=60, bias=True)
      (3): ReLU()
      (4): Linear(in_features=60, out_features=80, bias=True)
    )
    (sex_classifier): FullyConnSexClassifier(
      (fc1): Linear(in_features=40, out_features=20, bias=True)
      (fc2): Linear(in_features=20, out_features=2, bias=True)
    )
  )
) loading from model_checkpoints/asr_model.ckpt, the object could not use the parameters loaded with the key: 1.encoder.layers.1.pos_ffn.ffn.0.weight
2022-03-23 20:58:55,987 - speechbrain.utils.checkpoints - WARNING - During parameter transfer to ModuleList(
  (0): FullyConnectedAutoencoder(
    (encoder): Sequential(
      (0): Linear(in_features=80, out_features=60, bias=True)
      (1): ReLU()
      (2): Linear(in_features=60, out_features=40, bias=True)
      (3): ReLU()
      (4): Linear(in_features=40, out_features=20, bias=True)
    )
    (decoder): Sequential(
      (0): Linear(in_features=20, out_features=40, bias=True)
      (1): ReLU()
      (2): Linear(in_features=40, out_features=60, bias=True)
      (3): ReLU()
      (4): Linear(in_features=60, out_features=80, bias=True)
    )
    (sex_classifier): FullyConnSexClassifier(
      (fc1): Linear(in_features=40, out_features=20, bias=True)
      (fc2): Linear(in_features=20, out_features=2, bias=True)
    )
  )
) loading from model_checkpoints/asr_model.ckpt, the object could not use the parameters loaded with the key: 1.encoder.layers.1.pos_ffn.ffn.0.bias
2022-03-23 20:58:55,987 - speechbrain.utils.checkpoints - WARNING - During parameter transfer to ModuleList(
  (0): FullyConnectedAutoencoder(
    (encoder): Sequential(
      (0): Linear(in_features=80, out_features=60, bias=True)
      (1): ReLU()
      (2): Linear(in_features=60, out_features=40, bias=True)
      (3): ReLU()
      (4): Linear(in_features=40, out_features=20, bias=True)
    )
    (decoder): Sequential(
      (0): Linear(in_features=20, out_features=40, bias=True)
      (1): ReLU()
      (2): Linear(in_features=40, out_features=60, bias=True)
      (3): ReLU()
      (4): Linear(in_features=60, out_features=80, bias=True)
    )
    (sex_classifier): FullyConnSexClassifier(
      (fc1): Linear(in_features=40, out_features=20, bias=True)
      (fc2): Linear(in_features=20, out_features=2, bias=True)
    )
  )
) loading from model_checkpoints/asr_model.ckpt, the object could not use the parameters loaded with the key: 1.encoder.layers.1.pos_ffn.ffn.3.weight
2022-03-23 20:58:55,988 - speechbrain.utils.checkpoints - WARNING - During parameter transfer to ModuleList(
  (0): FullyConnectedAutoencoder(
    (encoder): Sequential(
      (0): Linear(in_features=80, out_features=60, bias=True)
      (1): ReLU()
      (2): Linear(in_features=60, out_features=40, bias=True)
      (3): ReLU()
      (4): Linear(in_features=40, out_features=20, bias=True)
    )
    (decoder): Sequential(
      (0): Linear(in_features=20, out_features=40, bias=True)
      (1): ReLU()
      (2): Linear(in_features=40, out_features=60, bias=True)
      (3): ReLU()
      (4): Linear(in_features=60, out_features=80, bias=True)
    )
    (sex_classifier): FullyConnSexClassifier(
      (fc1): Linear(in_features=40, out_features=20, bias=True)
      (fc2): Linear(in_features=20, out_features=2, bias=True)
    )
  )
) loading from model_checkpoints/asr_model.ckpt, the object could not use the parameters loaded with the key: 1.encoder.layers.1.pos_ffn.ffn.3.bias
2022-03-23 20:58:55,988 - speechbrain.utils.checkpoints - WARNING - During parameter transfer to ModuleList(
  (0): FullyConnectedAutoencoder(
    (encoder): Sequential(
      (0): Linear(in_features=80, out_features=60, bias=True)
      (1): ReLU()
      (2): Linear(in_features=60, out_features=40, bias=True)
      (3): ReLU()
      (4): Linear(in_features=40, out_features=20, bias=True)
    )
    (decoder): Sequential(
      (0): Linear(in_features=20, out_features=40, bias=True)
      (1): ReLU()
      (2): Linear(in_features=40, out_features=60, bias=True)
      (3): ReLU()
      (4): Linear(in_features=60, out_features=80, bias=True)
    )
    (sex_classifier): FullyConnSexClassifier(
      (fc1): Linear(in_features=40, out_features=20, bias=True)
      (fc2): Linear(in_features=20, out_features=2, bias=True)
    )
  )
) loading from model_checkpoints/asr_model.ckpt, the object could not use the parameters loaded with the key: 1.encoder.layers.1.norm1.norm.weight
2022-03-23 20:58:55,988 - speechbrain.utils.checkpoints - WARNING - During parameter transfer to ModuleList(
  (0): FullyConnectedAutoencoder(
    (encoder): Sequential(
      (0): Linear(in_features=80, out_features=60, bias=True)
      (1): ReLU()
      (2): Linear(in_features=60, out_features=40, bias=True)
      (3): ReLU()
      (4): Linear(in_features=40, out_features=20, bias=True)
    )
    (decoder): Sequential(
      (0): Linear(in_features=20, out_features=40, bias=True)
      (1): ReLU()
      (2): Linear(in_features=40, out_features=60, bias=True)
      (3): ReLU()
      (4): Linear(in_features=60, out_features=80, bias=True)
    )
    (sex_classifier): FullyConnSexClassifier(
      (fc1): Linear(in_features=40, out_features=20, bias=True)
      (fc2): Linear(in_features=20, out_features=2, bias=True)
    )
  )
) loading from model_checkpoints/asr_model.ckpt, the object could not use the parameters loaded with the key: 1.encoder.layers.1.norm1.norm.bias
2022-03-23 20:58:55,988 - speechbrain.utils.checkpoints - WARNING - During parameter transfer to ModuleList(
  (0): FullyConnectedAutoencoder(
    (encoder): Sequential(
      (0): Linear(in_features=80, out_features=60, bias=True)
      (1): ReLU()
      (2): Linear(in_features=60, out_features=40, bias=True)
      (3): ReLU()
      (4): Linear(in_features=40, out_features=20, bias=True)
    )
    (decoder): Sequential(
      (0): Linear(in_features=20, out_features=40, bias=True)
      (1): ReLU()
      (2): Linear(in_features=40, out_features=60, bias=True)
      (3): ReLU()
      (4): Linear(in_features=60, out_features=80, bias=True)
    )
    (sex_classifier): FullyConnSexClassifier(
      (fc1): Linear(in_features=40, out_features=20, bias=True)
      (fc2): Linear(in_features=20, out_features=2, bias=True)
    )
  )
) loading from model_checkpoints/asr_model.ckpt, the object could not use the parameters loaded with the key: 1.encoder.layers.1.norm2.norm.weight
2022-03-23 20:58:55,989 - speechbrain.utils.checkpoints - WARNING - During parameter transfer to ModuleList(
  (0): FullyConnectedAutoencoder(
    (encoder): Sequential(
      (0): Linear(in_features=80, out_features=60, bias=True)
      (1): ReLU()
      (2): Linear(in_features=60, out_features=40, bias=True)
      (3): ReLU()
      (4): Linear(in_features=40, out_features=20, bias=True)
    )
    (decoder): Sequential(
      (0): Linear(in_features=20, out_features=40, bias=True)
      (1): ReLU()
      (2): Linear(in_features=40, out_features=60, bias=True)
      (3): ReLU()
      (4): Linear(in_features=60, out_features=80, bias=True)
    )
    (sex_classifier): FullyConnSexClassifier(
      (fc1): Linear(in_features=40, out_features=20, bias=True)
      (fc2): Linear(in_features=20, out_features=2, bias=True)
    )
  )
) loading from model_checkpoints/asr_model.ckpt, the object could not use the parameters loaded with the key: 1.encoder.layers.1.norm2.norm.bias
2022-03-23 20:58:55,989 - speechbrain.utils.checkpoints - WARNING - During parameter transfer to ModuleList(
  (0): FullyConnectedAutoencoder(
    (encoder): Sequential(
      (0): Linear(in_features=80, out_features=60, bias=True)
      (1): ReLU()
      (2): Linear(in_features=60, out_features=40, bias=True)
      (3): ReLU()
      (4): Linear(in_features=40, out_features=20, bias=True)
    )
    (decoder): Sequential(
      (0): Linear(in_features=20, out_features=40, bias=True)
      (1): ReLU()
      (2): Linear(in_features=40, out_features=60, bias=True)
      (3): ReLU()
      (4): Linear(in_features=60, out_features=80, bias=True)
    )
    (sex_classifier): FullyConnSexClassifier(
      (fc1): Linear(in_features=40, out_features=20, bias=True)
      (fc2): Linear(in_features=20, out_features=2, bias=True)
    )
  )
) loading from model_checkpoints/asr_model.ckpt, the object could not use the parameters loaded with the key: 1.encoder.layers.2.self_att.att.in_proj_weight
2022-03-23 20:58:55,989 - speechbrain.utils.checkpoints - WARNING - During parameter transfer to ModuleList(
  (0): FullyConnectedAutoencoder(
    (encoder): Sequential(
      (0): Linear(in_features=80, out_features=60, bias=True)
      (1): ReLU()
      (2): Linear(in_features=60, out_features=40, bias=True)
      (3): ReLU()
      (4): Linear(in_features=40, out_features=20, bias=True)
    )
    (decoder): Sequential(
      (0): Linear(in_features=20, out_features=40, bias=True)
      (1): ReLU()
      (2): Linear(in_features=40, out_features=60, bias=True)
      (3): ReLU()
      (4): Linear(in_features=60, out_features=80, bias=True)
    )
    (sex_classifier): FullyConnSexClassifier(
      (fc1): Linear(in_features=40, out_features=20, bias=True)
      (fc2): Linear(in_features=20, out_features=2, bias=True)
    )
  )
) loading from model_checkpoints/asr_model.ckpt, the object could not use the parameters loaded with the key: 1.encoder.layers.2.self_att.att.in_proj_bias
2022-03-23 20:58:55,989 - speechbrain.utils.checkpoints - WARNING - During parameter transfer to ModuleList(
  (0): FullyConnectedAutoencoder(
    (encoder): Sequential(
      (0): Linear(in_features=80, out_features=60, bias=True)
      (1): ReLU()
      (2): Linear(in_features=60, out_features=40, bias=True)
      (3): ReLU()
      (4): Linear(in_features=40, out_features=20, bias=True)
    )
    (decoder): Sequential(
      (0): Linear(in_features=20, out_features=40, bias=True)
      (1): ReLU()
      (2): Linear(in_features=40, out_features=60, bias=True)
      (3): ReLU()
      (4): Linear(in_features=60, out_features=80, bias=True)
    )
    (sex_classifier): FullyConnSexClassifier(
      (fc1): Linear(in_features=40, out_features=20, bias=True)
      (fc2): Linear(in_features=20, out_features=2, bias=True)
    )
  )
) loading from model_checkpoints/asr_model.ckpt, the object could not use the parameters loaded with the key: 1.encoder.layers.2.self_att.att.out_proj.weight
2022-03-23 20:58:55,989 - speechbrain.utils.checkpoints - WARNING - During parameter transfer to ModuleList(
  (0): FullyConnectedAutoencoder(
    (encoder): Sequential(
      (0): Linear(in_features=80, out_features=60, bias=True)
      (1): ReLU()
      (2): Linear(in_features=60, out_features=40, bias=True)
      (3): ReLU()
      (4): Linear(in_features=40, out_features=20, bias=True)
    )
    (decoder): Sequential(
      (0): Linear(in_features=20, out_features=40, bias=True)
      (1): ReLU()
      (2): Linear(in_features=40, out_features=60, bias=True)
      (3): ReLU()
      (4): Linear(in_features=60, out_features=80, bias=True)
    )
    (sex_classifier): FullyConnSexClassifier(
      (fc1): Linear(in_features=40, out_features=20, bias=True)
      (fc2): Linear(in_features=20, out_features=2, bias=True)
    )
  )
) loading from model_checkpoints/asr_model.ckpt, the object could not use the parameters loaded with the key: 1.encoder.layers.2.self_att.att.out_proj.bias
2022-03-23 20:58:55,990 - speechbrain.utils.checkpoints - WARNING - During parameter transfer to ModuleList(
  (0): FullyConnectedAutoencoder(
    (encoder): Sequential(
      (0): Linear(in_features=80, out_features=60, bias=True)
      (1): ReLU()
      (2): Linear(in_features=60, out_features=40, bias=True)
      (3): ReLU()
      (4): Linear(in_features=40, out_features=20, bias=True)
    )
    (decoder): Sequential(
      (0): Linear(in_features=20, out_features=40, bias=True)
      (1): ReLU()
      (2): Linear(in_features=40, out_features=60, bias=True)
      (3): ReLU()
      (4): Linear(in_features=60, out_features=80, bias=True)
    )
    (sex_classifier): FullyConnSexClassifier(
      (fc1): Linear(in_features=40, out_features=20, bias=True)
      (fc2): Linear(in_features=20, out_features=2, bias=True)
    )
  )
) loading from model_checkpoints/asr_model.ckpt, the object could not use the parameters loaded with the key: 1.encoder.layers.2.pos_ffn.ffn.0.weight
2022-03-23 20:58:55,990 - speechbrain.utils.checkpoints - WARNING - During parameter transfer to ModuleList(
  (0): FullyConnectedAutoencoder(
    (encoder): Sequential(
      (0): Linear(in_features=80, out_features=60, bias=True)
      (1): ReLU()
      (2): Linear(in_features=60, out_features=40, bias=True)
      (3): ReLU()
      (4): Linear(in_features=40, out_features=20, bias=True)
    )
    (decoder): Sequential(
      (0): Linear(in_features=20, out_features=40, bias=True)
      (1): ReLU()
      (2): Linear(in_features=40, out_features=60, bias=True)
      (3): ReLU()
      (4): Linear(in_features=60, out_features=80, bias=True)
    )
    (sex_classifier): FullyConnSexClassifier(
      (fc1): Linear(in_features=40, out_features=20, bias=True)
      (fc2): Linear(in_features=20, out_features=2, bias=True)
    )
  )
) loading from model_checkpoints/asr_model.ckpt, the object could not use the parameters loaded with the key: 1.encoder.layers.2.pos_ffn.ffn.0.bias
2022-03-23 20:58:55,990 - speechbrain.utils.checkpoints - WARNING - During parameter transfer to ModuleList(
  (0): FullyConnectedAutoencoder(
    (encoder): Sequential(
      (0): Linear(in_features=80, out_features=60, bias=True)
      (1): ReLU()
      (2): Linear(in_features=60, out_features=40, bias=True)
      (3): ReLU()
      (4): Linear(in_features=40, out_features=20, bias=True)
    )
    (decoder): Sequential(
      (0): Linear(in_features=20, out_features=40, bias=True)
      (1): ReLU()
      (2): Linear(in_features=40, out_features=60, bias=True)
      (3): ReLU()
      (4): Linear(in_features=60, out_features=80, bias=True)
    )
    (sex_classifier): FullyConnSexClassifier(
      (fc1): Linear(in_features=40, out_features=20, bias=True)
      (fc2): Linear(in_features=20, out_features=2, bias=True)
    )
  )
) loading from model_checkpoints/asr_model.ckpt, the object could not use the parameters loaded with the key: 1.encoder.layers.2.pos_ffn.ffn.3.weight
2022-03-23 20:58:55,990 - speechbrain.utils.checkpoints - WARNING - During parameter transfer to ModuleList(
  (0): FullyConnectedAutoencoder(
    (encoder): Sequential(
      (0): Linear(in_features=80, out_features=60, bias=True)
      (1): ReLU()
      (2): Linear(in_features=60, out_features=40, bias=True)
      (3): ReLU()
      (4): Linear(in_features=40, out_features=20, bias=True)
    )
    (decoder): Sequential(
      (0): Linear(in_features=20, out_features=40, bias=True)
      (1): ReLU()
      (2): Linear(in_features=40, out_features=60, bias=True)
      (3): ReLU()
      (4): Linear(in_features=60, out_features=80, bias=True)
    )
    (sex_classifier): FullyConnSexClassifier(
      (fc1): Linear(in_features=40, out_features=20, bias=True)
      (fc2): Linear(in_features=20, out_features=2, bias=True)
    )
  )
) loading from model_checkpoints/asr_model.ckpt, the object could not use the parameters loaded with the key: 1.encoder.layers.2.pos_ffn.ffn.3.bias
2022-03-23 20:58:55,991 - speechbrain.utils.checkpoints - WARNING - During parameter transfer to ModuleList(
  (0): FullyConnectedAutoencoder(
    (encoder): Sequential(
      (0): Linear(in_features=80, out_features=60, bias=True)
      (1): ReLU()
      (2): Linear(in_features=60, out_features=40, bias=True)
      (3): ReLU()
      (4): Linear(in_features=40, out_features=20, bias=True)
    )
    (decoder): Sequential(
      (0): Linear(in_features=20, out_features=40, bias=True)
      (1): ReLU()
      (2): Linear(in_features=40, out_features=60, bias=True)
      (3): ReLU()
      (4): Linear(in_features=60, out_features=80, bias=True)
    )
    (sex_classifier): FullyConnSexClassifier(
      (fc1): Linear(in_features=40, out_features=20, bias=True)
      (fc2): Linear(in_features=20, out_features=2, bias=True)
    )
  )
) loading from model_checkpoints/asr_model.ckpt, the object could not use the parameters loaded with the key: 1.encoder.layers.2.norm1.norm.weight
2022-03-23 20:58:55,991 - speechbrain.utils.checkpoints - WARNING - During parameter transfer to ModuleList(
  (0): FullyConnectedAutoencoder(
    (encoder): Sequential(
      (0): Linear(in_features=80, out_features=60, bias=True)
      (1): ReLU()
      (2): Linear(in_features=60, out_features=40, bias=True)
      (3): ReLU()
      (4): Linear(in_features=40, out_features=20, bias=True)
    )
    (decoder): Sequential(
      (0): Linear(in_features=20, out_features=40, bias=True)
      (1): ReLU()
      (2): Linear(in_features=40, out_features=60, bias=True)
      (3): ReLU()
      (4): Linear(in_features=60, out_features=80, bias=True)
    )
    (sex_classifier): FullyConnSexClassifier(
      (fc1): Linear(in_features=40, out_features=20, bias=True)
      (fc2): Linear(in_features=20, out_features=2, bias=True)
    )
  )
) loading from model_checkpoints/asr_model.ckpt, the object could not use the parameters loaded with the key: 1.encoder.layers.2.norm1.norm.bias
2022-03-23 20:58:55,991 - speechbrain.utils.checkpoints - WARNING - During parameter transfer to ModuleList(
  (0): FullyConnectedAutoencoder(
    (encoder): Sequential(
      (0): Linear(in_features=80, out_features=60, bias=True)
      (1): ReLU()
      (2): Linear(in_features=60, out_features=40, bias=True)
      (3): ReLU()
      (4): Linear(in_features=40, out_features=20, bias=True)
    )
    (decoder): Sequential(
      (0): Linear(in_features=20, out_features=40, bias=True)
      (1): ReLU()
      (2): Linear(in_features=40, out_features=60, bias=True)
      (3): ReLU()
      (4): Linear(in_features=60, out_features=80, bias=True)
    )
    (sex_classifier): FullyConnSexClassifier(
      (fc1): Linear(in_features=40, out_features=20, bias=True)
      (fc2): Linear(in_features=20, out_features=2, bias=True)
    )
  )
) loading from model_checkpoints/asr_model.ckpt, the object could not use the parameters loaded with the key: 1.encoder.layers.2.norm2.norm.weight
2022-03-23 20:58:55,991 - speechbrain.utils.checkpoints - WARNING - During parameter transfer to ModuleList(
  (0): FullyConnectedAutoencoder(
    (encoder): Sequential(
      (0): Linear(in_features=80, out_features=60, bias=True)
      (1): ReLU()
      (2): Linear(in_features=60, out_features=40, bias=True)
      (3): ReLU()
      (4): Linear(in_features=40, out_features=20, bias=True)
    )
    (decoder): Sequential(
      (0): Linear(in_features=20, out_features=40, bias=True)
      (1): ReLU()
      (2): Linear(in_features=40, out_features=60, bias=True)
      (3): ReLU()
      (4): Linear(in_features=60, out_features=80, bias=True)
    )
    (sex_classifier): FullyConnSexClassifier(
      (fc1): Linear(in_features=40, out_features=20, bias=True)
      (fc2): Linear(in_features=20, out_features=2, bias=True)
    )
  )
) loading from model_checkpoints/asr_model.ckpt, the object could not use the parameters loaded with the key: 1.encoder.layers.2.norm2.norm.bias
2022-03-23 20:58:55,991 - speechbrain.utils.checkpoints - WARNING - During parameter transfer to ModuleList(
  (0): FullyConnectedAutoencoder(
    (encoder): Sequential(
      (0): Linear(in_features=80, out_features=60, bias=True)
      (1): ReLU()
      (2): Linear(in_features=60, out_features=40, bias=True)
      (3): ReLU()
      (4): Linear(in_features=40, out_features=20, bias=True)
    )
    (decoder): Sequential(
      (0): Linear(in_features=20, out_features=40, bias=True)
      (1): ReLU()
      (2): Linear(in_features=40, out_features=60, bias=True)
      (3): ReLU()
      (4): Linear(in_features=60, out_features=80, bias=True)
    )
    (sex_classifier): FullyConnSexClassifier(
      (fc1): Linear(in_features=40, out_features=20, bias=True)
      (fc2): Linear(in_features=20, out_features=2, bias=True)
    )
  )
) loading from model_checkpoints/asr_model.ckpt, the object could not use the parameters loaded with the key: 1.encoder.layers.3.self_att.att.in_proj_weight
2022-03-23 20:58:55,992 - speechbrain.utils.checkpoints - WARNING - During parameter transfer to ModuleList(
  (0): FullyConnectedAutoencoder(
    (encoder): Sequential(
      (0): Linear(in_features=80, out_features=60, bias=True)
      (1): ReLU()
      (2): Linear(in_features=60, out_features=40, bias=True)
      (3): ReLU()
      (4): Linear(in_features=40, out_features=20, bias=True)
    )
    (decoder): Sequential(
      (0): Linear(in_features=20, out_features=40, bias=True)
      (1): ReLU()
      (2): Linear(in_features=40, out_features=60, bias=True)
      (3): ReLU()
      (4): Linear(in_features=60, out_features=80, bias=True)
    )
    (sex_classifier): FullyConnSexClassifier(
      (fc1): Linear(in_features=40, out_features=20, bias=True)
      (fc2): Linear(in_features=20, out_features=2, bias=True)
    )
  )
) loading from model_checkpoints/asr_model.ckpt, the object could not use the parameters loaded with the key: 1.encoder.layers.3.self_att.att.in_proj_bias
2022-03-23 20:58:55,992 - speechbrain.utils.checkpoints - WARNING - During parameter transfer to ModuleList(
  (0): FullyConnectedAutoencoder(
    (encoder): Sequential(
      (0): Linear(in_features=80, out_features=60, bias=True)
      (1): ReLU()
      (2): Linear(in_features=60, out_features=40, bias=True)
      (3): ReLU()
      (4): Linear(in_features=40, out_features=20, bias=True)
    )
    (decoder): Sequential(
      (0): Linear(in_features=20, out_features=40, bias=True)
      (1): ReLU()
      (2): Linear(in_features=40, out_features=60, bias=True)
      (3): ReLU()
      (4): Linear(in_features=60, out_features=80, bias=True)
    )
    (sex_classifier): FullyConnSexClassifier(
      (fc1): Linear(in_features=40, out_features=20, bias=True)
      (fc2): Linear(in_features=20, out_features=2, bias=True)
    )
  )
) loading from model_checkpoints/asr_model.ckpt, the object could not use the parameters loaded with the key: 1.encoder.layers.3.self_att.att.out_proj.weight
2022-03-23 20:58:55,992 - speechbrain.utils.checkpoints - WARNING - During parameter transfer to ModuleList(
  (0): FullyConnectedAutoencoder(
    (encoder): Sequential(
      (0): Linear(in_features=80, out_features=60, bias=True)
      (1): ReLU()
      (2): Linear(in_features=60, out_features=40, bias=True)
      (3): ReLU()
      (4): Linear(in_features=40, out_features=20, bias=True)
    )
    (decoder): Sequential(
      (0): Linear(in_features=20, out_features=40, bias=True)
      (1): ReLU()
      (2): Linear(in_features=40, out_features=60, bias=True)
      (3): ReLU()
      (4): Linear(in_features=60, out_features=80, bias=True)
    )
    (sex_classifier): FullyConnSexClassifier(
      (fc1): Linear(in_features=40, out_features=20, bias=True)
      (fc2): Linear(in_features=20, out_features=2, bias=True)
    )
  )
) loading from model_checkpoints/asr_model.ckpt, the object could not use the parameters loaded with the key: 1.encoder.layers.3.self_att.att.out_proj.bias
2022-03-23 20:58:55,992 - speechbrain.utils.checkpoints - WARNING - During parameter transfer to ModuleList(
  (0): FullyConnectedAutoencoder(
    (encoder): Sequential(
      (0): Linear(in_features=80, out_features=60, bias=True)
      (1): ReLU()
      (2): Linear(in_features=60, out_features=40, bias=True)
      (3): ReLU()
      (4): Linear(in_features=40, out_features=20, bias=True)
    )
    (decoder): Sequential(
      (0): Linear(in_features=20, out_features=40, bias=True)
      (1): ReLU()
      (2): Linear(in_features=40, out_features=60, bias=True)
      (3): ReLU()
      (4): Linear(in_features=60, out_features=80, bias=True)
    )
    (sex_classifier): FullyConnSexClassifier(
      (fc1): Linear(in_features=40, out_features=20, bias=True)
      (fc2): Linear(in_features=20, out_features=2, bias=True)
    )
  )
) loading from model_checkpoints/asr_model.ckpt, the object could not use the parameters loaded with the key: 1.encoder.layers.3.pos_ffn.ffn.0.weight
2022-03-23 20:58:55,993 - speechbrain.utils.checkpoints - WARNING - During parameter transfer to ModuleList(
  (0): FullyConnectedAutoencoder(
    (encoder): Sequential(
      (0): Linear(in_features=80, out_features=60, bias=True)
      (1): ReLU()
      (2): Linear(in_features=60, out_features=40, bias=True)
      (3): ReLU()
      (4): Linear(in_features=40, out_features=20, bias=True)
    )
    (decoder): Sequential(
      (0): Linear(in_features=20, out_features=40, bias=True)
      (1): ReLU()
      (2): Linear(in_features=40, out_features=60, bias=True)
      (3): ReLU()
      (4): Linear(in_features=60, out_features=80, bias=True)
    )
    (sex_classifier): FullyConnSexClassifier(
      (fc1): Linear(in_features=40, out_features=20, bias=True)
      (fc2): Linear(in_features=20, out_features=2, bias=True)
    )
  )
) loading from model_checkpoints/asr_model.ckpt, the object could not use the parameters loaded with the key: 1.encoder.layers.3.pos_ffn.ffn.0.bias
2022-03-23 20:58:55,993 - speechbrain.utils.checkpoints - WARNING - During parameter transfer to ModuleList(
  (0): FullyConnectedAutoencoder(
    (encoder): Sequential(
      (0): Linear(in_features=80, out_features=60, bias=True)
      (1): ReLU()
      (2): Linear(in_features=60, out_features=40, bias=True)
      (3): ReLU()
      (4): Linear(in_features=40, out_features=20, bias=True)
    )
    (decoder): Sequential(
      (0): Linear(in_features=20, out_features=40, bias=True)
      (1): ReLU()
      (2): Linear(in_features=40, out_features=60, bias=True)
      (3): ReLU()
      (4): Linear(in_features=60, out_features=80, bias=True)
    )
    (sex_classifier): FullyConnSexClassifier(
      (fc1): Linear(in_features=40, out_features=20, bias=True)
      (fc2): Linear(in_features=20, out_features=2, bias=True)
    )
  )
) loading from model_checkpoints/asr_model.ckpt, the object could not use the parameters loaded with the key: 1.encoder.layers.3.pos_ffn.ffn.3.weight
2022-03-23 20:58:55,993 - speechbrain.utils.checkpoints - WARNING - During parameter transfer to ModuleList(
  (0): FullyConnectedAutoencoder(
    (encoder): Sequential(
      (0): Linear(in_features=80, out_features=60, bias=True)
      (1): ReLU()
      (2): Linear(in_features=60, out_features=40, bias=True)
      (3): ReLU()
      (4): Linear(in_features=40, out_features=20, bias=True)
    )
    (decoder): Sequential(
      (0): Linear(in_features=20, out_features=40, bias=True)
      (1): ReLU()
      (2): Linear(in_features=40, out_features=60, bias=True)
      (3): ReLU()
      (4): Linear(in_features=60, out_features=80, bias=True)
    )
    (sex_classifier): FullyConnSexClassifier(
      (fc1): Linear(in_features=40, out_features=20, bias=True)
      (fc2): Linear(in_features=20, out_features=2, bias=True)
    )
  )
) loading from model_checkpoints/asr_model.ckpt, the object could not use the parameters loaded with the key: 1.encoder.layers.3.pos_ffn.ffn.3.bias
2022-03-23 20:58:55,993 - speechbrain.utils.checkpoints - WARNING - During parameter transfer to ModuleList(
  (0): FullyConnectedAutoencoder(
    (encoder): Sequential(
      (0): Linear(in_features=80, out_features=60, bias=True)
      (1): ReLU()
      (2): Linear(in_features=60, out_features=40, bias=True)
      (3): ReLU()
      (4): Linear(in_features=40, out_features=20, bias=True)
    )
    (decoder): Sequential(
      (0): Linear(in_features=20, out_features=40, bias=True)
      (1): ReLU()
      (2): Linear(in_features=40, out_features=60, bias=True)
      (3): ReLU()
      (4): Linear(in_features=60, out_features=80, bias=True)
    )
    (sex_classifier): FullyConnSexClassifier(
      (fc1): Linear(in_features=40, out_features=20, bias=True)
      (fc2): Linear(in_features=20, out_features=2, bias=True)
    )
  )
) loading from model_checkpoints/asr_model.ckpt, the object could not use the parameters loaded with the key: 1.encoder.layers.3.norm1.norm.weight
2022-03-23 20:58:55,993 - speechbrain.utils.checkpoints - WARNING - During parameter transfer to ModuleList(
  (0): FullyConnectedAutoencoder(
    (encoder): Sequential(
      (0): Linear(in_features=80, out_features=60, bias=True)
      (1): ReLU()
      (2): Linear(in_features=60, out_features=40, bias=True)
      (3): ReLU()
      (4): Linear(in_features=40, out_features=20, bias=True)
    )
    (decoder): Sequential(
      (0): Linear(in_features=20, out_features=40, bias=True)
      (1): ReLU()
      (2): Linear(in_features=40, out_features=60, bias=True)
      (3): ReLU()
      (4): Linear(in_features=60, out_features=80, bias=True)
    )
    (sex_classifier): FullyConnSexClassifier(
      (fc1): Linear(in_features=40, out_features=20, bias=True)
      (fc2): Linear(in_features=20, out_features=2, bias=True)
    )
  )
) loading from model_checkpoints/asr_model.ckpt, the object could not use the parameters loaded with the key: 1.encoder.layers.3.norm1.norm.bias
2022-03-23 20:58:55,994 - speechbrain.utils.checkpoints - WARNING - During parameter transfer to ModuleList(
  (0): FullyConnectedAutoencoder(
    (encoder): Sequential(
      (0): Linear(in_features=80, out_features=60, bias=True)
      (1): ReLU()
      (2): Linear(in_features=60, out_features=40, bias=True)
      (3): ReLU()
      (4): Linear(in_features=40, out_features=20, bias=True)
    )
    (decoder): Sequential(
      (0): Linear(in_features=20, out_features=40, bias=True)
      (1): ReLU()
      (2): Linear(in_features=40, out_features=60, bias=True)
      (3): ReLU()
      (4): Linear(in_features=60, out_features=80, bias=True)
    )
    (sex_classifier): FullyConnSexClassifier(
      (fc1): Linear(in_features=40, out_features=20, bias=True)
      (fc2): Linear(in_features=20, out_features=2, bias=True)
    )
  )
) loading from model_checkpoints/asr_model.ckpt, the object could not use the parameters loaded with the key: 1.encoder.layers.3.norm2.norm.weight
2022-03-23 20:58:55,994 - speechbrain.utils.checkpoints - WARNING - During parameter transfer to ModuleList(
  (0): FullyConnectedAutoencoder(
    (encoder): Sequential(
      (0): Linear(in_features=80, out_features=60, bias=True)
      (1): ReLU()
      (2): Linear(in_features=60, out_features=40, bias=True)
      (3): ReLU()
      (4): Linear(in_features=40, out_features=20, bias=True)
    )
    (decoder): Sequential(
      (0): Linear(in_features=20, out_features=40, bias=True)
      (1): ReLU()
      (2): Linear(in_features=40, out_features=60, bias=True)
      (3): ReLU()
      (4): Linear(in_features=60, out_features=80, bias=True)
    )
    (sex_classifier): FullyConnSexClassifier(
      (fc1): Linear(in_features=40, out_features=20, bias=True)
      (fc2): Linear(in_features=20, out_features=2, bias=True)
    )
  )
) loading from model_checkpoints/asr_model.ckpt, the object could not use the parameters loaded with the key: 1.encoder.layers.3.norm2.norm.bias
2022-03-23 20:58:55,994 - speechbrain.utils.checkpoints - WARNING - During parameter transfer to ModuleList(
  (0): FullyConnectedAutoencoder(
    (encoder): Sequential(
      (0): Linear(in_features=80, out_features=60, bias=True)
      (1): ReLU()
      (2): Linear(in_features=60, out_features=40, bias=True)
      (3): ReLU()
      (4): Linear(in_features=40, out_features=20, bias=True)
    )
    (decoder): Sequential(
      (0): Linear(in_features=20, out_features=40, bias=True)
      (1): ReLU()
      (2): Linear(in_features=40, out_features=60, bias=True)
      (3): ReLU()
      (4): Linear(in_features=60, out_features=80, bias=True)
    )
    (sex_classifier): FullyConnSexClassifier(
      (fc1): Linear(in_features=40, out_features=20, bias=True)
      (fc2): Linear(in_features=20, out_features=2, bias=True)
    )
  )
) loading from model_checkpoints/asr_model.ckpt, the object could not use the parameters loaded with the key: 1.encoder.layers.4.self_att.att.in_proj_weight
2022-03-23 20:58:55,994 - speechbrain.utils.checkpoints - WARNING - During parameter transfer to ModuleList(
  (0): FullyConnectedAutoencoder(
    (encoder): Sequential(
      (0): Linear(in_features=80, out_features=60, bias=True)
      (1): ReLU()
      (2): Linear(in_features=60, out_features=40, bias=True)
      (3): ReLU()
      (4): Linear(in_features=40, out_features=20, bias=True)
    )
    (decoder): Sequential(
      (0): Linear(in_features=20, out_features=40, bias=True)
      (1): ReLU()
      (2): Linear(in_features=40, out_features=60, bias=True)
      (3): ReLU()
      (4): Linear(in_features=60, out_features=80, bias=True)
    )
    (sex_classifier): FullyConnSexClassifier(
      (fc1): Linear(in_features=40, out_features=20, bias=True)
      (fc2): Linear(in_features=20, out_features=2, bias=True)
    )
  )
) loading from model_checkpoints/asr_model.ckpt, the object could not use the parameters loaded with the key: 1.encoder.layers.4.self_att.att.in_proj_bias
2022-03-23 20:58:55,995 - speechbrain.utils.checkpoints - WARNING - During parameter transfer to ModuleList(
  (0): FullyConnectedAutoencoder(
    (encoder): Sequential(
      (0): Linear(in_features=80, out_features=60, bias=True)
      (1): ReLU()
      (2): Linear(in_features=60, out_features=40, bias=True)
      (3): ReLU()
      (4): Linear(in_features=40, out_features=20, bias=True)
    )
    (decoder): Sequential(
      (0): Linear(in_features=20, out_features=40, bias=True)
      (1): ReLU()
      (2): Linear(in_features=40, out_features=60, bias=True)
      (3): ReLU()
      (4): Linear(in_features=60, out_features=80, bias=True)
    )
    (sex_classifier): FullyConnSexClassifier(
      (fc1): Linear(in_features=40, out_features=20, bias=True)
      (fc2): Linear(in_features=20, out_features=2, bias=True)
    )
  )
) loading from model_checkpoints/asr_model.ckpt, the object could not use the parameters loaded with the key: 1.encoder.layers.4.self_att.att.out_proj.weight
2022-03-23 20:58:55,995 - speechbrain.utils.checkpoints - WARNING - During parameter transfer to ModuleList(
  (0): FullyConnectedAutoencoder(
    (encoder): Sequential(
      (0): Linear(in_features=80, out_features=60, bias=True)
      (1): ReLU()
      (2): Linear(in_features=60, out_features=40, bias=True)
      (3): ReLU()
      (4): Linear(in_features=40, out_features=20, bias=True)
    )
    (decoder): Sequential(
      (0): Linear(in_features=20, out_features=40, bias=True)
      (1): ReLU()
      (2): Linear(in_features=40, out_features=60, bias=True)
      (3): ReLU()
      (4): Linear(in_features=60, out_features=80, bias=True)
    )
    (sex_classifier): FullyConnSexClassifier(
      (fc1): Linear(in_features=40, out_features=20, bias=True)
      (fc2): Linear(in_features=20, out_features=2, bias=True)
    )
  )
) loading from model_checkpoints/asr_model.ckpt, the object could not use the parameters loaded with the key: 1.encoder.layers.4.self_att.att.out_proj.bias
2022-03-23 20:58:55,995 - speechbrain.utils.checkpoints - WARNING - During parameter transfer to ModuleList(
  (0): FullyConnectedAutoencoder(
    (encoder): Sequential(
      (0): Linear(in_features=80, out_features=60, bias=True)
      (1): ReLU()
      (2): Linear(in_features=60, out_features=40, bias=True)
      (3): ReLU()
      (4): Linear(in_features=40, out_features=20, bias=True)
    )
    (decoder): Sequential(
      (0): Linear(in_features=20, out_features=40, bias=True)
      (1): ReLU()
      (2): Linear(in_features=40, out_features=60, bias=True)
      (3): ReLU()
      (4): Linear(in_features=60, out_features=80, bias=True)
    )
    (sex_classifier): FullyConnSexClassifier(
      (fc1): Linear(in_features=40, out_features=20, bias=True)
      (fc2): Linear(in_features=20, out_features=2, bias=True)
    )
  )
) loading from model_checkpoints/asr_model.ckpt, the object could not use the parameters loaded with the key: 1.encoder.layers.4.pos_ffn.ffn.0.weight
2022-03-23 20:58:55,995 - speechbrain.utils.checkpoints - WARNING - During parameter transfer to ModuleList(
  (0): FullyConnectedAutoencoder(
    (encoder): Sequential(
      (0): Linear(in_features=80, out_features=60, bias=True)
      (1): ReLU()
      (2): Linear(in_features=60, out_features=40, bias=True)
      (3): ReLU()
      (4): Linear(in_features=40, out_features=20, bias=True)
    )
    (decoder): Sequential(
      (0): Linear(in_features=20, out_features=40, bias=True)
      (1): ReLU()
      (2): Linear(in_features=40, out_features=60, bias=True)
      (3): ReLU()
      (4): Linear(in_features=60, out_features=80, bias=True)
    )
    (sex_classifier): FullyConnSexClassifier(
      (fc1): Linear(in_features=40, out_features=20, bias=True)
      (fc2): Linear(in_features=20, out_features=2, bias=True)
    )
  )
) loading from model_checkpoints/asr_model.ckpt, the object could not use the parameters loaded with the key: 1.encoder.layers.4.pos_ffn.ffn.0.bias
2022-03-23 20:58:55,996 - speechbrain.utils.checkpoints - WARNING - During parameter transfer to ModuleList(
  (0): FullyConnectedAutoencoder(
    (encoder): Sequential(
      (0): Linear(in_features=80, out_features=60, bias=True)
      (1): ReLU()
      (2): Linear(in_features=60, out_features=40, bias=True)
      (3): ReLU()
      (4): Linear(in_features=40, out_features=20, bias=True)
    )
    (decoder): Sequential(
      (0): Linear(in_features=20, out_features=40, bias=True)
      (1): ReLU()
      (2): Linear(in_features=40, out_features=60, bias=True)
      (3): ReLU()
      (4): Linear(in_features=60, out_features=80, bias=True)
    )
    (sex_classifier): FullyConnSexClassifier(
      (fc1): Linear(in_features=40, out_features=20, bias=True)
      (fc2): Linear(in_features=20, out_features=2, bias=True)
    )
  )
) loading from model_checkpoints/asr_model.ckpt, the object could not use the parameters loaded with the key: 1.encoder.layers.4.pos_ffn.ffn.3.weight
2022-03-23 20:58:55,996 - speechbrain.utils.checkpoints - WARNING - During parameter transfer to ModuleList(
  (0): FullyConnectedAutoencoder(
    (encoder): Sequential(
      (0): Linear(in_features=80, out_features=60, bias=True)
      (1): ReLU()
      (2): Linear(in_features=60, out_features=40, bias=True)
      (3): ReLU()
      (4): Linear(in_features=40, out_features=20, bias=True)
    )
    (decoder): Sequential(
      (0): Linear(in_features=20, out_features=40, bias=True)
      (1): ReLU()
      (2): Linear(in_features=40, out_features=60, bias=True)
      (3): ReLU()
      (4): Linear(in_features=60, out_features=80, bias=True)
    )
    (sex_classifier): FullyConnSexClassifier(
      (fc1): Linear(in_features=40, out_features=20, bias=True)
      (fc2): Linear(in_features=20, out_features=2, bias=True)
    )
  )
) loading from model_checkpoints/asr_model.ckpt, the object could not use the parameters loaded with the key: 1.encoder.layers.4.pos_ffn.ffn.3.bias
2022-03-23 20:58:55,996 - speechbrain.utils.checkpoints - WARNING - During parameter transfer to ModuleList(
  (0): FullyConnectedAutoencoder(
    (encoder): Sequential(
      (0): Linear(in_features=80, out_features=60, bias=True)
      (1): ReLU()
      (2): Linear(in_features=60, out_features=40, bias=True)
      (3): ReLU()
      (4): Linear(in_features=40, out_features=20, bias=True)
    )
    (decoder): Sequential(
      (0): Linear(in_features=20, out_features=40, bias=True)
      (1): ReLU()
      (2): Linear(in_features=40, out_features=60, bias=True)
      (3): ReLU()
      (4): Linear(in_features=60, out_features=80, bias=True)
    )
    (sex_classifier): FullyConnSexClassifier(
      (fc1): Linear(in_features=40, out_features=20, bias=True)
      (fc2): Linear(in_features=20, out_features=2, bias=True)
    )
  )
) loading from model_checkpoints/asr_model.ckpt, the object could not use the parameters loaded with the key: 1.encoder.layers.4.norm1.norm.weight
2022-03-23 20:58:55,997 - speechbrain.utils.checkpoints - WARNING - During parameter transfer to ModuleList(
  (0): FullyConnectedAutoencoder(
    (encoder): Sequential(
      (0): Linear(in_features=80, out_features=60, bias=True)
      (1): ReLU()
      (2): Linear(in_features=60, out_features=40, bias=True)
      (3): ReLU()
      (4): Linear(in_features=40, out_features=20, bias=True)
    )
    (decoder): Sequential(
      (0): Linear(in_features=20, out_features=40, bias=True)
      (1): ReLU()
      (2): Linear(in_features=40, out_features=60, bias=True)
      (3): ReLU()
      (4): Linear(in_features=60, out_features=80, bias=True)
    )
    (sex_classifier): FullyConnSexClassifier(
      (fc1): Linear(in_features=40, out_features=20, bias=True)
      (fc2): Linear(in_features=20, out_features=2, bias=True)
    )
  )
) loading from model_checkpoints/asr_model.ckpt, the object could not use the parameters loaded with the key: 1.encoder.layers.4.norm1.norm.bias
2022-03-23 20:58:55,997 - speechbrain.utils.checkpoints - WARNING - During parameter transfer to ModuleList(
  (0): FullyConnectedAutoencoder(
    (encoder): Sequential(
      (0): Linear(in_features=80, out_features=60, bias=True)
      (1): ReLU()
      (2): Linear(in_features=60, out_features=40, bias=True)
      (3): ReLU()
      (4): Linear(in_features=40, out_features=20, bias=True)
    )
    (decoder): Sequential(
      (0): Linear(in_features=20, out_features=40, bias=True)
      (1): ReLU()
      (2): Linear(in_features=40, out_features=60, bias=True)
      (3): ReLU()
      (4): Linear(in_features=60, out_features=80, bias=True)
    )
    (sex_classifier): FullyConnSexClassifier(
      (fc1): Linear(in_features=40, out_features=20, bias=True)
      (fc2): Linear(in_features=20, out_features=2, bias=True)
    )
  )
) loading from model_checkpoints/asr_model.ckpt, the object could not use the parameters loaded with the key: 1.encoder.layers.4.norm2.norm.weight
2022-03-23 20:58:55,997 - speechbrain.utils.checkpoints - WARNING - During parameter transfer to ModuleList(
  (0): FullyConnectedAutoencoder(
    (encoder): Sequential(
      (0): Linear(in_features=80, out_features=60, bias=True)
      (1): ReLU()
      (2): Linear(in_features=60, out_features=40, bias=True)
      (3): ReLU()
      (4): Linear(in_features=40, out_features=20, bias=True)
    )
    (decoder): Sequential(
      (0): Linear(in_features=20, out_features=40, bias=True)
      (1): ReLU()
      (2): Linear(in_features=40, out_features=60, bias=True)
      (3): ReLU()
      (4): Linear(in_features=60, out_features=80, bias=True)
    )
    (sex_classifier): FullyConnSexClassifier(
      (fc1): Linear(in_features=40, out_features=20, bias=True)
      (fc2): Linear(in_features=20, out_features=2, bias=True)
    )
  )
) loading from model_checkpoints/asr_model.ckpt, the object could not use the parameters loaded with the key: 1.encoder.layers.4.norm2.norm.bias
2022-03-23 20:58:55,997 - speechbrain.utils.checkpoints - WARNING - During parameter transfer to ModuleList(
  (0): FullyConnectedAutoencoder(
    (encoder): Sequential(
      (0): Linear(in_features=80, out_features=60, bias=True)
      (1): ReLU()
      (2): Linear(in_features=60, out_features=40, bias=True)
      (3): ReLU()
      (4): Linear(in_features=40, out_features=20, bias=True)
    )
    (decoder): Sequential(
      (0): Linear(in_features=20, out_features=40, bias=True)
      (1): ReLU()
      (2): Linear(in_features=40, out_features=60, bias=True)
      (3): ReLU()
      (4): Linear(in_features=60, out_features=80, bias=True)
    )
    (sex_classifier): FullyConnSexClassifier(
      (fc1): Linear(in_features=40, out_features=20, bias=True)
      (fc2): Linear(in_features=20, out_features=2, bias=True)
    )
  )
) loading from model_checkpoints/asr_model.ckpt, the object could not use the parameters loaded with the key: 1.encoder.layers.5.self_att.att.in_proj_weight
2022-03-23 20:58:55,998 - speechbrain.utils.checkpoints - WARNING - During parameter transfer to ModuleList(
  (0): FullyConnectedAutoencoder(
    (encoder): Sequential(
      (0): Linear(in_features=80, out_features=60, bias=True)
      (1): ReLU()
      (2): Linear(in_features=60, out_features=40, bias=True)
      (3): ReLU()
      (4): Linear(in_features=40, out_features=20, bias=True)
    )
    (decoder): Sequential(
      (0): Linear(in_features=20, out_features=40, bias=True)
      (1): ReLU()
      (2): Linear(in_features=40, out_features=60, bias=True)
      (3): ReLU()
      (4): Linear(in_features=60, out_features=80, bias=True)
    )
    (sex_classifier): FullyConnSexClassifier(
      (fc1): Linear(in_features=40, out_features=20, bias=True)
      (fc2): Linear(in_features=20, out_features=2, bias=True)
    )
  )
) loading from model_checkpoints/asr_model.ckpt, the object could not use the parameters loaded with the key: 1.encoder.layers.5.self_att.att.in_proj_bias
2022-03-23 20:58:55,998 - speechbrain.utils.checkpoints - WARNING - During parameter transfer to ModuleList(
  (0): FullyConnectedAutoencoder(
    (encoder): Sequential(
      (0): Linear(in_features=80, out_features=60, bias=True)
      (1): ReLU()
      (2): Linear(in_features=60, out_features=40, bias=True)
      (3): ReLU()
      (4): Linear(in_features=40, out_features=20, bias=True)
    )
    (decoder): Sequential(
      (0): Linear(in_features=20, out_features=40, bias=True)
      (1): ReLU()
      (2): Linear(in_features=40, out_features=60, bias=True)
      (3): ReLU()
      (4): Linear(in_features=60, out_features=80, bias=True)
    )
    (sex_classifier): FullyConnSexClassifier(
      (fc1): Linear(in_features=40, out_features=20, bias=True)
      (fc2): Linear(in_features=20, out_features=2, bias=True)
    )
  )
) loading from model_checkpoints/asr_model.ckpt, the object could not use the parameters loaded with the key: 1.encoder.layers.5.self_att.att.out_proj.weight
2022-03-23 20:58:55,998 - speechbrain.utils.checkpoints - WARNING - During parameter transfer to ModuleList(
  (0): FullyConnectedAutoencoder(
    (encoder): Sequential(
      (0): Linear(in_features=80, out_features=60, bias=True)
      (1): ReLU()
      (2): Linear(in_features=60, out_features=40, bias=True)
      (3): ReLU()
      (4): Linear(in_features=40, out_features=20, bias=True)
    )
    (decoder): Sequential(
      (0): Linear(in_features=20, out_features=40, bias=True)
      (1): ReLU()
      (2): Linear(in_features=40, out_features=60, bias=True)
      (3): ReLU()
      (4): Linear(in_features=60, out_features=80, bias=True)
    )
    (sex_classifier): FullyConnSexClassifier(
      (fc1): Linear(in_features=40, out_features=20, bias=True)
      (fc2): Linear(in_features=20, out_features=2, bias=True)
    )
  )
) loading from model_checkpoints/asr_model.ckpt, the object could not use the parameters loaded with the key: 1.encoder.layers.5.self_att.att.out_proj.bias
2022-03-23 20:58:55,998 - speechbrain.utils.checkpoints - WARNING - During parameter transfer to ModuleList(
  (0): FullyConnectedAutoencoder(
    (encoder): Sequential(
      (0): Linear(in_features=80, out_features=60, bias=True)
      (1): ReLU()
      (2): Linear(in_features=60, out_features=40, bias=True)
      (3): ReLU()
      (4): Linear(in_features=40, out_features=20, bias=True)
    )
    (decoder): Sequential(
      (0): Linear(in_features=20, out_features=40, bias=True)
      (1): ReLU()
      (2): Linear(in_features=40, out_features=60, bias=True)
      (3): ReLU()
      (4): Linear(in_features=60, out_features=80, bias=True)
    )
    (sex_classifier): FullyConnSexClassifier(
      (fc1): Linear(in_features=40, out_features=20, bias=True)
      (fc2): Linear(in_features=20, out_features=2, bias=True)
    )
  )
) loading from model_checkpoints/asr_model.ckpt, the object could not use the parameters loaded with the key: 1.encoder.layers.5.pos_ffn.ffn.0.weight
2022-03-23 20:58:55,999 - speechbrain.utils.checkpoints - WARNING - During parameter transfer to ModuleList(
  (0): FullyConnectedAutoencoder(
    (encoder): Sequential(
      (0): Linear(in_features=80, out_features=60, bias=True)
      (1): ReLU()
      (2): Linear(in_features=60, out_features=40, bias=True)
      (3): ReLU()
      (4): Linear(in_features=40, out_features=20, bias=True)
    )
    (decoder): Sequential(
      (0): Linear(in_features=20, out_features=40, bias=True)
      (1): ReLU()
      (2): Linear(in_features=40, out_features=60, bias=True)
      (3): ReLU()
      (4): Linear(in_features=60, out_features=80, bias=True)
    )
    (sex_classifier): FullyConnSexClassifier(
      (fc1): Linear(in_features=40, out_features=20, bias=True)
      (fc2): Linear(in_features=20, out_features=2, bias=True)
    )
  )
) loading from model_checkpoints/asr_model.ckpt, the object could not use the parameters loaded with the key: 1.encoder.layers.5.pos_ffn.ffn.0.bias
2022-03-23 20:58:55,999 - speechbrain.utils.checkpoints - WARNING - During parameter transfer to ModuleList(
  (0): FullyConnectedAutoencoder(
    (encoder): Sequential(
      (0): Linear(in_features=80, out_features=60, bias=True)
      (1): ReLU()
      (2): Linear(in_features=60, out_features=40, bias=True)
      (3): ReLU()
      (4): Linear(in_features=40, out_features=20, bias=True)
    )
    (decoder): Sequential(
      (0): Linear(in_features=20, out_features=40, bias=True)
      (1): ReLU()
      (2): Linear(in_features=40, out_features=60, bias=True)
      (3): ReLU()
      (4): Linear(in_features=60, out_features=80, bias=True)
    )
    (sex_classifier): FullyConnSexClassifier(
      (fc1): Linear(in_features=40, out_features=20, bias=True)
      (fc2): Linear(in_features=20, out_features=2, bias=True)
    )
  )
) loading from model_checkpoints/asr_model.ckpt, the object could not use the parameters loaded with the key: 1.encoder.layers.5.pos_ffn.ffn.3.weight
2022-03-23 20:58:55,999 - speechbrain.utils.checkpoints - WARNING - During parameter transfer to ModuleList(
  (0): FullyConnectedAutoencoder(
    (encoder): Sequential(
      (0): Linear(in_features=80, out_features=60, bias=True)
      (1): ReLU()
      (2): Linear(in_features=60, out_features=40, bias=True)
      (3): ReLU()
      (4): Linear(in_features=40, out_features=20, bias=True)
    )
    (decoder): Sequential(
      (0): Linear(in_features=20, out_features=40, bias=True)
      (1): ReLU()
      (2): Linear(in_features=40, out_features=60, bias=True)
      (3): ReLU()
      (4): Linear(in_features=60, out_features=80, bias=True)
    )
    (sex_classifier): FullyConnSexClassifier(
      (fc1): Linear(in_features=40, out_features=20, bias=True)
      (fc2): Linear(in_features=20, out_features=2, bias=True)
    )
  )
) loading from model_checkpoints/asr_model.ckpt, the object could not use the parameters loaded with the key: 1.encoder.layers.5.pos_ffn.ffn.3.bias
2022-03-23 20:58:55,999 - speechbrain.utils.checkpoints - WARNING - During parameter transfer to ModuleList(
  (0): FullyConnectedAutoencoder(
    (encoder): Sequential(
      (0): Linear(in_features=80, out_features=60, bias=True)
      (1): ReLU()
      (2): Linear(in_features=60, out_features=40, bias=True)
      (3): ReLU()
      (4): Linear(in_features=40, out_features=20, bias=True)
    )
    (decoder): Sequential(
      (0): Linear(in_features=20, out_features=40, bias=True)
      (1): ReLU()
      (2): Linear(in_features=40, out_features=60, bias=True)
      (3): ReLU()
      (4): Linear(in_features=60, out_features=80, bias=True)
    )
    (sex_classifier): FullyConnSexClassifier(
      (fc1): Linear(in_features=40, out_features=20, bias=True)
      (fc2): Linear(in_features=20, out_features=2, bias=True)
    )
  )
) loading from model_checkpoints/asr_model.ckpt, the object could not use the parameters loaded with the key: 1.encoder.layers.5.norm1.norm.weight
2022-03-23 20:58:56,000 - speechbrain.utils.checkpoints - WARNING - During parameter transfer to ModuleList(
  (0): FullyConnectedAutoencoder(
    (encoder): Sequential(
      (0): Linear(in_features=80, out_features=60, bias=True)
      (1): ReLU()
      (2): Linear(in_features=60, out_features=40, bias=True)
      (3): ReLU()
      (4): Linear(in_features=40, out_features=20, bias=True)
    )
    (decoder): Sequential(
      (0): Linear(in_features=20, out_features=40, bias=True)
      (1): ReLU()
      (2): Linear(in_features=40, out_features=60, bias=True)
      (3): ReLU()
      (4): Linear(in_features=60, out_features=80, bias=True)
    )
    (sex_classifier): FullyConnSexClassifier(
      (fc1): Linear(in_features=40, out_features=20, bias=True)
      (fc2): Linear(in_features=20, out_features=2, bias=True)
    )
  )
) loading from model_checkpoints/asr_model.ckpt, the object could not use the parameters loaded with the key: 1.encoder.layers.5.norm1.norm.bias
2022-03-23 20:58:56,000 - speechbrain.utils.checkpoints - WARNING - During parameter transfer to ModuleList(
  (0): FullyConnectedAutoencoder(
    (encoder): Sequential(
      (0): Linear(in_features=80, out_features=60, bias=True)
      (1): ReLU()
      (2): Linear(in_features=60, out_features=40, bias=True)
      (3): ReLU()
      (4): Linear(in_features=40, out_features=20, bias=True)
    )
    (decoder): Sequential(
      (0): Linear(in_features=20, out_features=40, bias=True)
      (1): ReLU()
      (2): Linear(in_features=40, out_features=60, bias=True)
      (3): ReLU()
      (4): Linear(in_features=60, out_features=80, bias=True)
    )
    (sex_classifier): FullyConnSexClassifier(
      (fc1): Linear(in_features=40, out_features=20, bias=True)
      (fc2): Linear(in_features=20, out_features=2, bias=True)
    )
  )
) loading from model_checkpoints/asr_model.ckpt, the object could not use the parameters loaded with the key: 1.encoder.layers.5.norm2.norm.weight
2022-03-23 20:58:56,000 - speechbrain.utils.checkpoints - WARNING - During parameter transfer to ModuleList(
  (0): FullyConnectedAutoencoder(
    (encoder): Sequential(
      (0): Linear(in_features=80, out_features=60, bias=True)
      (1): ReLU()
      (2): Linear(in_features=60, out_features=40, bias=True)
      (3): ReLU()
      (4): Linear(in_features=40, out_features=20, bias=True)
    )
    (decoder): Sequential(
      (0): Linear(in_features=20, out_features=40, bias=True)
      (1): ReLU()
      (2): Linear(in_features=40, out_features=60, bias=True)
      (3): ReLU()
      (4): Linear(in_features=60, out_features=80, bias=True)
    )
    (sex_classifier): FullyConnSexClassifier(
      (fc1): Linear(in_features=40, out_features=20, bias=True)
      (fc2): Linear(in_features=20, out_features=2, bias=True)
    )
  )
) loading from model_checkpoints/asr_model.ckpt, the object could not use the parameters loaded with the key: 1.encoder.layers.5.norm2.norm.bias
2022-03-23 20:58:56,000 - speechbrain.utils.checkpoints - WARNING - During parameter transfer to ModuleList(
  (0): FullyConnectedAutoencoder(
    (encoder): Sequential(
      (0): Linear(in_features=80, out_features=60, bias=True)
      (1): ReLU()
      (2): Linear(in_features=60, out_features=40, bias=True)
      (3): ReLU()
      (4): Linear(in_features=40, out_features=20, bias=True)
    )
    (decoder): Sequential(
      (0): Linear(in_features=20, out_features=40, bias=True)
      (1): ReLU()
      (2): Linear(in_features=40, out_features=60, bias=True)
      (3): ReLU()
      (4): Linear(in_features=60, out_features=80, bias=True)
    )
    (sex_classifier): FullyConnSexClassifier(
      (fc1): Linear(in_features=40, out_features=20, bias=True)
      (fc2): Linear(in_features=20, out_features=2, bias=True)
    )
  )
) loading from model_checkpoints/asr_model.ckpt, the object could not use the parameters loaded with the key: 1.encoder.layers.6.self_att.att.in_proj_weight
2022-03-23 20:58:56,001 - speechbrain.utils.checkpoints - WARNING - During parameter transfer to ModuleList(
  (0): FullyConnectedAutoencoder(
    (encoder): Sequential(
      (0): Linear(in_features=80, out_features=60, bias=True)
      (1): ReLU()
      (2): Linear(in_features=60, out_features=40, bias=True)
      (3): ReLU()
      (4): Linear(in_features=40, out_features=20, bias=True)
    )
    (decoder): Sequential(
      (0): Linear(in_features=20, out_features=40, bias=True)
      (1): ReLU()
      (2): Linear(in_features=40, out_features=60, bias=True)
      (3): ReLU()
      (4): Linear(in_features=60, out_features=80, bias=True)
    )
    (sex_classifier): FullyConnSexClassifier(
      (fc1): Linear(in_features=40, out_features=20, bias=True)
      (fc2): Linear(in_features=20, out_features=2, bias=True)
    )
  )
) loading from model_checkpoints/asr_model.ckpt, the object could not use the parameters loaded with the key: 1.encoder.layers.6.self_att.att.in_proj_bias
2022-03-23 20:58:56,001 - speechbrain.utils.checkpoints - WARNING - During parameter transfer to ModuleList(
  (0): FullyConnectedAutoencoder(
    (encoder): Sequential(
      (0): Linear(in_features=80, out_features=60, bias=True)
      (1): ReLU()
      (2): Linear(in_features=60, out_features=40, bias=True)
      (3): ReLU()
      (4): Linear(in_features=40, out_features=20, bias=True)
    )
    (decoder): Sequential(
      (0): Linear(in_features=20, out_features=40, bias=True)
      (1): ReLU()
      (2): Linear(in_features=40, out_features=60, bias=True)
      (3): ReLU()
      (4): Linear(in_features=60, out_features=80, bias=True)
    )
    (sex_classifier): FullyConnSexClassifier(
      (fc1): Linear(in_features=40, out_features=20, bias=True)
      (fc2): Linear(in_features=20, out_features=2, bias=True)
    )
  )
) loading from model_checkpoints/asr_model.ckpt, the object could not use the parameters loaded with the key: 1.encoder.layers.6.self_att.att.out_proj.weight
2022-03-23 20:58:56,001 - speechbrain.utils.checkpoints - WARNING - During parameter transfer to ModuleList(
  (0): FullyConnectedAutoencoder(
    (encoder): Sequential(
      (0): Linear(in_features=80, out_features=60, bias=True)
      (1): ReLU()
      (2): Linear(in_features=60, out_features=40, bias=True)
      (3): ReLU()
      (4): Linear(in_features=40, out_features=20, bias=True)
    )
    (decoder): Sequential(
      (0): Linear(in_features=20, out_features=40, bias=True)
      (1): ReLU()
      (2): Linear(in_features=40, out_features=60, bias=True)
      (3): ReLU()
      (4): Linear(in_features=60, out_features=80, bias=True)
    )
    (sex_classifier): FullyConnSexClassifier(
      (fc1): Linear(in_features=40, out_features=20, bias=True)
      (fc2): Linear(in_features=20, out_features=2, bias=True)
    )
  )
) loading from model_checkpoints/asr_model.ckpt, the object could not use the parameters loaded with the key: 1.encoder.layers.6.self_att.att.out_proj.bias
2022-03-23 20:58:56,001 - speechbrain.utils.checkpoints - WARNING - During parameter transfer to ModuleList(
  (0): FullyConnectedAutoencoder(
    (encoder): Sequential(
      (0): Linear(in_features=80, out_features=60, bias=True)
      (1): ReLU()
      (2): Linear(in_features=60, out_features=40, bias=True)
      (3): ReLU()
      (4): Linear(in_features=40, out_features=20, bias=True)
    )
    (decoder): Sequential(
      (0): Linear(in_features=20, out_features=40, bias=True)
      (1): ReLU()
      (2): Linear(in_features=40, out_features=60, bias=True)
      (3): ReLU()
      (4): Linear(in_features=60, out_features=80, bias=True)
    )
    (sex_classifier): FullyConnSexClassifier(
      (fc1): Linear(in_features=40, out_features=20, bias=True)
      (fc2): Linear(in_features=20, out_features=2, bias=True)
    )
  )
) loading from model_checkpoints/asr_model.ckpt, the object could not use the parameters loaded with the key: 1.encoder.layers.6.pos_ffn.ffn.0.weight
2022-03-23 20:58:56,002 - speechbrain.utils.checkpoints - WARNING - During parameter transfer to ModuleList(
  (0): FullyConnectedAutoencoder(
    (encoder): Sequential(
      (0): Linear(in_features=80, out_features=60, bias=True)
      (1): ReLU()
      (2): Linear(in_features=60, out_features=40, bias=True)
      (3): ReLU()
      (4): Linear(in_features=40, out_features=20, bias=True)
    )
    (decoder): Sequential(
      (0): Linear(in_features=20, out_features=40, bias=True)
      (1): ReLU()
      (2): Linear(in_features=40, out_features=60, bias=True)
      (3): ReLU()
      (4): Linear(in_features=60, out_features=80, bias=True)
    )
    (sex_classifier): FullyConnSexClassifier(
      (fc1): Linear(in_features=40, out_features=20, bias=True)
      (fc2): Linear(in_features=20, out_features=2, bias=True)
    )
  )
) loading from model_checkpoints/asr_model.ckpt, the object could not use the parameters loaded with the key: 1.encoder.layers.6.pos_ffn.ffn.0.bias
2022-03-23 20:58:56,002 - speechbrain.utils.checkpoints - WARNING - During parameter transfer to ModuleList(
  (0): FullyConnectedAutoencoder(
    (encoder): Sequential(
      (0): Linear(in_features=80, out_features=60, bias=True)
      (1): ReLU()
      (2): Linear(in_features=60, out_features=40, bias=True)
      (3): ReLU()
      (4): Linear(in_features=40, out_features=20, bias=True)
    )
    (decoder): Sequential(
      (0): Linear(in_features=20, out_features=40, bias=True)
      (1): ReLU()
      (2): Linear(in_features=40, out_features=60, bias=True)
      (3): ReLU()
      (4): Linear(in_features=60, out_features=80, bias=True)
    )
    (sex_classifier): FullyConnSexClassifier(
      (fc1): Linear(in_features=40, out_features=20, bias=True)
      (fc2): Linear(in_features=20, out_features=2, bias=True)
    )
  )
) loading from model_checkpoints/asr_model.ckpt, the object could not use the parameters loaded with the key: 1.encoder.layers.6.pos_ffn.ffn.3.weight
2022-03-23 20:58:56,002 - speechbrain.utils.checkpoints - WARNING - During parameter transfer to ModuleList(
  (0): FullyConnectedAutoencoder(
    (encoder): Sequential(
      (0): Linear(in_features=80, out_features=60, bias=True)
      (1): ReLU()
      (2): Linear(in_features=60, out_features=40, bias=True)
      (3): ReLU()
      (4): Linear(in_features=40, out_features=20, bias=True)
    )
    (decoder): Sequential(
      (0): Linear(in_features=20, out_features=40, bias=True)
      (1): ReLU()
      (2): Linear(in_features=40, out_features=60, bias=True)
      (3): ReLU()
      (4): Linear(in_features=60, out_features=80, bias=True)
    )
    (sex_classifier): FullyConnSexClassifier(
      (fc1): Linear(in_features=40, out_features=20, bias=True)
      (fc2): Linear(in_features=20, out_features=2, bias=True)
    )
  )
) loading from model_checkpoints/asr_model.ckpt, the object could not use the parameters loaded with the key: 1.encoder.layers.6.pos_ffn.ffn.3.bias
2022-03-23 20:58:56,002 - speechbrain.utils.checkpoints - WARNING - During parameter transfer to ModuleList(
  (0): FullyConnectedAutoencoder(
    (encoder): Sequential(
      (0): Linear(in_features=80, out_features=60, bias=True)
      (1): ReLU()
      (2): Linear(in_features=60, out_features=40, bias=True)
      (3): ReLU()
      (4): Linear(in_features=40, out_features=20, bias=True)
    )
    (decoder): Sequential(
      (0): Linear(in_features=20, out_features=40, bias=True)
      (1): ReLU()
      (2): Linear(in_features=40, out_features=60, bias=True)
      (3): ReLU()
      (4): Linear(in_features=60, out_features=80, bias=True)
    )
    (sex_classifier): FullyConnSexClassifier(
      (fc1): Linear(in_features=40, out_features=20, bias=True)
      (fc2): Linear(in_features=20, out_features=2, bias=True)
    )
  )
) loading from model_checkpoints/asr_model.ckpt, the object could not use the parameters loaded with the key: 1.encoder.layers.6.norm1.norm.weight
2022-03-23 20:58:56,002 - speechbrain.utils.checkpoints - WARNING - During parameter transfer to ModuleList(
  (0): FullyConnectedAutoencoder(
    (encoder): Sequential(
      (0): Linear(in_features=80, out_features=60, bias=True)
      (1): ReLU()
      (2): Linear(in_features=60, out_features=40, bias=True)
      (3): ReLU()
      (4): Linear(in_features=40, out_features=20, bias=True)
    )
    (decoder): Sequential(
      (0): Linear(in_features=20, out_features=40, bias=True)
      (1): ReLU()
      (2): Linear(in_features=40, out_features=60, bias=True)
      (3): ReLU()
      (4): Linear(in_features=60, out_features=80, bias=True)
    )
    (sex_classifier): FullyConnSexClassifier(
      (fc1): Linear(in_features=40, out_features=20, bias=True)
      (fc2): Linear(in_features=20, out_features=2, bias=True)
    )
  )
) loading from model_checkpoints/asr_model.ckpt, the object could not use the parameters loaded with the key: 1.encoder.layers.6.norm1.norm.bias
2022-03-23 20:58:56,003 - speechbrain.utils.checkpoints - WARNING - During parameter transfer to ModuleList(
  (0): FullyConnectedAutoencoder(
    (encoder): Sequential(
      (0): Linear(in_features=80, out_features=60, bias=True)
      (1): ReLU()
      (2): Linear(in_features=60, out_features=40, bias=True)
      (3): ReLU()
      (4): Linear(in_features=40, out_features=20, bias=True)
    )
    (decoder): Sequential(
      (0): Linear(in_features=20, out_features=40, bias=True)
      (1): ReLU()
      (2): Linear(in_features=40, out_features=60, bias=True)
      (3): ReLU()
      (4): Linear(in_features=60, out_features=80, bias=True)
    )
    (sex_classifier): FullyConnSexClassifier(
      (fc1): Linear(in_features=40, out_features=20, bias=True)
      (fc2): Linear(in_features=20, out_features=2, bias=True)
    )
  )
) loading from model_checkpoints/asr_model.ckpt, the object could not use the parameters loaded with the key: 1.encoder.layers.6.norm2.norm.weight
2022-03-23 20:58:56,003 - speechbrain.utils.checkpoints - WARNING - During parameter transfer to ModuleList(
  (0): FullyConnectedAutoencoder(
    (encoder): Sequential(
      (0): Linear(in_features=80, out_features=60, bias=True)
      (1): ReLU()
      (2): Linear(in_features=60, out_features=40, bias=True)
      (3): ReLU()
      (4): Linear(in_features=40, out_features=20, bias=True)
    )
    (decoder): Sequential(
      (0): Linear(in_features=20, out_features=40, bias=True)
      (1): ReLU()
      (2): Linear(in_features=40, out_features=60, bias=True)
      (3): ReLU()
      (4): Linear(in_features=60, out_features=80, bias=True)
    )
    (sex_classifier): FullyConnSexClassifier(
      (fc1): Linear(in_features=40, out_features=20, bias=True)
      (fc2): Linear(in_features=20, out_features=2, bias=True)
    )
  )
) loading from model_checkpoints/asr_model.ckpt, the object could not use the parameters loaded with the key: 1.encoder.layers.6.norm2.norm.bias
2022-03-23 20:58:56,003 - speechbrain.utils.checkpoints - WARNING - During parameter transfer to ModuleList(
  (0): FullyConnectedAutoencoder(
    (encoder): Sequential(
      (0): Linear(in_features=80, out_features=60, bias=True)
      (1): ReLU()
      (2): Linear(in_features=60, out_features=40, bias=True)
      (3): ReLU()
      (4): Linear(in_features=40, out_features=20, bias=True)
    )
    (decoder): Sequential(
      (0): Linear(in_features=20, out_features=40, bias=True)
      (1): ReLU()
      (2): Linear(in_features=40, out_features=60, bias=True)
      (3): ReLU()
      (4): Linear(in_features=60, out_features=80, bias=True)
    )
    (sex_classifier): FullyConnSexClassifier(
      (fc1): Linear(in_features=40, out_features=20, bias=True)
      (fc2): Linear(in_features=20, out_features=2, bias=True)
    )
  )
) loading from model_checkpoints/asr_model.ckpt, the object could not use the parameters loaded with the key: 1.encoder.layers.7.self_att.att.in_proj_weight
2022-03-23 20:58:56,003 - speechbrain.utils.checkpoints - WARNING - During parameter transfer to ModuleList(
  (0): FullyConnectedAutoencoder(
    (encoder): Sequential(
      (0): Linear(in_features=80, out_features=60, bias=True)
      (1): ReLU()
      (2): Linear(in_features=60, out_features=40, bias=True)
      (3): ReLU()
      (4): Linear(in_features=40, out_features=20, bias=True)
    )
    (decoder): Sequential(
      (0): Linear(in_features=20, out_features=40, bias=True)
      (1): ReLU()
      (2): Linear(in_features=40, out_features=60, bias=True)
      (3): ReLU()
      (4): Linear(in_features=60, out_features=80, bias=True)
    )
    (sex_classifier): FullyConnSexClassifier(
      (fc1): Linear(in_features=40, out_features=20, bias=True)
      (fc2): Linear(in_features=20, out_features=2, bias=True)
    )
  )
) loading from model_checkpoints/asr_model.ckpt, the object could not use the parameters loaded with the key: 1.encoder.layers.7.self_att.att.in_proj_bias
2022-03-23 20:58:56,004 - speechbrain.utils.checkpoints - WARNING - During parameter transfer to ModuleList(
  (0): FullyConnectedAutoencoder(
    (encoder): Sequential(
      (0): Linear(in_features=80, out_features=60, bias=True)
      (1): ReLU()
      (2): Linear(in_features=60, out_features=40, bias=True)
      (3): ReLU()
      (4): Linear(in_features=40, out_features=20, bias=True)
    )
    (decoder): Sequential(
      (0): Linear(in_features=20, out_features=40, bias=True)
      (1): ReLU()
      (2): Linear(in_features=40, out_features=60, bias=True)
      (3): ReLU()
      (4): Linear(in_features=60, out_features=80, bias=True)
    )
    (sex_classifier): FullyConnSexClassifier(
      (fc1): Linear(in_features=40, out_features=20, bias=True)
      (fc2): Linear(in_features=20, out_features=2, bias=True)
    )
  )
) loading from model_checkpoints/asr_model.ckpt, the object could not use the parameters loaded with the key: 1.encoder.layers.7.self_att.att.out_proj.weight
2022-03-23 20:58:56,004 - speechbrain.utils.checkpoints - WARNING - During parameter transfer to ModuleList(
  (0): FullyConnectedAutoencoder(
    (encoder): Sequential(
      (0): Linear(in_features=80, out_features=60, bias=True)
      (1): ReLU()
      (2): Linear(in_features=60, out_features=40, bias=True)
      (3): ReLU()
      (4): Linear(in_features=40, out_features=20, bias=True)
    )
    (decoder): Sequential(
      (0): Linear(in_features=20, out_features=40, bias=True)
      (1): ReLU()
      (2): Linear(in_features=40, out_features=60, bias=True)
      (3): ReLU()
      (4): Linear(in_features=60, out_features=80, bias=True)
    )
    (sex_classifier): FullyConnSexClassifier(
      (fc1): Linear(in_features=40, out_features=20, bias=True)
      (fc2): Linear(in_features=20, out_features=2, bias=True)
    )
  )
) loading from model_checkpoints/asr_model.ckpt, the object could not use the parameters loaded with the key: 1.encoder.layers.7.self_att.att.out_proj.bias
2022-03-23 20:58:56,004 - speechbrain.utils.checkpoints - WARNING - During parameter transfer to ModuleList(
  (0): FullyConnectedAutoencoder(
    (encoder): Sequential(
      (0): Linear(in_features=80, out_features=60, bias=True)
      (1): ReLU()
      (2): Linear(in_features=60, out_features=40, bias=True)
      (3): ReLU()
      (4): Linear(in_features=40, out_features=20, bias=True)
    )
    (decoder): Sequential(
      (0): Linear(in_features=20, out_features=40, bias=True)
      (1): ReLU()
      (2): Linear(in_features=40, out_features=60, bias=True)
      (3): ReLU()
      (4): Linear(in_features=60, out_features=80, bias=True)
    )
    (sex_classifier): FullyConnSexClassifier(
      (fc1): Linear(in_features=40, out_features=20, bias=True)
      (fc2): Linear(in_features=20, out_features=2, bias=True)
    )
  )
) loading from model_checkpoints/asr_model.ckpt, the object could not use the parameters loaded with the key: 1.encoder.layers.7.pos_ffn.ffn.0.weight
2022-03-23 20:58:56,004 - speechbrain.utils.checkpoints - WARNING - During parameter transfer to ModuleList(
  (0): FullyConnectedAutoencoder(
    (encoder): Sequential(
      (0): Linear(in_features=80, out_features=60, bias=True)
      (1): ReLU()
      (2): Linear(in_features=60, out_features=40, bias=True)
      (3): ReLU()
      (4): Linear(in_features=40, out_features=20, bias=True)
    )
    (decoder): Sequential(
      (0): Linear(in_features=20, out_features=40, bias=True)
      (1): ReLU()
      (2): Linear(in_features=40, out_features=60, bias=True)
      (3): ReLU()
      (4): Linear(in_features=60, out_features=80, bias=True)
    )
    (sex_classifier): FullyConnSexClassifier(
      (fc1): Linear(in_features=40, out_features=20, bias=True)
      (fc2): Linear(in_features=20, out_features=2, bias=True)
    )
  )
) loading from model_checkpoints/asr_model.ckpt, the object could not use the parameters loaded with the key: 1.encoder.layers.7.pos_ffn.ffn.0.bias
2022-03-23 20:58:56,004 - speechbrain.utils.checkpoints - WARNING - During parameter transfer to ModuleList(
  (0): FullyConnectedAutoencoder(
    (encoder): Sequential(
      (0): Linear(in_features=80, out_features=60, bias=True)
      (1): ReLU()
      (2): Linear(in_features=60, out_features=40, bias=True)
      (3): ReLU()
      (4): Linear(in_features=40, out_features=20, bias=True)
    )
    (decoder): Sequential(
      (0): Linear(in_features=20, out_features=40, bias=True)
      (1): ReLU()
      (2): Linear(in_features=40, out_features=60, bias=True)
      (3): ReLU()
      (4): Linear(in_features=60, out_features=80, bias=True)
    )
    (sex_classifier): FullyConnSexClassifier(
      (fc1): Linear(in_features=40, out_features=20, bias=True)
      (fc2): Linear(in_features=20, out_features=2, bias=True)
    )
  )
) loading from model_checkpoints/asr_model.ckpt, the object could not use the parameters loaded with the key: 1.encoder.layers.7.pos_ffn.ffn.3.weight
2022-03-23 20:58:56,005 - speechbrain.utils.checkpoints - WARNING - During parameter transfer to ModuleList(
  (0): FullyConnectedAutoencoder(
    (encoder): Sequential(
      (0): Linear(in_features=80, out_features=60, bias=True)
      (1): ReLU()
      (2): Linear(in_features=60, out_features=40, bias=True)
      (3): ReLU()
      (4): Linear(in_features=40, out_features=20, bias=True)
    )
    (decoder): Sequential(
      (0): Linear(in_features=20, out_features=40, bias=True)
      (1): ReLU()
      (2): Linear(in_features=40, out_features=60, bias=True)
      (3): ReLU()
      (4): Linear(in_features=60, out_features=80, bias=True)
    )
    (sex_classifier): FullyConnSexClassifier(
      (fc1): Linear(in_features=40, out_features=20, bias=True)
      (fc2): Linear(in_features=20, out_features=2, bias=True)
    )
  )
) loading from model_checkpoints/asr_model.ckpt, the object could not use the parameters loaded with the key: 1.encoder.layers.7.pos_ffn.ffn.3.bias
2022-03-23 20:58:56,005 - speechbrain.utils.checkpoints - WARNING - During parameter transfer to ModuleList(
  (0): FullyConnectedAutoencoder(
    (encoder): Sequential(
      (0): Linear(in_features=80, out_features=60, bias=True)
      (1): ReLU()
      (2): Linear(in_features=60, out_features=40, bias=True)
      (3): ReLU()
      (4): Linear(in_features=40, out_features=20, bias=True)
    )
    (decoder): Sequential(
      (0): Linear(in_features=20, out_features=40, bias=True)
      (1): ReLU()
      (2): Linear(in_features=40, out_features=60, bias=True)
      (3): ReLU()
      (4): Linear(in_features=60, out_features=80, bias=True)
    )
    (sex_classifier): FullyConnSexClassifier(
      (fc1): Linear(in_features=40, out_features=20, bias=True)
      (fc2): Linear(in_features=20, out_features=2, bias=True)
    )
  )
) loading from model_checkpoints/asr_model.ckpt, the object could not use the parameters loaded with the key: 1.encoder.layers.7.norm1.norm.weight
2022-03-23 20:58:56,005 - speechbrain.utils.checkpoints - WARNING - During parameter transfer to ModuleList(
  (0): FullyConnectedAutoencoder(
    (encoder): Sequential(
      (0): Linear(in_features=80, out_features=60, bias=True)
      (1): ReLU()
      (2): Linear(in_features=60, out_features=40, bias=True)
      (3): ReLU()
      (4): Linear(in_features=40, out_features=20, bias=True)
    )
    (decoder): Sequential(
      (0): Linear(in_features=20, out_features=40, bias=True)
      (1): ReLU()
      (2): Linear(in_features=40, out_features=60, bias=True)
      (3): ReLU()
      (4): Linear(in_features=60, out_features=80, bias=True)
    )
    (sex_classifier): FullyConnSexClassifier(
      (fc1): Linear(in_features=40, out_features=20, bias=True)
      (fc2): Linear(in_features=20, out_features=2, bias=True)
    )
  )
) loading from model_checkpoints/asr_model.ckpt, the object could not use the parameters loaded with the key: 1.encoder.layers.7.norm1.norm.bias
2022-03-23 20:58:56,005 - speechbrain.utils.checkpoints - WARNING - During parameter transfer to ModuleList(
  (0): FullyConnectedAutoencoder(
    (encoder): Sequential(
      (0): Linear(in_features=80, out_features=60, bias=True)
      (1): ReLU()
      (2): Linear(in_features=60, out_features=40, bias=True)
      (3): ReLU()
      (4): Linear(in_features=40, out_features=20, bias=True)
    )
    (decoder): Sequential(
      (0): Linear(in_features=20, out_features=40, bias=True)
      (1): ReLU()
      (2): Linear(in_features=40, out_features=60, bias=True)
      (3): ReLU()
      (4): Linear(in_features=60, out_features=80, bias=True)
    )
    (sex_classifier): FullyConnSexClassifier(
      (fc1): Linear(in_features=40, out_features=20, bias=True)
      (fc2): Linear(in_features=20, out_features=2, bias=True)
    )
  )
) loading from model_checkpoints/asr_model.ckpt, the object could not use the parameters loaded with the key: 1.encoder.layers.7.norm2.norm.weight
2022-03-23 20:58:56,006 - speechbrain.utils.checkpoints - WARNING - During parameter transfer to ModuleList(
  (0): FullyConnectedAutoencoder(
    (encoder): Sequential(
      (0): Linear(in_features=80, out_features=60, bias=True)
      (1): ReLU()
      (2): Linear(in_features=60, out_features=40, bias=True)
      (3): ReLU()
      (4): Linear(in_features=40, out_features=20, bias=True)
    )
    (decoder): Sequential(
      (0): Linear(in_features=20, out_features=40, bias=True)
      (1): ReLU()
      (2): Linear(in_features=40, out_features=60, bias=True)
      (3): ReLU()
      (4): Linear(in_features=60, out_features=80, bias=True)
    )
    (sex_classifier): FullyConnSexClassifier(
      (fc1): Linear(in_features=40, out_features=20, bias=True)
      (fc2): Linear(in_features=20, out_features=2, bias=True)
    )
  )
) loading from model_checkpoints/asr_model.ckpt, the object could not use the parameters loaded with the key: 1.encoder.layers.7.norm2.norm.bias
2022-03-23 20:58:56,006 - speechbrain.utils.checkpoints - WARNING - During parameter transfer to ModuleList(
  (0): FullyConnectedAutoencoder(
    (encoder): Sequential(
      (0): Linear(in_features=80, out_features=60, bias=True)
      (1): ReLU()
      (2): Linear(in_features=60, out_features=40, bias=True)
      (3): ReLU()
      (4): Linear(in_features=40, out_features=20, bias=True)
    )
    (decoder): Sequential(
      (0): Linear(in_features=20, out_features=40, bias=True)
      (1): ReLU()
      (2): Linear(in_features=40, out_features=60, bias=True)
      (3): ReLU()
      (4): Linear(in_features=60, out_features=80, bias=True)
    )
    (sex_classifier): FullyConnSexClassifier(
      (fc1): Linear(in_features=40, out_features=20, bias=True)
      (fc2): Linear(in_features=20, out_features=2, bias=True)
    )
  )
) loading from model_checkpoints/asr_model.ckpt, the object could not use the parameters loaded with the key: 1.encoder.layers.8.self_att.att.in_proj_weight
2022-03-23 20:58:56,006 - speechbrain.utils.checkpoints - WARNING - During parameter transfer to ModuleList(
  (0): FullyConnectedAutoencoder(
    (encoder): Sequential(
      (0): Linear(in_features=80, out_features=60, bias=True)
      (1): ReLU()
      (2): Linear(in_features=60, out_features=40, bias=True)
      (3): ReLU()
      (4): Linear(in_features=40, out_features=20, bias=True)
    )
    (decoder): Sequential(
      (0): Linear(in_features=20, out_features=40, bias=True)
      (1): ReLU()
      (2): Linear(in_features=40, out_features=60, bias=True)
      (3): ReLU()
      (4): Linear(in_features=60, out_features=80, bias=True)
    )
    (sex_classifier): FullyConnSexClassifier(
      (fc1): Linear(in_features=40, out_features=20, bias=True)
      (fc2): Linear(in_features=20, out_features=2, bias=True)
    )
  )
) loading from model_checkpoints/asr_model.ckpt, the object could not use the parameters loaded with the key: 1.encoder.layers.8.self_att.att.in_proj_bias
2022-03-23 20:58:56,006 - speechbrain.utils.checkpoints - WARNING - During parameter transfer to ModuleList(
  (0): FullyConnectedAutoencoder(
    (encoder): Sequential(
      (0): Linear(in_features=80, out_features=60, bias=True)
      (1): ReLU()
      (2): Linear(in_features=60, out_features=40, bias=True)
      (3): ReLU()
      (4): Linear(in_features=40, out_features=20, bias=True)
    )
    (decoder): Sequential(
      (0): Linear(in_features=20, out_features=40, bias=True)
      (1): ReLU()
      (2): Linear(in_features=40, out_features=60, bias=True)
      (3): ReLU()
      (4): Linear(in_features=60, out_features=80, bias=True)
    )
    (sex_classifier): FullyConnSexClassifier(
      (fc1): Linear(in_features=40, out_features=20, bias=True)
      (fc2): Linear(in_features=20, out_features=2, bias=True)
    )
  )
) loading from model_checkpoints/asr_model.ckpt, the object could not use the parameters loaded with the key: 1.encoder.layers.8.self_att.att.out_proj.weight
2022-03-23 20:58:56,007 - speechbrain.utils.checkpoints - WARNING - During parameter transfer to ModuleList(
  (0): FullyConnectedAutoencoder(
    (encoder): Sequential(
      (0): Linear(in_features=80, out_features=60, bias=True)
      (1): ReLU()
      (2): Linear(in_features=60, out_features=40, bias=True)
      (3): ReLU()
      (4): Linear(in_features=40, out_features=20, bias=True)
    )
    (decoder): Sequential(
      (0): Linear(in_features=20, out_features=40, bias=True)
      (1): ReLU()
      (2): Linear(in_features=40, out_features=60, bias=True)
      (3): ReLU()
      (4): Linear(in_features=60, out_features=80, bias=True)
    )
    (sex_classifier): FullyConnSexClassifier(
      (fc1): Linear(in_features=40, out_features=20, bias=True)
      (fc2): Linear(in_features=20, out_features=2, bias=True)
    )
  )
) loading from model_checkpoints/asr_model.ckpt, the object could not use the parameters loaded with the key: 1.encoder.layers.8.self_att.att.out_proj.bias
2022-03-23 20:58:56,007 - speechbrain.utils.checkpoints - WARNING - During parameter transfer to ModuleList(
  (0): FullyConnectedAutoencoder(
    (encoder): Sequential(
      (0): Linear(in_features=80, out_features=60, bias=True)
      (1): ReLU()
      (2): Linear(in_features=60, out_features=40, bias=True)
      (3): ReLU()
      (4): Linear(in_features=40, out_features=20, bias=True)
    )
    (decoder): Sequential(
      (0): Linear(in_features=20, out_features=40, bias=True)
      (1): ReLU()
      (2): Linear(in_features=40, out_features=60, bias=True)
      (3): ReLU()
      (4): Linear(in_features=60, out_features=80, bias=True)
    )
    (sex_classifier): FullyConnSexClassifier(
      (fc1): Linear(in_features=40, out_features=20, bias=True)
      (fc2): Linear(in_features=20, out_features=2, bias=True)
    )
  )
) loading from model_checkpoints/asr_model.ckpt, the object could not use the parameters loaded with the key: 1.encoder.layers.8.pos_ffn.ffn.0.weight
2022-03-23 20:58:56,007 - speechbrain.utils.checkpoints - WARNING - During parameter transfer to ModuleList(
  (0): FullyConnectedAutoencoder(
    (encoder): Sequential(
      (0): Linear(in_features=80, out_features=60, bias=True)
      (1): ReLU()
      (2): Linear(in_features=60, out_features=40, bias=True)
      (3): ReLU()
      (4): Linear(in_features=40, out_features=20, bias=True)
    )
    (decoder): Sequential(
      (0): Linear(in_features=20, out_features=40, bias=True)
      (1): ReLU()
      (2): Linear(in_features=40, out_features=60, bias=True)
      (3): ReLU()
      (4): Linear(in_features=60, out_features=80, bias=True)
    )
    (sex_classifier): FullyConnSexClassifier(
      (fc1): Linear(in_features=40, out_features=20, bias=True)
      (fc2): Linear(in_features=20, out_features=2, bias=True)
    )
  )
) loading from model_checkpoints/asr_model.ckpt, the object could not use the parameters loaded with the key: 1.encoder.layers.8.pos_ffn.ffn.0.bias
2022-03-23 20:58:56,007 - speechbrain.utils.checkpoints - WARNING - During parameter transfer to ModuleList(
  (0): FullyConnectedAutoencoder(
    (encoder): Sequential(
      (0): Linear(in_features=80, out_features=60, bias=True)
      (1): ReLU()
      (2): Linear(in_features=60, out_features=40, bias=True)
      (3): ReLU()
      (4): Linear(in_features=40, out_features=20, bias=True)
    )
    (decoder): Sequential(
      (0): Linear(in_features=20, out_features=40, bias=True)
      (1): ReLU()
      (2): Linear(in_features=40, out_features=60, bias=True)
      (3): ReLU()
      (4): Linear(in_features=60, out_features=80, bias=True)
    )
    (sex_classifier): FullyConnSexClassifier(
      (fc1): Linear(in_features=40, out_features=20, bias=True)
      (fc2): Linear(in_features=20, out_features=2, bias=True)
    )
  )
) loading from model_checkpoints/asr_model.ckpt, the object could not use the parameters loaded with the key: 1.encoder.layers.8.pos_ffn.ffn.3.weight
2022-03-23 20:58:56,008 - speechbrain.utils.checkpoints - WARNING - During parameter transfer to ModuleList(
  (0): FullyConnectedAutoencoder(
    (encoder): Sequential(
      (0): Linear(in_features=80, out_features=60, bias=True)
      (1): ReLU()
      (2): Linear(in_features=60, out_features=40, bias=True)
      (3): ReLU()
      (4): Linear(in_features=40, out_features=20, bias=True)
    )
    (decoder): Sequential(
      (0): Linear(in_features=20, out_features=40, bias=True)
      (1): ReLU()
      (2): Linear(in_features=40, out_features=60, bias=True)
      (3): ReLU()
      (4): Linear(in_features=60, out_features=80, bias=True)
    )
    (sex_classifier): FullyConnSexClassifier(
      (fc1): Linear(in_features=40, out_features=20, bias=True)
      (fc2): Linear(in_features=20, out_features=2, bias=True)
    )
  )
) loading from model_checkpoints/asr_model.ckpt, the object could not use the parameters loaded with the key: 1.encoder.layers.8.pos_ffn.ffn.3.bias
2022-03-23 20:58:56,008 - speechbrain.utils.checkpoints - WARNING - During parameter transfer to ModuleList(
  (0): FullyConnectedAutoencoder(
    (encoder): Sequential(
      (0): Linear(in_features=80, out_features=60, bias=True)
      (1): ReLU()
      (2): Linear(in_features=60, out_features=40, bias=True)
      (3): ReLU()
      (4): Linear(in_features=40, out_features=20, bias=True)
    )
    (decoder): Sequential(
      (0): Linear(in_features=20, out_features=40, bias=True)
      (1): ReLU()
      (2): Linear(in_features=40, out_features=60, bias=True)
      (3): ReLU()
      (4): Linear(in_features=60, out_features=80, bias=True)
    )
    (sex_classifier): FullyConnSexClassifier(
      (fc1): Linear(in_features=40, out_features=20, bias=True)
      (fc2): Linear(in_features=20, out_features=2, bias=True)
    )
  )
) loading from model_checkpoints/asr_model.ckpt, the object could not use the parameters loaded with the key: 1.encoder.layers.8.norm1.norm.weight
2022-03-23 20:58:56,008 - speechbrain.utils.checkpoints - WARNING - During parameter transfer to ModuleList(
  (0): FullyConnectedAutoencoder(
    (encoder): Sequential(
      (0): Linear(in_features=80, out_features=60, bias=True)
      (1): ReLU()
      (2): Linear(in_features=60, out_features=40, bias=True)
      (3): ReLU()
      (4): Linear(in_features=40, out_features=20, bias=True)
    )
    (decoder): Sequential(
      (0): Linear(in_features=20, out_features=40, bias=True)
      (1): ReLU()
      (2): Linear(in_features=40, out_features=60, bias=True)
      (3): ReLU()
      (4): Linear(in_features=60, out_features=80, bias=True)
    )
    (sex_classifier): FullyConnSexClassifier(
      (fc1): Linear(in_features=40, out_features=20, bias=True)
      (fc2): Linear(in_features=20, out_features=2, bias=True)
    )
  )
) loading from model_checkpoints/asr_model.ckpt, the object could not use the parameters loaded with the key: 1.encoder.layers.8.norm1.norm.bias
2022-03-23 20:58:56,008 - speechbrain.utils.checkpoints - WARNING - During parameter transfer to ModuleList(
  (0): FullyConnectedAutoencoder(
    (encoder): Sequential(
      (0): Linear(in_features=80, out_features=60, bias=True)
      (1): ReLU()
      (2): Linear(in_features=60, out_features=40, bias=True)
      (3): ReLU()
      (4): Linear(in_features=40, out_features=20, bias=True)
    )
    (decoder): Sequential(
      (0): Linear(in_features=20, out_features=40, bias=True)
      (1): ReLU()
      (2): Linear(in_features=40, out_features=60, bias=True)
      (3): ReLU()
      (4): Linear(in_features=60, out_features=80, bias=True)
    )
    (sex_classifier): FullyConnSexClassifier(
      (fc1): Linear(in_features=40, out_features=20, bias=True)
      (fc2): Linear(in_features=20, out_features=2, bias=True)
    )
  )
) loading from model_checkpoints/asr_model.ckpt, the object could not use the parameters loaded with the key: 1.encoder.layers.8.norm2.norm.weight
2022-03-23 20:58:56,009 - speechbrain.utils.checkpoints - WARNING - During parameter transfer to ModuleList(
  (0): FullyConnectedAutoencoder(
    (encoder): Sequential(
      (0): Linear(in_features=80, out_features=60, bias=True)
      (1): ReLU()
      (2): Linear(in_features=60, out_features=40, bias=True)
      (3): ReLU()
      (4): Linear(in_features=40, out_features=20, bias=True)
    )
    (decoder): Sequential(
      (0): Linear(in_features=20, out_features=40, bias=True)
      (1): ReLU()
      (2): Linear(in_features=40, out_features=60, bias=True)
      (3): ReLU()
      (4): Linear(in_features=60, out_features=80, bias=True)
    )
    (sex_classifier): FullyConnSexClassifier(
      (fc1): Linear(in_features=40, out_features=20, bias=True)
      (fc2): Linear(in_features=20, out_features=2, bias=True)
    )
  )
) loading from model_checkpoints/asr_model.ckpt, the object could not use the parameters loaded with the key: 1.encoder.layers.8.norm2.norm.bias
2022-03-23 20:58:56,009 - speechbrain.utils.checkpoints - WARNING - During parameter transfer to ModuleList(
  (0): FullyConnectedAutoencoder(
    (encoder): Sequential(
      (0): Linear(in_features=80, out_features=60, bias=True)
      (1): ReLU()
      (2): Linear(in_features=60, out_features=40, bias=True)
      (3): ReLU()
      (4): Linear(in_features=40, out_features=20, bias=True)
    )
    (decoder): Sequential(
      (0): Linear(in_features=20, out_features=40, bias=True)
      (1): ReLU()
      (2): Linear(in_features=40, out_features=60, bias=True)
      (3): ReLU()
      (4): Linear(in_features=60, out_features=80, bias=True)
    )
    (sex_classifier): FullyConnSexClassifier(
      (fc1): Linear(in_features=40, out_features=20, bias=True)
      (fc2): Linear(in_features=20, out_features=2, bias=True)
    )
  )
) loading from model_checkpoints/asr_model.ckpt, the object could not use the parameters loaded with the key: 1.encoder.layers.9.self_att.att.in_proj_weight
2022-03-23 20:58:56,009 - speechbrain.utils.checkpoints - WARNING - During parameter transfer to ModuleList(
  (0): FullyConnectedAutoencoder(
    (encoder): Sequential(
      (0): Linear(in_features=80, out_features=60, bias=True)
      (1): ReLU()
      (2): Linear(in_features=60, out_features=40, bias=True)
      (3): ReLU()
      (4): Linear(in_features=40, out_features=20, bias=True)
    )
    (decoder): Sequential(
      (0): Linear(in_features=20, out_features=40, bias=True)
      (1): ReLU()
      (2): Linear(in_features=40, out_features=60, bias=True)
      (3): ReLU()
      (4): Linear(in_features=60, out_features=80, bias=True)
    )
    (sex_classifier): FullyConnSexClassifier(
      (fc1): Linear(in_features=40, out_features=20, bias=True)
      (fc2): Linear(in_features=20, out_features=2, bias=True)
    )
  )
) loading from model_checkpoints/asr_model.ckpt, the object could not use the parameters loaded with the key: 1.encoder.layers.9.self_att.att.in_proj_bias
2022-03-23 20:58:56,009 - speechbrain.utils.checkpoints - WARNING - During parameter transfer to ModuleList(
  (0): FullyConnectedAutoencoder(
    (encoder): Sequential(
      (0): Linear(in_features=80, out_features=60, bias=True)
      (1): ReLU()
      (2): Linear(in_features=60, out_features=40, bias=True)
      (3): ReLU()
      (4): Linear(in_features=40, out_features=20, bias=True)
    )
    (decoder): Sequential(
      (0): Linear(in_features=20, out_features=40, bias=True)
      (1): ReLU()
      (2): Linear(in_features=40, out_features=60, bias=True)
      (3): ReLU()
      (4): Linear(in_features=60, out_features=80, bias=True)
    )
    (sex_classifier): FullyConnSexClassifier(
      (fc1): Linear(in_features=40, out_features=20, bias=True)
      (fc2): Linear(in_features=20, out_features=2, bias=True)
    )
  )
) loading from model_checkpoints/asr_model.ckpt, the object could not use the parameters loaded with the key: 1.encoder.layers.9.self_att.att.out_proj.weight
2022-03-23 20:58:56,010 - speechbrain.utils.checkpoints - WARNING - During parameter transfer to ModuleList(
  (0): FullyConnectedAutoencoder(
    (encoder): Sequential(
      (0): Linear(in_features=80, out_features=60, bias=True)
      (1): ReLU()
      (2): Linear(in_features=60, out_features=40, bias=True)
      (3): ReLU()
      (4): Linear(in_features=40, out_features=20, bias=True)
    )
    (decoder): Sequential(
      (0): Linear(in_features=20, out_features=40, bias=True)
      (1): ReLU()
      (2): Linear(in_features=40, out_features=60, bias=True)
      (3): ReLU()
      (4): Linear(in_features=60, out_features=80, bias=True)
    )
    (sex_classifier): FullyConnSexClassifier(
      (fc1): Linear(in_features=40, out_features=20, bias=True)
      (fc2): Linear(in_features=20, out_features=2, bias=True)
    )
  )
) loading from model_checkpoints/asr_model.ckpt, the object could not use the parameters loaded with the key: 1.encoder.layers.9.self_att.att.out_proj.bias
2022-03-23 20:58:56,010 - speechbrain.utils.checkpoints - WARNING - During parameter transfer to ModuleList(
  (0): FullyConnectedAutoencoder(
    (encoder): Sequential(
      (0): Linear(in_features=80, out_features=60, bias=True)
      (1): ReLU()
      (2): Linear(in_features=60, out_features=40, bias=True)
      (3): ReLU()
      (4): Linear(in_features=40, out_features=20, bias=True)
    )
    (decoder): Sequential(
      (0): Linear(in_features=20, out_features=40, bias=True)
      (1): ReLU()
      (2): Linear(in_features=40, out_features=60, bias=True)
      (3): ReLU()
      (4): Linear(in_features=60, out_features=80, bias=True)
    )
    (sex_classifier): FullyConnSexClassifier(
      (fc1): Linear(in_features=40, out_features=20, bias=True)
      (fc2): Linear(in_features=20, out_features=2, bias=True)
    )
  )
) loading from model_checkpoints/asr_model.ckpt, the object could not use the parameters loaded with the key: 1.encoder.layers.9.pos_ffn.ffn.0.weight
2022-03-23 20:58:56,010 - speechbrain.utils.checkpoints - WARNING - During parameter transfer to ModuleList(
  (0): FullyConnectedAutoencoder(
    (encoder): Sequential(
      (0): Linear(in_features=80, out_features=60, bias=True)
      (1): ReLU()
      (2): Linear(in_features=60, out_features=40, bias=True)
      (3): ReLU()
      (4): Linear(in_features=40, out_features=20, bias=True)
    )
    (decoder): Sequential(
      (0): Linear(in_features=20, out_features=40, bias=True)
      (1): ReLU()
      (2): Linear(in_features=40, out_features=60, bias=True)
      (3): ReLU()
      (4): Linear(in_features=60, out_features=80, bias=True)
    )
    (sex_classifier): FullyConnSexClassifier(
      (fc1): Linear(in_features=40, out_features=20, bias=True)
      (fc2): Linear(in_features=20, out_features=2, bias=True)
    )
  )
) loading from model_checkpoints/asr_model.ckpt, the object could not use the parameters loaded with the key: 1.encoder.layers.9.pos_ffn.ffn.0.bias
2022-03-23 20:58:56,010 - speechbrain.utils.checkpoints - WARNING - During parameter transfer to ModuleList(
  (0): FullyConnectedAutoencoder(
    (encoder): Sequential(
      (0): Linear(in_features=80, out_features=60, bias=True)
      (1): ReLU()
      (2): Linear(in_features=60, out_features=40, bias=True)
      (3): ReLU()
      (4): Linear(in_features=40, out_features=20, bias=True)
    )
    (decoder): Sequential(
      (0): Linear(in_features=20, out_features=40, bias=True)
      (1): ReLU()
      (2): Linear(in_features=40, out_features=60, bias=True)
      (3): ReLU()
      (4): Linear(in_features=60, out_features=80, bias=True)
    )
    (sex_classifier): FullyConnSexClassifier(
      (fc1): Linear(in_features=40, out_features=20, bias=True)
      (fc2): Linear(in_features=20, out_features=2, bias=True)
    )
  )
) loading from model_checkpoints/asr_model.ckpt, the object could not use the parameters loaded with the key: 1.encoder.layers.9.pos_ffn.ffn.3.weight
2022-03-23 20:58:56,010 - speechbrain.utils.checkpoints - WARNING - During parameter transfer to ModuleList(
  (0): FullyConnectedAutoencoder(
    (encoder): Sequential(
      (0): Linear(in_features=80, out_features=60, bias=True)
      (1): ReLU()
      (2): Linear(in_features=60, out_features=40, bias=True)
      (3): ReLU()
      (4): Linear(in_features=40, out_features=20, bias=True)
    )
    (decoder): Sequential(
      (0): Linear(in_features=20, out_features=40, bias=True)
      (1): ReLU()
      (2): Linear(in_features=40, out_features=60, bias=True)
      (3): ReLU()
      (4): Linear(in_features=60, out_features=80, bias=True)
    )
    (sex_classifier): FullyConnSexClassifier(
      (fc1): Linear(in_features=40, out_features=20, bias=True)
      (fc2): Linear(in_features=20, out_features=2, bias=True)
    )
  )
) loading from model_checkpoints/asr_model.ckpt, the object could not use the parameters loaded with the key: 1.encoder.layers.9.pos_ffn.ffn.3.bias
2022-03-23 20:58:56,011 - speechbrain.utils.checkpoints - WARNING - During parameter transfer to ModuleList(
  (0): FullyConnectedAutoencoder(
    (encoder): Sequential(
      (0): Linear(in_features=80, out_features=60, bias=True)
      (1): ReLU()
      (2): Linear(in_features=60, out_features=40, bias=True)
      (3): ReLU()
      (4): Linear(in_features=40, out_features=20, bias=True)
    )
    (decoder): Sequential(
      (0): Linear(in_features=20, out_features=40, bias=True)
      (1): ReLU()
      (2): Linear(in_features=40, out_features=60, bias=True)
      (3): ReLU()
      (4): Linear(in_features=60, out_features=80, bias=True)
    )
    (sex_classifier): FullyConnSexClassifier(
      (fc1): Linear(in_features=40, out_features=20, bias=True)
      (fc2): Linear(in_features=20, out_features=2, bias=True)
    )
  )
) loading from model_checkpoints/asr_model.ckpt, the object could not use the parameters loaded with the key: 1.encoder.layers.9.norm1.norm.weight
2022-03-23 20:58:56,011 - speechbrain.utils.checkpoints - WARNING - During parameter transfer to ModuleList(
  (0): FullyConnectedAutoencoder(
    (encoder): Sequential(
      (0): Linear(in_features=80, out_features=60, bias=True)
      (1): ReLU()
      (2): Linear(in_features=60, out_features=40, bias=True)
      (3): ReLU()
      (4): Linear(in_features=40, out_features=20, bias=True)
    )
    (decoder): Sequential(
      (0): Linear(in_features=20, out_features=40, bias=True)
      (1): ReLU()
      (2): Linear(in_features=40, out_features=60, bias=True)
      (3): ReLU()
      (4): Linear(in_features=60, out_features=80, bias=True)
    )
    (sex_classifier): FullyConnSexClassifier(
      (fc1): Linear(in_features=40, out_features=20, bias=True)
      (fc2): Linear(in_features=20, out_features=2, bias=True)
    )
  )
) loading from model_checkpoints/asr_model.ckpt, the object could not use the parameters loaded with the key: 1.encoder.layers.9.norm1.norm.bias
2022-03-23 20:58:56,011 - speechbrain.utils.checkpoints - WARNING - During parameter transfer to ModuleList(
  (0): FullyConnectedAutoencoder(
    (encoder): Sequential(
      (0): Linear(in_features=80, out_features=60, bias=True)
      (1): ReLU()
      (2): Linear(in_features=60, out_features=40, bias=True)
      (3): ReLU()
      (4): Linear(in_features=40, out_features=20, bias=True)
    )
    (decoder): Sequential(
      (0): Linear(in_features=20, out_features=40, bias=True)
      (1): ReLU()
      (2): Linear(in_features=40, out_features=60, bias=True)
      (3): ReLU()
      (4): Linear(in_features=60, out_features=80, bias=True)
    )
    (sex_classifier): FullyConnSexClassifier(
      (fc1): Linear(in_features=40, out_features=20, bias=True)
      (fc2): Linear(in_features=20, out_features=2, bias=True)
    )
  )
) loading from model_checkpoints/asr_model.ckpt, the object could not use the parameters loaded with the key: 1.encoder.layers.9.norm2.norm.weight
2022-03-23 20:58:56,011 - speechbrain.utils.checkpoints - WARNING - During parameter transfer to ModuleList(
  (0): FullyConnectedAutoencoder(
    (encoder): Sequential(
      (0): Linear(in_features=80, out_features=60, bias=True)
      (1): ReLU()
      (2): Linear(in_features=60, out_features=40, bias=True)
      (3): ReLU()
      (4): Linear(in_features=40, out_features=20, bias=True)
    )
    (decoder): Sequential(
      (0): Linear(in_features=20, out_features=40, bias=True)
      (1): ReLU()
      (2): Linear(in_features=40, out_features=60, bias=True)
      (3): ReLU()
      (4): Linear(in_features=60, out_features=80, bias=True)
    )
    (sex_classifier): FullyConnSexClassifier(
      (fc1): Linear(in_features=40, out_features=20, bias=True)
      (fc2): Linear(in_features=20, out_features=2, bias=True)
    )
  )
) loading from model_checkpoints/asr_model.ckpt, the object could not use the parameters loaded with the key: 1.encoder.layers.9.norm2.norm.bias
2022-03-23 20:58:56,012 - speechbrain.utils.checkpoints - WARNING - During parameter transfer to ModuleList(
  (0): FullyConnectedAutoencoder(
    (encoder): Sequential(
      (0): Linear(in_features=80, out_features=60, bias=True)
      (1): ReLU()
      (2): Linear(in_features=60, out_features=40, bias=True)
      (3): ReLU()
      (4): Linear(in_features=40, out_features=20, bias=True)
    )
    (decoder): Sequential(
      (0): Linear(in_features=20, out_features=40, bias=True)
      (1): ReLU()
      (2): Linear(in_features=40, out_features=60, bias=True)
      (3): ReLU()
      (4): Linear(in_features=60, out_features=80, bias=True)
    )
    (sex_classifier): FullyConnSexClassifier(
      (fc1): Linear(in_features=40, out_features=20, bias=True)
      (fc2): Linear(in_features=20, out_features=2, bias=True)
    )
  )
) loading from model_checkpoints/asr_model.ckpt, the object could not use the parameters loaded with the key: 1.encoder.layers.10.self_att.att.in_proj_weight
2022-03-23 20:58:56,012 - speechbrain.utils.checkpoints - WARNING - During parameter transfer to ModuleList(
  (0): FullyConnectedAutoencoder(
    (encoder): Sequential(
      (0): Linear(in_features=80, out_features=60, bias=True)
      (1): ReLU()
      (2): Linear(in_features=60, out_features=40, bias=True)
      (3): ReLU()
      (4): Linear(in_features=40, out_features=20, bias=True)
    )
    (decoder): Sequential(
      (0): Linear(in_features=20, out_features=40, bias=True)
      (1): ReLU()
      (2): Linear(in_features=40, out_features=60, bias=True)
      (3): ReLU()
      (4): Linear(in_features=60, out_features=80, bias=True)
    )
    (sex_classifier): FullyConnSexClassifier(
      (fc1): Linear(in_features=40, out_features=20, bias=True)
      (fc2): Linear(in_features=20, out_features=2, bias=True)
    )
  )
) loading from model_checkpoints/asr_model.ckpt, the object could not use the parameters loaded with the key: 1.encoder.layers.10.self_att.att.in_proj_bias
2022-03-23 20:58:56,012 - speechbrain.utils.checkpoints - WARNING - During parameter transfer to ModuleList(
  (0): FullyConnectedAutoencoder(
    (encoder): Sequential(
      (0): Linear(in_features=80, out_features=60, bias=True)
      (1): ReLU()
      (2): Linear(in_features=60, out_features=40, bias=True)
      (3): ReLU()
      (4): Linear(in_features=40, out_features=20, bias=True)
    )
    (decoder): Sequential(
      (0): Linear(in_features=20, out_features=40, bias=True)
      (1): ReLU()
      (2): Linear(in_features=40, out_features=60, bias=True)
      (3): ReLU()
      (4): Linear(in_features=60, out_features=80, bias=True)
    )
    (sex_classifier): FullyConnSexClassifier(
      (fc1): Linear(in_features=40, out_features=20, bias=True)
      (fc2): Linear(in_features=20, out_features=2, bias=True)
    )
  )
) loading from model_checkpoints/asr_model.ckpt, the object could not use the parameters loaded with the key: 1.encoder.layers.10.self_att.att.out_proj.weight
2022-03-23 20:58:56,012 - speechbrain.utils.checkpoints - WARNING - During parameter transfer to ModuleList(
  (0): FullyConnectedAutoencoder(
    (encoder): Sequential(
      (0): Linear(in_features=80, out_features=60, bias=True)
      (1): ReLU()
      (2): Linear(in_features=60, out_features=40, bias=True)
      (3): ReLU()
      (4): Linear(in_features=40, out_features=20, bias=True)
    )
    (decoder): Sequential(
      (0): Linear(in_features=20, out_features=40, bias=True)
      (1): ReLU()
      (2): Linear(in_features=40, out_features=60, bias=True)
      (3): ReLU()
      (4): Linear(in_features=60, out_features=80, bias=True)
    )
    (sex_classifier): FullyConnSexClassifier(
      (fc1): Linear(in_features=40, out_features=20, bias=True)
      (fc2): Linear(in_features=20, out_features=2, bias=True)
    )
  )
) loading from model_checkpoints/asr_model.ckpt, the object could not use the parameters loaded with the key: 1.encoder.layers.10.self_att.att.out_proj.bias
2022-03-23 20:58:56,013 - speechbrain.utils.checkpoints - WARNING - During parameter transfer to ModuleList(
  (0): FullyConnectedAutoencoder(
    (encoder): Sequential(
      (0): Linear(in_features=80, out_features=60, bias=True)
      (1): ReLU()
      (2): Linear(in_features=60, out_features=40, bias=True)
      (3): ReLU()
      (4): Linear(in_features=40, out_features=20, bias=True)
    )
    (decoder): Sequential(
      (0): Linear(in_features=20, out_features=40, bias=True)
      (1): ReLU()
      (2): Linear(in_features=40, out_features=60, bias=True)
      (3): ReLU()
      (4): Linear(in_features=60, out_features=80, bias=True)
    )
    (sex_classifier): FullyConnSexClassifier(
      (fc1): Linear(in_features=40, out_features=20, bias=True)
      (fc2): Linear(in_features=20, out_features=2, bias=True)
    )
  )
) loading from model_checkpoints/asr_model.ckpt, the object could not use the parameters loaded with the key: 1.encoder.layers.10.pos_ffn.ffn.0.weight
2022-03-23 20:58:56,013 - speechbrain.utils.checkpoints - WARNING - During parameter transfer to ModuleList(
  (0): FullyConnectedAutoencoder(
    (encoder): Sequential(
      (0): Linear(in_features=80, out_features=60, bias=True)
      (1): ReLU()
      (2): Linear(in_features=60, out_features=40, bias=True)
      (3): ReLU()
      (4): Linear(in_features=40, out_features=20, bias=True)
    )
    (decoder): Sequential(
      (0): Linear(in_features=20, out_features=40, bias=True)
      (1): ReLU()
      (2): Linear(in_features=40, out_features=60, bias=True)
      (3): ReLU()
      (4): Linear(in_features=60, out_features=80, bias=True)
    )
    (sex_classifier): FullyConnSexClassifier(
      (fc1): Linear(in_features=40, out_features=20, bias=True)
      (fc2): Linear(in_features=20, out_features=2, bias=True)
    )
  )
) loading from model_checkpoints/asr_model.ckpt, the object could not use the parameters loaded with the key: 1.encoder.layers.10.pos_ffn.ffn.0.bias
2022-03-23 20:58:56,013 - speechbrain.utils.checkpoints - WARNING - During parameter transfer to ModuleList(
  (0): FullyConnectedAutoencoder(
    (encoder): Sequential(
      (0): Linear(in_features=80, out_features=60, bias=True)
      (1): ReLU()
      (2): Linear(in_features=60, out_features=40, bias=True)
      (3): ReLU()
      (4): Linear(in_features=40, out_features=20, bias=True)
    )
    (decoder): Sequential(
      (0): Linear(in_features=20, out_features=40, bias=True)
      (1): ReLU()
      (2): Linear(in_features=40, out_features=60, bias=True)
      (3): ReLU()
      (4): Linear(in_features=60, out_features=80, bias=True)
    )
    (sex_classifier): FullyConnSexClassifier(
      (fc1): Linear(in_features=40, out_features=20, bias=True)
      (fc2): Linear(in_features=20, out_features=2, bias=True)
    )
  )
) loading from model_checkpoints/asr_model.ckpt, the object could not use the parameters loaded with the key: 1.encoder.layers.10.pos_ffn.ffn.3.weight
2022-03-23 20:58:56,013 - speechbrain.utils.checkpoints - WARNING - During parameter transfer to ModuleList(
  (0): FullyConnectedAutoencoder(
    (encoder): Sequential(
      (0): Linear(in_features=80, out_features=60, bias=True)
      (1): ReLU()
      (2): Linear(in_features=60, out_features=40, bias=True)
      (3): ReLU()
      (4): Linear(in_features=40, out_features=20, bias=True)
    )
    (decoder): Sequential(
      (0): Linear(in_features=20, out_features=40, bias=True)
      (1): ReLU()
      (2): Linear(in_features=40, out_features=60, bias=True)
      (3): ReLU()
      (4): Linear(in_features=60, out_features=80, bias=True)
    )
    (sex_classifier): FullyConnSexClassifier(
      (fc1): Linear(in_features=40, out_features=20, bias=True)
      (fc2): Linear(in_features=20, out_features=2, bias=True)
    )
  )
) loading from model_checkpoints/asr_model.ckpt, the object could not use the parameters loaded with the key: 1.encoder.layers.10.pos_ffn.ffn.3.bias
2022-03-23 20:58:56,014 - speechbrain.utils.checkpoints - WARNING - During parameter transfer to ModuleList(
  (0): FullyConnectedAutoencoder(
    (encoder): Sequential(
      (0): Linear(in_features=80, out_features=60, bias=True)
      (1): ReLU()
      (2): Linear(in_features=60, out_features=40, bias=True)
      (3): ReLU()
      (4): Linear(in_features=40, out_features=20, bias=True)
    )
    (decoder): Sequential(
      (0): Linear(in_features=20, out_features=40, bias=True)
      (1): ReLU()
      (2): Linear(in_features=40, out_features=60, bias=True)
      (3): ReLU()
      (4): Linear(in_features=60, out_features=80, bias=True)
    )
    (sex_classifier): FullyConnSexClassifier(
      (fc1): Linear(in_features=40, out_features=20, bias=True)
      (fc2): Linear(in_features=20, out_features=2, bias=True)
    )
  )
) loading from model_checkpoints/asr_model.ckpt, the object could not use the parameters loaded with the key: 1.encoder.layers.10.norm1.norm.weight
2022-03-23 20:58:56,014 - speechbrain.utils.checkpoints - WARNING - During parameter transfer to ModuleList(
  (0): FullyConnectedAutoencoder(
    (encoder): Sequential(
      (0): Linear(in_features=80, out_features=60, bias=True)
      (1): ReLU()
      (2): Linear(in_features=60, out_features=40, bias=True)
      (3): ReLU()
      (4): Linear(in_features=40, out_features=20, bias=True)
    )
    (decoder): Sequential(
      (0): Linear(in_features=20, out_features=40, bias=True)
      (1): ReLU()
      (2): Linear(in_features=40, out_features=60, bias=True)
      (3): ReLU()
      (4): Linear(in_features=60, out_features=80, bias=True)
    )
    (sex_classifier): FullyConnSexClassifier(
      (fc1): Linear(in_features=40, out_features=20, bias=True)
      (fc2): Linear(in_features=20, out_features=2, bias=True)
    )
  )
) loading from model_checkpoints/asr_model.ckpt, the object could not use the parameters loaded with the key: 1.encoder.layers.10.norm1.norm.bias
2022-03-23 20:58:56,014 - speechbrain.utils.checkpoints - WARNING - During parameter transfer to ModuleList(
  (0): FullyConnectedAutoencoder(
    (encoder): Sequential(
      (0): Linear(in_features=80, out_features=60, bias=True)
      (1): ReLU()
      (2): Linear(in_features=60, out_features=40, bias=True)
      (3): ReLU()
      (4): Linear(in_features=40, out_features=20, bias=True)
    )
    (decoder): Sequential(
      (0): Linear(in_features=20, out_features=40, bias=True)
      (1): ReLU()
      (2): Linear(in_features=40, out_features=60, bias=True)
      (3): ReLU()
      (4): Linear(in_features=60, out_features=80, bias=True)
    )
    (sex_classifier): FullyConnSexClassifier(
      (fc1): Linear(in_features=40, out_features=20, bias=True)
      (fc2): Linear(in_features=20, out_features=2, bias=True)
    )
  )
) loading from model_checkpoints/asr_model.ckpt, the object could not use the parameters loaded with the key: 1.encoder.layers.10.norm2.norm.weight
2022-03-23 20:58:56,014 - speechbrain.utils.checkpoints - WARNING - During parameter transfer to ModuleList(
  (0): FullyConnectedAutoencoder(
    (encoder): Sequential(
      (0): Linear(in_features=80, out_features=60, bias=True)
      (1): ReLU()
      (2): Linear(in_features=60, out_features=40, bias=True)
      (3): ReLU()
      (4): Linear(in_features=40, out_features=20, bias=True)
    )
    (decoder): Sequential(
      (0): Linear(in_features=20, out_features=40, bias=True)
      (1): ReLU()
      (2): Linear(in_features=40, out_features=60, bias=True)
      (3): ReLU()
      (4): Linear(in_features=60, out_features=80, bias=True)
    )
    (sex_classifier): FullyConnSexClassifier(
      (fc1): Linear(in_features=40, out_features=20, bias=True)
      (fc2): Linear(in_features=20, out_features=2, bias=True)
    )
  )
) loading from model_checkpoints/asr_model.ckpt, the object could not use the parameters loaded with the key: 1.encoder.layers.10.norm2.norm.bias
2022-03-23 20:58:56,015 - speechbrain.utils.checkpoints - WARNING - During parameter transfer to ModuleList(
  (0): FullyConnectedAutoencoder(
    (encoder): Sequential(
      (0): Linear(in_features=80, out_features=60, bias=True)
      (1): ReLU()
      (2): Linear(in_features=60, out_features=40, bias=True)
      (3): ReLU()
      (4): Linear(in_features=40, out_features=20, bias=True)
    )
    (decoder): Sequential(
      (0): Linear(in_features=20, out_features=40, bias=True)
      (1): ReLU()
      (2): Linear(in_features=40, out_features=60, bias=True)
      (3): ReLU()
      (4): Linear(in_features=60, out_features=80, bias=True)
    )
    (sex_classifier): FullyConnSexClassifier(
      (fc1): Linear(in_features=40, out_features=20, bias=True)
      (fc2): Linear(in_features=20, out_features=2, bias=True)
    )
  )
) loading from model_checkpoints/asr_model.ckpt, the object could not use the parameters loaded with the key: 1.encoder.layers.11.self_att.att.in_proj_weight
2022-03-23 20:58:56,015 - speechbrain.utils.checkpoints - WARNING - During parameter transfer to ModuleList(
  (0): FullyConnectedAutoencoder(
    (encoder): Sequential(
      (0): Linear(in_features=80, out_features=60, bias=True)
      (1): ReLU()
      (2): Linear(in_features=60, out_features=40, bias=True)
      (3): ReLU()
      (4): Linear(in_features=40, out_features=20, bias=True)
    )
    (decoder): Sequential(
      (0): Linear(in_features=20, out_features=40, bias=True)
      (1): ReLU()
      (2): Linear(in_features=40, out_features=60, bias=True)
      (3): ReLU()
      (4): Linear(in_features=60, out_features=80, bias=True)
    )
    (sex_classifier): FullyConnSexClassifier(
      (fc1): Linear(in_features=40, out_features=20, bias=True)
      (fc2): Linear(in_features=20, out_features=2, bias=True)
    )
  )
) loading from model_checkpoints/asr_model.ckpt, the object could not use the parameters loaded with the key: 1.encoder.layers.11.self_att.att.in_proj_bias
2022-03-23 20:58:56,015 - speechbrain.utils.checkpoints - WARNING - During parameter transfer to ModuleList(
  (0): FullyConnectedAutoencoder(
    (encoder): Sequential(
      (0): Linear(in_features=80, out_features=60, bias=True)
      (1): ReLU()
      (2): Linear(in_features=60, out_features=40, bias=True)
      (3): ReLU()
      (4): Linear(in_features=40, out_features=20, bias=True)
    )
    (decoder): Sequential(
      (0): Linear(in_features=20, out_features=40, bias=True)
      (1): ReLU()
      (2): Linear(in_features=40, out_features=60, bias=True)
      (3): ReLU()
      (4): Linear(in_features=60, out_features=80, bias=True)
    )
    (sex_classifier): FullyConnSexClassifier(
      (fc1): Linear(in_features=40, out_features=20, bias=True)
      (fc2): Linear(in_features=20, out_features=2, bias=True)
    )
  )
…
      (4): Linear(in_features=40, out_features=20, bias=True)
    )
    (decoder): Sequential(
      (0): Linear(in_features=20, out_features=40, bias=True)
      (1): ReLU()
      (2): Linear(in_features=40, out_features=60, bias=True)
      (3): ReLU()
      (4): Linear(in_features=60, out_features=80, bias=True)
    )
    (sex_classifier): FullyConnSexClassifier(
      (fc1): Linear(in_features=40, out_features=20, bias=True)
      (fc2): Linear(in_features=20, out_features=2, bias=True)
    )
  )
) loading from model_checkpoints/asr_model.ckpt, the object could not use the parameters loaded with the key: 1.decoder.layers.4.pos_ffn.ffn.3.weight
2022-03-31 04:23:11,288 - speechbrain.utils.checkpoints - WARNING - During parameter transfer to ModuleList(
  (0): FullyConnectedAutoencoder(
    (encoder): Sequential(
      (0): Linear(in_features=80, out_features=60, bias=True)
      (1): ReLU()
      (2): Linear(in_features=60, out_features=40, bias=True)
      (3): ReLU()
      (4): Linear(in_features=40, out_features=20, bias=True)
    )
    (decoder): Sequential(
      (0): Linear(in_features=20, out_features=40, bias=True)
      (1): ReLU()
      (2): Linear(in_features=40, out_features=60, bias=True)
      (3): ReLU()
      (4): Linear(in_features=60, out_features=80, bias=True)
    )
    (sex_classifier): FullyConnSexClassifier(
      (fc1): Linear(in_features=40, out_features=20, bias=True)
      (fc2): Linear(in_features=20, out_features=2, bias=True)
    )
  )
) loading from model_checkpoints/asr_model.ckpt, the object could not use the parameters loaded with the key: 1.decoder.layers.4.pos_ffn.ffn.3.bias
2022-03-31 04:23:11,288 - speechbrain.utils.checkpoints - WARNING - During parameter transfer to ModuleList(
  (0): FullyConnectedAutoencoder(
    (encoder): Sequential(
      (0): Linear(in_features=80, out_features=60, bias=True)
      (1): ReLU()
      (2): Linear(in_features=60, out_features=40, bias=True)
      (3): ReLU()
      (4): Linear(in_features=40, out_features=20, bias=True)
    )
    (decoder): Sequential(
      (0): Linear(in_features=20, out_features=40, bias=True)
      (1): ReLU()
      (2): Linear(in_features=40, out_features=60, bias=True)
      (3): ReLU()
      (4): Linear(in_features=60, out_features=80, bias=True)
    )
    (sex_classifier): FullyConnSexClassifier(
      (fc1): Linear(in_features=40, out_features=20, bias=True)
      (fc2): Linear(in_features=20, out_features=2, bias=True)
    )
  )
) loading from model_checkpoints/asr_model.ckpt, the object could not use the parameters loaded with the key: 1.decoder.layers.4.norm1.norm.weight
2022-03-31 04:23:11,289 - speechbrain.utils.checkpoints - WARNING - During parameter transfer to ModuleList(
  (0): FullyConnectedAutoencoder(
    (encoder): Sequential(
      (0): Linear(in_features=80, out_features=60, bias=True)
      (1): ReLU()
      (2): Linear(in_features=60, out_features=40, bias=True)
      (3): ReLU()
      (4): Linear(in_features=40, out_features=20, bias=True)
    )
    (decoder): Sequential(
      (0): Linear(in_features=20, out_features=40, bias=True)
      (1): ReLU()
      (2): Linear(in_features=40, out_features=60, bias=True)
      (3): ReLU()
      (4): Linear(in_features=60, out_features=80, bias=True)
    )
    (sex_classifier): FullyConnSexClassifier(
      (fc1): Linear(in_features=40, out_features=20, bias=True)
      (fc2): Linear(in_features=20, out_features=2, bias=True)
    )
  )
) loading from model_checkpoints/asr_model.ckpt, the object could not use the parameters loaded with the key: 1.decoder.layers.4.norm1.norm.bias
2022-03-31 04:23:11,289 - speechbrain.utils.checkpoints - WARNING - During parameter transfer to ModuleList(
  (0): FullyConnectedAutoencoder(
    (encoder): Sequential(
      (0): Linear(in_features=80, out_features=60, bias=True)
      (1): ReLU()
      (2): Linear(in_features=60, out_features=40, bias=True)
      (3): ReLU()
      (4): Linear(in_features=40, out_features=20, bias=True)
    )
    (decoder): Sequential(
      (0): Linear(in_features=20, out_features=40, bias=True)
      (1): ReLU()
      (2): Linear(in_features=40, out_features=60, bias=True)
      (3): ReLU()
      (4): Linear(in_features=60, out_features=80, bias=True)
    )
    (sex_classifier): FullyConnSexClassifier(
      (fc1): Linear(in_features=40, out_features=20, bias=True)
      (fc2): Linear(in_features=20, out_features=2, bias=True)
    )
  )
) loading from model_checkpoints/asr_model.ckpt, the object could not use the parameters loaded with the key: 1.decoder.layers.4.norm2.norm.weight
2022-03-31 04:23:11,289 - speechbrain.utils.checkpoints - WARNING - During parameter transfer to ModuleList(
  (0): FullyConnectedAutoencoder(
    (encoder): Sequential(
      (0): Linear(in_features=80, out_features=60, bias=True)
      (1): ReLU()
      (2): Linear(in_features=60, out_features=40, bias=True)
      (3): ReLU()
      (4): Linear(in_features=40, out_features=20, bias=True)
    )
    (decoder): Sequential(
      (0): Linear(in_features=20, out_features=40, bias=True)
      (1): ReLU()
      (2): Linear(in_features=40, out_features=60, bias=True)
      (3): ReLU()
      (4): Linear(in_features=60, out_features=80, bias=True)
    )
    (sex_classifier): FullyConnSexClassifier(
      (fc1): Linear(in_features=40, out_features=20, bias=True)
      (fc2): Linear(in_features=20, out_features=2, bias=True)
    )
  )
) loading from model_checkpoints/asr_model.ckpt, the object could not use the parameters loaded with the key: 1.decoder.layers.4.norm2.norm.bias
2022-03-31 04:23:11,289 - speechbrain.utils.checkpoints - WARNING - During parameter transfer to ModuleList(
  (0): FullyConnectedAutoencoder(
    (encoder): Sequential(
      (0): Linear(in_features=80, out_features=60, bias=True)
      (1): ReLU()
      (2): Linear(in_features=60, out_features=40, bias=True)
      (3): ReLU()
      (4): Linear(in_features=40, out_features=20, bias=True)
    )
    (decoder): Sequential(
      (0): Linear(in_features=20, out_features=40, bias=True)
      (1): ReLU()
      (2): Linear(in_features=40, out_features=60, bias=True)
      (3): ReLU()
      (4): Linear(in_features=60, out_features=80, bias=True)
    )
    (sex_classifier): FullyConnSexClassifier(
      (fc1): Linear(in_features=40, out_features=20, bias=True)
      (fc2): Linear(in_features=20, out_features=2, bias=True)
    )
  )
) loading from model_checkpoints/asr_model.ckpt, the object could not use the parameters loaded with the key: 1.decoder.layers.4.norm3.norm.weight
2022-03-31 04:23:11,289 - speechbrain.utils.checkpoints - WARNING - During parameter transfer to ModuleList(
  (0): FullyConnectedAutoencoder(
    (encoder): Sequential(
      (0): Linear(in_features=80, out_features=60, bias=True)
      (1): ReLU()
      (2): Linear(in_features=60, out_features=40, bias=True)
      (3): ReLU()
      (4): Linear(in_features=40, out_features=20, bias=True)
    )
    (decoder): Sequential(
      (0): Linear(in_features=20, out_features=40, bias=True)
      (1): ReLU()
      (2): Linear(in_features=40, out_features=60, bias=True)
      (3): ReLU()
      (4): Linear(in_features=60, out_features=80, bias=True)
    )
    (sex_classifier): FullyConnSexClassifier(
      (fc1): Linear(in_features=40, out_features=20, bias=True)
      (fc2): Linear(in_features=20, out_features=2, bias=True)
    )
  )
) loading from model_checkpoints/asr_model.ckpt, the object could not use the parameters loaded with the key: 1.decoder.layers.4.norm3.norm.bias
2022-03-31 04:23:11,289 - speechbrain.utils.checkpoints - WARNING - During parameter transfer to ModuleList(
  (0): FullyConnectedAutoencoder(
    (encoder): Sequential(
      (0): Linear(in_features=80, out_features=60, bias=True)
      (1): ReLU()
      (2): Linear(in_features=60, out_features=40, bias=True)
      (3): ReLU()
      (4): Linear(in_features=40, out_features=20, bias=True)
    )
    (decoder): Sequential(
      (0): Linear(in_features=20, out_features=40, bias=True)
      (1): ReLU()
      (2): Linear(in_features=40, out_features=60, bias=True)
      (3): ReLU()
      (4): Linear(in_features=60, out_features=80, bias=True)
    )
    (sex_classifier): FullyConnSexClassifier(
      (fc1): Linear(in_features=40, out_features=20, bias=True)
      (fc2): Linear(in_features=20, out_features=2, bias=True)
    )
  )
) loading from model_checkpoints/asr_model.ckpt, the object could not use the parameters loaded with the key: 1.decoder.layers.5.self_attn.att.in_proj_weight
2022-03-31 04:23:11,289 - speechbrain.utils.checkpoints - WARNING - During parameter transfer to ModuleList(
  (0): FullyConnectedAutoencoder(
    (encoder): Sequential(
      (0): Linear(in_features=80, out_features=60, bias=True)
      (1): ReLU()
      (2): Linear(in_features=60, out_features=40, bias=True)
      (3): ReLU()
      (4): Linear(in_features=40, out_features=20, bias=True)
    )
    (decoder): Sequential(
      (0): Linear(in_features=20, out_features=40, bias=True)
      (1): ReLU()
      (2): Linear(in_features=40, out_features=60, bias=True)
      (3): ReLU()
      (4): Linear(in_features=60, out_features=80, bias=True)
    )
    (sex_classifier): FullyConnSexClassifier(
      (fc1): Linear(in_features=40, out_features=20, bias=True)
      (fc2): Linear(in_features=20, out_features=2, bias=True)
    )
  )
) loading from model_checkpoints/asr_model.ckpt, the object could not use the parameters loaded with the key: 1.decoder.layers.5.self_attn.att.in_proj_bias
2022-03-31 04:23:11,290 - speechbrain.utils.checkpoints - WARNING - During parameter transfer to ModuleList(
  (0): FullyConnectedAutoencoder(
    (encoder): Sequential(
      (0): Linear(in_features=80, out_features=60, bias=True)
      (1): ReLU()
      (2): Linear(in_features=60, out_features=40, bias=True)
      (3): ReLU()
      (4): Linear(in_features=40, out_features=20, bias=True)
    )
    (decoder): Sequential(
      (0): Linear(in_features=20, out_features=40, bias=True)
      (1): ReLU()
      (2): Linear(in_features=40, out_features=60, bias=True)
      (3): ReLU()
      (4): Linear(in_features=60, out_features=80, bias=True)
    )
    (sex_classifier): FullyConnSexClassifier(
      (fc1): Linear(in_features=40, out_features=20, bias=True)
      (fc2): Linear(in_features=20, out_features=2, bias=True)
    )
  )
) loading from model_checkpoints/asr_model.ckpt, the object could not use the parameters loaded with the key: 1.decoder.layers.5.self_attn.att.out_proj.weight
2022-03-31 04:23:11,290 - speechbrain.utils.checkpoints - WARNING - During parameter transfer to ModuleList(
  (0): FullyConnectedAutoencoder(
    (encoder): Sequential(
      (0): Linear(in_features=80, out_features=60, bias=True)
      (1): ReLU()
      (2): Linear(in_features=60, out_features=40, bias=True)
      (3): ReLU()
      (4): Linear(in_features=40, out_features=20, bias=True)
    )
    (decoder): Sequential(
      (0): Linear(in_features=20, out_features=40, bias=True)
      (1): ReLU()
      (2): Linear(in_features=40, out_features=60, bias=True)
      (3): ReLU()
      (4): Linear(in_features=60, out_features=80, bias=True)
    )
    (sex_classifier): FullyConnSexClassifier(
      (fc1): Linear(in_features=40, out_features=20, bias=True)
      (fc2): Linear(in_features=20, out_features=2, bias=True)
    )
  )
) loading from model_checkpoints/asr_model.ckpt, the object could not use the parameters loaded with the key: 1.decoder.layers.5.self_attn.att.out_proj.bias
2022-03-31 04:23:11,290 - speechbrain.utils.checkpoints - WARNING - During parameter transfer to ModuleList(
  (0): FullyConnectedAutoencoder(
    (encoder): Sequential(
      (0): Linear(in_features=80, out_features=60, bias=True)
      (1): ReLU()
      (2): Linear(in_features=60, out_features=40, bias=True)
      (3): ReLU()
      (4): Linear(in_features=40, out_features=20, bias=True)
    )
    (decoder): Sequential(
      (0): Linear(in_features=20, out_features=40, bias=True)
      (1): ReLU()
      (2): Linear(in_features=40, out_features=60, bias=True)
      (3): ReLU()
      (4): Linear(in_features=60, out_features=80, bias=True)
    )
    (sex_classifier): FullyConnSexClassifier(
      (fc1): Linear(in_features=40, out_features=20, bias=True)
      (fc2): Linear(in_features=20, out_features=2, bias=True)
    )
  )
) loading from model_checkpoints/asr_model.ckpt, the object could not use the parameters loaded with the key: 1.decoder.layers.5.mutihead_attn.att.in_proj_weight
2022-03-31 04:23:11,290 - speechbrain.utils.checkpoints - WARNING - During parameter transfer to ModuleList(
  (0): FullyConnectedAutoencoder(
    (encoder): Sequential(
      (0): Linear(in_features=80, out_features=60, bias=True)
      (1): ReLU()
      (2): Linear(in_features=60, out_features=40, bias=True)
      (3): ReLU()
      (4): Linear(in_features=40, out_features=20, bias=True)
    )
    (decoder): Sequential(
      (0): Linear(in_features=20, out_features=40, bias=True)
      (1): ReLU()
      (2): Linear(in_features=40, out_features=60, bias=True)
      (3): ReLU()
      (4): Linear(in_features=60, out_features=80, bias=True)
    )
    (sex_classifier): FullyConnSexClassifier(
      (fc1): Linear(in_features=40, out_features=20, bias=True)
      (fc2): Linear(in_features=20, out_features=2, bias=True)
    )
  )
) loading from model_checkpoints/asr_model.ckpt, the object could not use the parameters loaded with the key: 1.decoder.layers.5.mutihead_attn.att.in_proj_bias
2022-03-31 04:23:11,290 - speechbrain.utils.checkpoints - WARNING - During parameter transfer to ModuleList(
  (0): FullyConnectedAutoencoder(
    (encoder): Sequential(
      (0): Linear(in_features=80, out_features=60, bias=True)
      (1): ReLU()
      (2): Linear(in_features=60, out_features=40, bias=True)
      (3): ReLU()
      (4): Linear(in_features=40, out_features=20, bias=True)
    )
    (decoder): Sequential(
      (0): Linear(in_features=20, out_features=40, bias=True)
      (1): ReLU()
      (2): Linear(in_features=40, out_features=60, bias=True)
      (3): ReLU()
      (4): Linear(in_features=60, out_features=80, bias=True)
    )
    (sex_classifier): FullyConnSexClassifier(
      (fc1): Linear(in_features=40, out_features=20, bias=True)
      (fc2): Linear(in_features=20, out_features=2, bias=True)
    )
  )
) loading from model_checkpoints/asr_model.ckpt, the object could not use the parameters loaded with the key: 1.decoder.layers.5.mutihead_attn.att.out_proj.weight
2022-03-31 04:23:11,290 - speechbrain.utils.checkpoints - WARNING - During parameter transfer to ModuleList(
  (0): FullyConnectedAutoencoder(
    (encoder): Sequential(
      (0): Linear(in_features=80, out_features=60, bias=True)
      (1): ReLU()
      (2): Linear(in_features=60, out_features=40, bias=True)
      (3): ReLU()
      (4): Linear(in_features=40, out_features=20, bias=True)
    )
    (decoder): Sequential(
      (0): Linear(in_features=20, out_features=40, bias=True)
      (1): ReLU()
      (2): Linear(in_features=40, out_features=60, bias=True)
      (3): ReLU()
      (4): Linear(in_features=60, out_features=80, bias=True)
    )
    (sex_classifier): FullyConnSexClassifier(
      (fc1): Linear(in_features=40, out_features=20, bias=True)
      (fc2): Linear(in_features=20, out_features=2, bias=True)
    )
  )
) loading from model_checkpoints/asr_model.ckpt, the object could not use the parameters loaded with the key: 1.decoder.layers.5.mutihead_attn.att.out_proj.bias
2022-03-31 04:23:11,290 - speechbrain.utils.checkpoints - WARNING - During parameter transfer to ModuleList(
  (0): FullyConnectedAutoencoder(
    (encoder): Sequential(
      (0): Linear(in_features=80, out_features=60, bias=True)
      (1): ReLU()
      (2): Linear(in_features=60, out_features=40, bias=True)
      (3): ReLU()
      (4): Linear(in_features=40, out_features=20, bias=True)
    )
    (decoder): Sequential(
      (0): Linear(in_features=20, out_features=40, bias=True)
      (1): ReLU()
      (2): Linear(in_features=40, out_features=60, bias=True)
      (3): ReLU()
      (4): Linear(in_features=60, out_features=80, bias=True)
    )
    (sex_classifier): FullyConnSexClassifier(
      (fc1): Linear(in_features=40, out_features=20, bias=True)
      (fc2): Linear(in_features=20, out_features=2, bias=True)
    )
  )
) loading from model_checkpoints/asr_model.ckpt, the object could not use the parameters loaded with the key: 1.decoder.layers.5.pos_ffn.ffn.0.weight
2022-03-31 04:23:11,290 - speechbrain.utils.checkpoints - WARNING - During parameter transfer to ModuleList(
  (0): FullyConnectedAutoencoder(
    (encoder): Sequential(
      (0): Linear(in_features=80, out_features=60, bias=True)
      (1): ReLU()
      (2): Linear(in_features=60, out_features=40, bias=True)
      (3): ReLU()
      (4): Linear(in_features=40, out_features=20, bias=True)
    )
    (decoder): Sequential(
      (0): Linear(in_features=20, out_features=40, bias=True)
      (1): ReLU()
      (2): Linear(in_features=40, out_features=60, bias=True)
      (3): ReLU()
      (4): Linear(in_features=60, out_features=80, bias=True)
    )
    (sex_classifier): FullyConnSexClassifier(
      (fc1): Linear(in_features=40, out_features=20, bias=True)
      (fc2): Linear(in_features=20, out_features=2, bias=True)
    )
  )
) loading from model_checkpoints/asr_model.ckpt, the object could not use the parameters loaded with the key: 1.decoder.layers.5.pos_ffn.ffn.0.bias
2022-03-31 04:23:11,291 - speechbrain.utils.checkpoints - WARNING - During parameter transfer to ModuleList(
  (0): FullyConnectedAutoencoder(
    (encoder): Sequential(
      (0): Linear(in_features=80, out_features=60, bias=True)
      (1): ReLU()
      (2): Linear(in_features=60, out_features=40, bias=True)
      (3): ReLU()
      (4): Linear(in_features=40, out_features=20, bias=True)
    )
    (decoder): Sequential(
      (0): Linear(in_features=20, out_features=40, bias=True)
      (1): ReLU()
      (2): Linear(in_features=40, out_features=60, bias=True)
      (3): ReLU()
      (4): Linear(in_features=60, out_features=80, bias=True)
    )
    (sex_classifier): FullyConnSexClassifier(
      (fc1): Linear(in_features=40, out_features=20, bias=True)
      (fc2): Linear(in_features=20, out_features=2, bias=True)
    )
  )
) loading from model_checkpoints/asr_model.ckpt, the object could not use the parameters loaded with the key: 1.decoder.layers.5.pos_ffn.ffn.3.weight
2022-03-31 04:23:11,291 - speechbrain.utils.checkpoints - WARNING - During parameter transfer to ModuleList(
  (0): FullyConnectedAutoencoder(
    (encoder): Sequential(
      (0): Linear(in_features=80, out_features=60, bias=True)
      (1): ReLU()
      (2): Linear(in_features=60, out_features=40, bias=True)
      (3): ReLU()
      (4): Linear(in_features=40, out_features=20, bias=True)
    )
    (decoder): Sequential(
      (0): Linear(in_features=20, out_features=40, bias=True)
      (1): ReLU()
      (2): Linear(in_features=40, out_features=60, bias=True)
      (3): ReLU()
      (4): Linear(in_features=60, out_features=80, bias=True)
    )
    (sex_classifier): FullyConnSexClassifier(
      (fc1): Linear(in_features=40, out_features=20, bias=True)
      (fc2): Linear(in_features=20, out_features=2, bias=True)
    )
  )
) loading from model_checkpoints/asr_model.ckpt, the object could not use the parameters loaded with the key: 1.decoder.layers.5.pos_ffn.ffn.3.bias
2022-03-31 04:23:11,291 - speechbrain.utils.checkpoints - WARNING - During parameter transfer to ModuleList(
  (0): FullyConnectedAutoencoder(
    (encoder): Sequential(
      (0): Linear(in_features=80, out_features=60, bias=True)
      (1): ReLU()
      (2): Linear(in_features=60, out_features=40, bias=True)
      (3): ReLU()
      (4): Linear(in_features=40, out_features=20, bias=True)
    )
    (decoder): Sequential(
      (0): Linear(in_features=20, out_features=40, bias=True)
      (1): ReLU()
      (2): Linear(in_features=40, out_features=60, bias=True)
      (3): ReLU()
      (4): Linear(in_features=60, out_features=80, bias=True)
    )
    (sex_classifier): FullyConnSexClassifier(
      (fc1): Linear(in_features=40, out_features=20, bias=True)
      (fc2): Linear(in_features=20, out_features=2, bias=True)
    )
  )
) loading from model_checkpoints/asr_model.ckpt, the object could not use the parameters loaded with the key: 1.decoder.layers.5.norm1.norm.weight
2022-03-31 04:23:11,291 - speechbrain.utils.checkpoints - WARNING - During parameter transfer to ModuleList(
  (0): FullyConnectedAutoencoder(
    (encoder): Sequential(
      (0): Linear(in_features=80, out_features=60, bias=True)
      (1): ReLU()
      (2): Linear(in_features=60, out_features=40, bias=True)
      (3): ReLU()
      (4): Linear(in_features=40, out_features=20, bias=True)
    )
    (decoder): Sequential(
      (0): Linear(in_features=20, out_features=40, bias=True)
      (1): ReLU()
      (2): Linear(in_features=40, out_features=60, bias=True)
      (3): ReLU()
      (4): Linear(in_features=60, out_features=80, bias=True)
    )
    (sex_classifier): FullyConnSexClassifier(
      (fc1): Linear(in_features=40, out_features=20, bias=True)
      (fc2): Linear(in_features=20, out_features=2, bias=True)
    )
  )
) loading from model_checkpoints/asr_model.ckpt, the object could not use the parameters loaded with the key: 1.decoder.layers.5.norm1.norm.bias
2022-03-31 04:23:11,291 - speechbrain.utils.checkpoints - WARNING - During parameter transfer to ModuleList(
  (0): FullyConnectedAutoencoder(
    (encoder): Sequential(
      (0): Linear(in_features=80, out_features=60, bias=True)
      (1): ReLU()
      (2): Linear(in_features=60, out_features=40, bias=True)
      (3): ReLU()
      (4): Linear(in_features=40, out_features=20, bias=True)
    )
    (decoder): Sequential(
      (0): Linear(in_features=20, out_features=40, bias=True)
      (1): ReLU()
      (2): Linear(in_features=40, out_features=60, bias=True)
      (3): ReLU()
      (4): Linear(in_features=60, out_features=80, bias=True)
    )
    (sex_classifier): FullyConnSexClassifier(
      (fc1): Linear(in_features=40, out_features=20, bias=True)
      (fc2): Linear(in_features=20, out_features=2, bias=True)
    )
  )
) loading from model_checkpoints/asr_model.ckpt, the object could not use the parameters loaded with the key: 1.decoder.layers.5.norm2.norm.weight
2022-03-31 04:23:11,291 - speechbrain.utils.checkpoints - WARNING - During parameter transfer to ModuleList(
  (0): FullyConnectedAutoencoder(
    (encoder): Sequential(
      (0): Linear(in_features=80, out_features=60, bias=True)
      (1): ReLU()
      (2): Linear(in_features=60, out_features=40, bias=True)
      (3): ReLU()
      (4): Linear(in_features=40, out_features=20, bias=True)
    )
    (decoder): Sequential(
      (0): Linear(in_features=20, out_features=40, bias=True)
      (1): ReLU()
      (2): Linear(in_features=40, out_features=60, bias=True)
      (3): ReLU()
      (4): Linear(in_features=60, out_features=80, bias=True)
    )
    (sex_classifier): FullyConnSexClassifier(
      (fc1): Linear(in_features=40, out_features=20, bias=True)
      (fc2): Linear(in_features=20, out_features=2, bias=True)
    )
  )
) loading from model_checkpoints/asr_model.ckpt, the object could not use the parameters loaded with the key: 1.decoder.layers.5.norm2.norm.bias
2022-03-31 04:23:11,291 - speechbrain.utils.checkpoints - WARNING - During parameter transfer to ModuleList(
  (0): FullyConnectedAutoencoder(
    (encoder): Sequential(
      (0): Linear(in_features=80, out_features=60, bias=True)
      (1): ReLU()
      (2): Linear(in_features=60, out_features=40, bias=True)
      (3): ReLU()
      (4): Linear(in_features=40, out_features=20, bias=True)
    )
    (decoder): Sequential(
      (0): Linear(in_features=20, out_features=40, bias=True)
      (1): ReLU()
      (2): Linear(in_features=40, out_features=60, bias=True)
      (3): ReLU()
      (4): Linear(in_features=60, out_features=80, bias=True)
    )
    (sex_classifier): FullyConnSexClassifier(
      (fc1): Linear(in_features=40, out_features=20, bias=True)
      (fc2): Linear(in_features=20, out_features=2, bias=True)
    )
  )
) loading from model_checkpoints/asr_model.ckpt, the object could not use the parameters loaded with the key: 1.decoder.layers.5.norm3.norm.weight
2022-03-31 04:23:11,292 - speechbrain.utils.checkpoints - WARNING - During parameter transfer to ModuleList(
  (0): FullyConnectedAutoencoder(
    (encoder): Sequential(
      (0): Linear(in_features=80, out_features=60, bias=True)
      (1): ReLU()
      (2): Linear(in_features=60, out_features=40, bias=True)
      (3): ReLU()
      (4): Linear(in_features=40, out_features=20, bias=True)
    )
    (decoder): Sequential(
      (0): Linear(in_features=20, out_features=40, bias=True)
      (1): ReLU()
      (2): Linear(in_features=40, out_features=60, bias=True)
      (3): ReLU()
      (4): Linear(in_features=60, out_features=80, bias=True)
    )
    (sex_classifier): FullyConnSexClassifier(
      (fc1): Linear(in_features=40, out_features=20, bias=True)
      (fc2): Linear(in_features=20, out_features=2, bias=True)
    )
  )
) loading from model_checkpoints/asr_model.ckpt, the object could not use the parameters loaded with the key: 1.decoder.layers.5.norm3.norm.bias
2022-03-31 04:23:11,292 - speechbrain.utils.checkpoints - WARNING - During parameter transfer to ModuleList(
  (0): FullyConnectedAutoencoder(
    (encoder): Sequential(
      (0): Linear(in_features=80, out_features=60, bias=True)
      (1): ReLU()
      (2): Linear(in_features=60, out_features=40, bias=True)
      (3): ReLU()
      (4): Linear(in_features=40, out_features=20, bias=True)
    )
    (decoder): Sequential(
      (0): Linear(in_features=20, out_features=40, bias=True)
      (1): ReLU()
      (2): Linear(in_features=40, out_features=60, bias=True)
      (3): ReLU()
      (4): Linear(in_features=60, out_features=80, bias=True)
    )
    (sex_classifier): FullyConnSexClassifier(
      (fc1): Linear(in_features=40, out_features=20, bias=True)
      (fc2): Linear(in_features=20, out_features=2, bias=True)
    )
  )
) loading from model_checkpoints/asr_model.ckpt, the object could not use the parameters loaded with the key: 1.decoder.norm.norm.weight
2022-03-31 04:23:11,292 - speechbrain.utils.checkpoints - WARNING - During parameter transfer to ModuleList(
  (0): FullyConnectedAutoencoder(
    (encoder): Sequential(
      (0): Linear(in_features=80, out_features=60, bias=True)
      (1): ReLU()
      (2): Linear(in_features=60, out_features=40, bias=True)
      (3): ReLU()
      (4): Linear(in_features=40, out_features=20, bias=True)
    )
    (decoder): Sequential(
      (0): Linear(in_features=20, out_features=40, bias=True)
      (1): ReLU()
      (2): Linear(in_features=40, out_features=60, bias=True)
      (3): ReLU()
      (4): Linear(in_features=60, out_features=80, bias=True)
    )
    (sex_classifier): FullyConnSexClassifier(
      (fc1): Linear(in_features=40, out_features=20, bias=True)
      (fc2): Linear(in_features=20, out_features=2, bias=True)
    )
  )
) loading from model_checkpoints/asr_model.ckpt, the object could not use the parameters loaded with the key: 1.decoder.norm.norm.bias
2022-03-31 04:23:11,292 - speechbrain.utils.checkpoints - WARNING - During parameter transfer to ModuleList(
  (0): FullyConnectedAutoencoder(
    (encoder): Sequential(
      (0): Linear(in_features=80, out_features=60, bias=True)
      (1): ReLU()
      (2): Linear(in_features=60, out_features=40, bias=True)
      (3): ReLU()
      (4): Linear(in_features=40, out_features=20, bias=True)
    )
    (decoder): Sequential(
      (0): Linear(in_features=20, out_features=40, bias=True)
      (1): ReLU()
      (2): Linear(in_features=40, out_features=60, bias=True)
      (3): ReLU()
      (4): Linear(in_features=60, out_features=80, bias=True)
    )
    (sex_classifier): FullyConnSexClassifier(
      (fc1): Linear(in_features=40, out_features=20, bias=True)
      (fc2): Linear(in_features=20, out_features=2, bias=True)
    )
  )
) loading from model_checkpoints/asr_model.ckpt, the object could not use the parameters loaded with the key: 1.custom_src_module.layers.0.w.weight
2022-03-31 04:23:11,292 - speechbrain.utils.checkpoints - WARNING - During parameter transfer to ModuleList(
  (0): FullyConnectedAutoencoder(
    (encoder): Sequential(
      (0): Linear(in_features=80, out_features=60, bias=True)
      (1): ReLU()
      (2): Linear(in_features=60, out_features=40, bias=True)
      (3): ReLU()
      (4): Linear(in_features=40, out_features=20, bias=True)
    )
    (decoder): Sequential(
      (0): Linear(in_features=20, out_features=40, bias=True)
      (1): ReLU()
      (2): Linear(in_features=40, out_features=60, bias=True)
      (3): ReLU()
      (4): Linear(in_features=60, out_features=80, bias=True)
    )
    (sex_classifier): FullyConnSexClassifier(
      (fc1): Linear(in_features=40, out_features=20, bias=True)
      (fc2): Linear(in_features=20, out_features=2, bias=True)
    )
  )
) loading from model_checkpoints/asr_model.ckpt, the object could not use the parameters loaded with the key: 1.custom_src_module.layers.0.w.bias
2022-03-31 04:23:11,292 - speechbrain.utils.checkpoints - WARNING - During parameter transfer to ModuleList(
  (0): FullyConnectedAutoencoder(
    (encoder): Sequential(
      (0): Linear(in_features=80, out_features=60, bias=True)
      (1): ReLU()
      (2): Linear(in_features=60, out_features=40, bias=True)
      (3): ReLU()
      (4): Linear(in_features=40, out_features=20, bias=True)
    )
    (decoder): Sequential(
      (0): Linear(in_features=20, out_features=40, bias=True)
      (1): ReLU()
      (2): Linear(in_features=40, out_features=60, bias=True)
      (3): ReLU()
      (4): Linear(in_features=60, out_features=80, bias=True)
    )
    (sex_classifier): FullyConnSexClassifier(
      (fc1): Linear(in_features=40, out_features=20, bias=True)
      (fc2): Linear(in_features=20, out_features=2, bias=True)
    )
  )
) loading from model_checkpoints/asr_model.ckpt, the object could not use the parameters loaded with the key: 1.custom_tgt_module.layers.0.emb.Embedding.weight
2022-03-31 04:23:11,292 - speechbrain.utils.checkpoints - WARNING - During parameter transfer to ModuleList(
  (0): FullyConnectedAutoencoder(
    (encoder): Sequential(
      (0): Linear(in_features=80, out_features=60, bias=True)
      (1): ReLU()
      (2): Linear(in_features=60, out_features=40, bias=True)
      (3): ReLU()
      (4): Linear(in_features=40, out_features=20, bias=True)
    )
    (decoder): Sequential(
      (0): Linear(in_features=20, out_features=40, bias=True)
      (1): ReLU()
      (2): Linear(in_features=40, out_features=60, bias=True)
      (3): ReLU()
      (4): Linear(in_features=60, out_features=80, bias=True)
    )
    (sex_classifier): FullyConnSexClassifier(
      (fc1): Linear(in_features=40, out_features=20, bias=True)
      (fc2): Linear(in_features=20, out_features=2, bias=True)
    )
  )
) loading from model_checkpoints/asr_model.ckpt, the object could not use the parameters loaded with the key: 2.w.weight
2022-03-31 04:23:11,292 - speechbrain.utils.checkpoints - WARNING - During parameter transfer to ModuleList(
  (0): FullyConnectedAutoencoder(
    (encoder): Sequential(
      (0): Linear(in_features=80, out_features=60, bias=True)
      (1): ReLU()
      (2): Linear(in_features=60, out_features=40, bias=True)
      (3): ReLU()
      (4): Linear(in_features=40, out_features=20, bias=True)
    )
    (decoder): Sequential(
      (0): Linear(in_features=20, out_features=40, bias=True)
      (1): ReLU()
      (2): Linear(in_features=40, out_features=60, bias=True)
      (3): ReLU()
      (4): Linear(in_features=60, out_features=80, bias=True)
    )
    (sex_classifier): FullyConnSexClassifier(
      (fc1): Linear(in_features=40, out_features=20, bias=True)
      (fc2): Linear(in_features=20, out_features=2, bias=True)
    )
  )
) loading from model_checkpoints/asr_model.ckpt, the object could not use the parameters loaded with the key: 2.w.bias
2022-03-31 04:23:11,293 - speechbrain.utils.checkpoints - WARNING - During parameter transfer to ModuleList(
  (0): FullyConnectedAutoencoder(
    (encoder): Sequential(
      (0): Linear(in_features=80, out_features=60, bias=True)
      (1): ReLU()
      (2): Linear(in_features=60, out_features=40, bias=True)
      (3): ReLU()
      (4): Linear(in_features=40, out_features=20, bias=True)
    )
    (decoder): Sequential(
      (0): Linear(in_features=20, out_features=40, bias=True)
      (1): ReLU()
      (2): Linear(in_features=40, out_features=60, bias=True)
      (3): ReLU()
      (4): Linear(in_features=60, out_features=80, bias=True)
    )
    (sex_classifier): FullyConnSexClassifier(
      (fc1): Linear(in_features=40, out_features=20, bias=True)
      (fc2): Linear(in_features=20, out_features=2, bias=True)
    )
  )
) loading from model_checkpoints/asr_model.ckpt, the object could not use the parameters loaded with the key: 3.w.weight
2022-03-31 04:23:11,293 - speechbrain.utils.checkpoints - WARNING - During parameter transfer to ModuleList(
  (0): FullyConnectedAutoencoder(
    (encoder): Sequential(
      (0): Linear(in_features=80, out_features=60, bias=True)
      (1): ReLU()
      (2): Linear(in_features=60, out_features=40, bias=True)
      (3): ReLU()
      (4): Linear(in_features=40, out_features=20, bias=True)
    )
    (decoder): Sequential(
      (0): Linear(in_features=20, out_features=40, bias=True)
      (1): ReLU()
      (2): Linear(in_features=40, out_features=60, bias=True)
      (3): ReLU()
      (4): Linear(in_features=60, out_features=80, bias=True)
    )
    (sex_classifier): FullyConnSexClassifier(
      (fc1): Linear(in_features=40, out_features=20, bias=True)
      (fc2): Linear(in_features=20, out_features=2, bias=True)
    )
  )
) loading from model_checkpoints/asr_model.ckpt, the object could not use the parameters loaded with the key: 3.w.bias
2022-03-31 04:23:11,293 - speechbrain.utils.checkpoints - WARNING - During parameter transfer to ModuleList(
  (0): FullyConnectedAutoencoder(
    (encoder): Sequential(
      (0): Linear(in_features=80, out_features=60, bias=True)
      (1): ReLU()
      (2): Linear(in_features=60, out_features=40, bias=True)
      (3): ReLU()
      (4): Linear(in_features=40, out_features=20, bias=True)
    )
    (decoder): Sequential(
      (0): Linear(in_features=20, out_features=40, bias=True)
      (1): ReLU()
      (2): Linear(in_features=40, out_features=60, bias=True)
      (3): ReLU()
      (4): Linear(in_features=60, out_features=80, bias=True)
    )
    (sex_classifier): FullyConnSexClassifier(
      (fc1): Linear(in_features=40, out_features=20, bias=True)
      (fc2): Linear(in_features=20, out_features=2, bias=True)
    )
  )
) loading from model_checkpoints/asr_model.ckpt, the object could not use the parameters loaded with the key: 0.convblock_0.convs.conv_0.conv.weight
2022-03-31 04:23:11,293 - speechbrain.utils.checkpoints - WARNING - During parameter transfer to ModuleList(
  (0): FullyConnectedAutoencoder(
    (encoder): Sequential(
      (0): Linear(in_features=80, out_features=60, bias=True)
      (1): ReLU()
      (2): Linear(in_features=60, out_features=40, bias=True)
      (3): ReLU()
      (4): Linear(in_features=40, out_features=20, bias=True)
    )
    (decoder): Sequential(
      (0): Linear(in_features=20, out_features=40, bias=True)
      (1): ReLU()
      (2): Linear(in_features=40, out_features=60, bias=True)
      (3): ReLU()
      (4): Linear(in_features=60, out_features=80, bias=True)
    )
    (sex_classifier): FullyConnSexClassifier(
      (fc1): Linear(in_features=40, out_features=20, bias=True)
      (fc2): Linear(in_features=20, out_features=2, bias=True)
    )
  )
) loading from model_checkpoints/asr_model.ckpt, the object could not use the parameters loaded with the key: 0.convblock_0.convs.conv_0.conv.bias
2022-03-31 04:23:11,293 - speechbrain.utils.checkpoints - WARNING - During parameter transfer to ModuleList(
  (0): FullyConnectedAutoencoder(
    (encoder): Sequential(
      (0): Linear(in_features=80, out_features=60, bias=True)
      (1): ReLU()
      (2): Linear(in_features=60, out_features=40, bias=True)
      (3): ReLU()
      (4): Linear(in_features=40, out_features=20, bias=True)
    )
    (decoder): Sequential(
      (0): Linear(in_features=20, out_features=40, bias=True)
      (1): ReLU()
      (2): Linear(in_features=40, out_features=60, bias=True)
      (3): ReLU()
      (4): Linear(in_features=60, out_features=80, bias=True)
    )
    (sex_classifier): FullyConnSexClassifier(
      (fc1): Linear(in_features=40, out_features=20, bias=True)
      (fc2): Linear(in_features=20, out_features=2, bias=True)
    )
  )
) loading from model_checkpoints/asr_model.ckpt, the object could not use the parameters loaded with the key: 0.convblock_0.convs.norm_0.norm.weight
2022-03-31 04:23:11,293 - speechbrain.utils.checkpoints - WARNING - During parameter transfer to ModuleList(
  (0): FullyConnectedAutoencoder(
    (encoder): Sequential(
      (0): Linear(in_features=80, out_features=60, bias=True)
      (1): ReLU()
      (2): Linear(in_features=60, out_features=40, bias=True)
      (3): ReLU()
      (4): Linear(in_features=40, out_features=20, bias=True)
    )
    (decoder): Sequential(
      (0): Linear(in_features=20, out_features=40, bias=True)
      (1): ReLU()
      (2): Linear(in_features=40, out_features=60, bias=True)
      (3): ReLU()
      (4): Linear(in_features=60, out_features=80, bias=True)
    )
    (sex_classifier): FullyConnSexClassifier(
      (fc1): Linear(in_features=40, out_features=20, bias=True)
      (fc2): Linear(in_features=20, out_features=2, bias=True)
    )
  )
) loading from model_checkpoints/asr_model.ckpt, the object could not use the parameters loaded with the key: 0.convblock_0.convs.norm_0.norm.bias
2022-03-31 04:23:11,293 - speechbrain.utils.checkpoints - WARNING - During parameter transfer to ModuleList(
  (0): FullyConnectedAutoencoder(
    (encoder): Sequential(
      (0): Linear(in_features=80, out_features=60, bias=True)
      (1): ReLU()
      (2): Linear(in_features=60, out_features=40, bias=True)
      (3): ReLU()
      (4): Linear(in_features=40, out_features=20, bias=True)
    )
    (decoder): Sequential(
      (0): Linear(in_features=20, out_features=40, bias=True)
      (1): ReLU()
      (2): Linear(in_features=40, out_features=60, bias=True)
      (3): ReLU()
      (4): Linear(in_features=60, out_features=80, bias=True)
    )
    (sex_classifier): FullyConnSexClassifier(
      (fc1): Linear(in_features=40, out_features=20, bias=True)
      (fc2): Linear(in_features=20, out_features=2, bias=True)
    )
  )
) loading from model_checkpoints/asr_model.ckpt, the object could not use the parameters loaded with the key: 0.convblock_1.convs.conv_0.conv.weight
2022-03-31 04:23:11,294 - speechbrain.utils.checkpoints - WARNING - During parameter transfer to ModuleList(
  (0): FullyConnectedAutoencoder(
    (encoder): Sequential(
      (0): Linear(in_features=80, out_features=60, bias=True)
      (1): ReLU()
      (2): Linear(in_features=60, out_features=40, bias=True)
      (3): ReLU()
      (4): Linear(in_features=40, out_features=20, bias=True)
    )
    (decoder): Sequential(
      (0): Linear(in_features=20, out_features=40, bias=True)
      (1): ReLU()
      (2): Linear(in_features=40, out_features=60, bias=True)
      (3): ReLU()
      (4): Linear(in_features=60, out_features=80, bias=True)
    )
    (sex_classifier): FullyConnSexClassifier(
      (fc1): Linear(in_features=40, out_features=20, bias=True)
      (fc2): Linear(in_features=20, out_features=2, bias=True)
    )
  )
) loading from model_checkpoints/asr_model.ckpt, the object could not use the parameters loaded with the key: 0.convblock_1.convs.conv_0.conv.bias
2022-03-31 04:23:11,294 - speechbrain.utils.checkpoints - WARNING - During parameter transfer to ModuleList(
  (0): FullyConnectedAutoencoder(
    (encoder): Sequential(
      (0): Linear(in_features=80, out_features=60, bias=True)
      (1): ReLU()
      (2): Linear(in_features=60, out_features=40, bias=True)
      (3): ReLU()
      (4): Linear(in_features=40, out_features=20, bias=True)
    )
    (decoder): Sequential(
      (0): Linear(in_features=20, out_features=40, bias=True)
      (1): ReLU()
      (2): Linear(in_features=40, out_features=60, bias=True)
      (3): ReLU()
      (4): Linear(in_features=60, out_features=80, bias=True)
    )
    (sex_classifier): FullyConnSexClassifier(
      (fc1): Linear(in_features=40, out_features=20, bias=True)
      (fc2): Linear(in_features=20, out_features=2, bias=True)
    )
  )
) loading from model_checkpoints/asr_model.ckpt, the object could not use the parameters loaded with the key: 0.convblock_1.convs.norm_0.norm.weight
2022-03-31 04:23:11,294 - speechbrain.utils.checkpoints - WARNING - During parameter transfer to ModuleList(
  (0): FullyConnectedAutoencoder(
    (encoder): Sequential(
      (0): Linear(in_features=80, out_features=60, bias=True)
      (1): ReLU()
      (2): Linear(in_features=60, out_features=40, bias=True)
      (3): ReLU()
      (4): Linear(in_features=40, out_features=20, bias=True)
    )
    (decoder): Sequential(
      (0): Linear(in_features=20, out_features=40, bias=True)
      (1): ReLU()
      (2): Linear(in_features=40, out_features=60, bias=True)
      (3): ReLU()
      (4): Linear(in_features=60, out_features=80, bias=True)
    )
    (sex_classifier): FullyConnSexClassifier(
      (fc1): Linear(in_features=40, out_features=20, bias=True)
      (fc2): Linear(in_features=20, out_features=2, bias=True)
    )
  )
) loading from model_checkpoints/asr_model.ckpt, the object could not use the parameters loaded with the key: 0.convblock_1.convs.norm_0.norm.bias
2022-03-31 04:23:11,294 - speechbrain.utils.checkpoints - WARNING - During parameter transfer to ModuleList(
  (0): FullyConnectedAutoencoder(
    (encoder): Sequential(
      (0): Linear(in_features=80, out_features=60, bias=True)
      (1): ReLU()
      (2): Linear(in_features=60, out_features=40, bias=True)
      (3): ReLU()
      (4): Linear(in_features=40, out_features=20, bias=True)
    )
    (decoder): Sequential(
      (0): Linear(in_features=20, out_features=40, bias=True)
      (1): ReLU()
      (2): Linear(in_features=40, out_features=60, bias=True)
      (3): ReLU()
      (4): Linear(in_features=60, out_features=80, bias=True)
    )
    (sex_classifier): FullyConnSexClassifier(
      (fc1): Linear(in_features=40, out_features=20, bias=True)
      (fc2): Linear(in_features=20, out_features=2, bias=True)
    )
  )
) loading from model_checkpoints/asr_model.ckpt, the object could not use the parameters loaded with the key: 0.convblock_2.convs.conv_0.conv.weight
2022-03-31 04:23:11,294 - speechbrain.utils.checkpoints - WARNING - During parameter transfer to ModuleList(
  (0): FullyConnectedAutoencoder(
    (encoder): Sequential(
      (0): Linear(in_features=80, out_features=60, bias=True)
      (1): ReLU()
      (2): Linear(in_features=60, out_features=40, bias=True)
      (3): ReLU()
      (4): Linear(in_features=40, out_features=20, bias=True)
    )
    (decoder): Sequential(
      (0): Linear(in_features=20, out_features=40, bias=True)
      (1): ReLU()
      (2): Linear(in_features=40, out_features=60, bias=True)
      (3): ReLU()
      (4): Linear(in_features=60, out_features=80, bias=True)
    )
    (sex_classifier): FullyConnSexClassifier(
      (fc1): Linear(in_features=40, out_features=20, bias=True)
      (fc2): Linear(in_features=20, out_features=2, bias=True)
    )
  )
) loading from model_checkpoints/asr_model.ckpt, the object could not use the parameters loaded with the key: 0.convblock_2.convs.conv_0.conv.bias
2022-03-31 04:23:11,294 - speechbrain.utils.checkpoints - WARNING - During parameter transfer to ModuleList(
  (0): FullyConnectedAutoencoder(
    (encoder): Sequential(
      (0): Linear(in_features=80, out_features=60, bias=True)
      (1): ReLU()
      (2): Linear(in_features=60, out_features=40, bias=True)
      (3): ReLU()
      (4): Linear(in_features=40, out_features=20, bias=True)
    )
    (decoder): Sequential(
      (0): Linear(in_features=20, out_features=40, bias=True)
      (1): ReLU()
      (2): Linear(in_features=40, out_features=60, bias=True)
      (3): ReLU()
      (4): Linear(in_features=60, out_features=80, bias=True)
    )
    (sex_classifier): FullyConnSexClassifier(
      (fc1): Linear(in_features=40, out_features=20, bias=True)
      (fc2): Linear(in_features=20, out_features=2, bias=True)
    )
  )
) loading from model_checkpoints/asr_model.ckpt, the object could not use the parameters loaded with the key: 0.convblock_2.convs.norm_0.norm.weight
2022-03-31 04:23:11,294 - speechbrain.utils.checkpoints - WARNING - During parameter transfer to ModuleList(
  (0): FullyConnectedAutoencoder(
    (encoder): Sequential(
      (0): Linear(in_features=80, out_features=60, bias=True)
      (1): ReLU()
      (2): Linear(in_features=60, out_features=40, bias=True)
      (3): ReLU()
      (4): Linear(in_features=40, out_features=20, bias=True)
    )
    (decoder): Sequential(
      (0): Linear(in_features=20, out_features=40, bias=True)
      (1): ReLU()
      (2): Linear(in_features=40, out_features=60, bias=True)
      (3): ReLU()
      (4): Linear(in_features=60, out_features=80, bias=True)
    )
    (sex_classifier): FullyConnSexClassifier(
      (fc1): Linear(in_features=40, out_features=20, bias=True)
      (fc2): Linear(in_features=20, out_features=2, bias=True)
    )
  )
) loading from model_checkpoints/asr_model.ckpt, the object could not use the parameters loaded with the key: 0.convblock_2.convs.norm_0.norm.bias
2022-03-31 04:23:11,295 - speechbrain.utils.checkpoints - WARNING - During parameter transfer to ModuleList(
  (0): FullyConnectedAutoencoder(
    (encoder): Sequential(
      (0): Linear(in_features=80, out_features=60, bias=True)
      (1): ReLU()
      (2): Linear(in_features=60, out_features=40, bias=True)
      (3): ReLU()
      (4): Linear(in_features=40, out_features=20, bias=True)
    )
    (decoder): Sequential(
      (0): Linear(in_features=20, out_features=40, bias=True)
      (1): ReLU()
      (2): Linear(in_features=40, out_features=60, bias=True)
      (3): ReLU()
      (4): Linear(in_features=60, out_features=80, bias=True)
    )
    (sex_classifier): FullyConnSexClassifier(
      (fc1): Linear(in_features=40, out_features=20, bias=True)
      (fc2): Linear(in_features=20, out_features=2, bias=True)
    )
  )
) loading from model_checkpoints/asr_model.ckpt, the object could not use the parameters loaded with the key: 0.convblock_2.reduce_conv.conv.conv.weight
2022-03-31 04:23:11,295 - speechbrain.utils.checkpoints - WARNING - During parameter transfer to ModuleList(
  (0): FullyConnectedAutoencoder(
    (encoder): Sequential(
      (0): Linear(in_features=80, out_features=60, bias=True)
      (1): ReLU()
      (2): Linear(in_features=60, out_features=40, bias=True)
      (3): ReLU()
      (4): Linear(in_features=40, out_features=20, bias=True)
    )
    (decoder): Sequential(
      (0): Linear(in_features=20, out_features=40, bias=True)
      (1): ReLU()
      (2): Linear(in_features=40, out_features=60, bias=True)
      (3): ReLU()
      (4): Linear(in_features=60, out_features=80, bias=True)
    )
    (sex_classifier): FullyConnSexClassifier(
      (fc1): Linear(in_features=40, out_features=20, bias=True)
      (fc2): Linear(in_features=20, out_features=2, bias=True)
    )
  )
) loading from model_checkpoints/asr_model.ckpt, the object could not use the parameters loaded with the key: 0.convblock_2.reduce_conv.conv.conv.bias
2022-03-31 04:23:11,295 - speechbrain.utils.checkpoints - WARNING - During parameter transfer to ModuleList(
  (0): FullyConnectedAutoencoder(
    (encoder): Sequential(
      (0): Linear(in_features=80, out_features=60, bias=True)
      (1): ReLU()
      (2): Linear(in_features=60, out_features=40, bias=True)
      (3): ReLU()
      (4): Linear(in_features=40, out_features=20, bias=True)
    )
    (decoder): Sequential(
      (0): Linear(in_features=20, out_features=40, bias=True)
      (1): ReLU()
      (2): Linear(in_features=40, out_features=60, bias=True)
      (3): ReLU()
      (4): Linear(in_features=60, out_features=80, bias=True)
    )
    (sex_classifier): FullyConnSexClassifier(
      (fc1): Linear(in_features=40, out_features=20, bias=True)
      (fc2): Linear(in_features=20, out_features=2, bias=True)
    )
  )
) loading from model_checkpoints/asr_model.ckpt, the object could not use the parameters loaded with the key: 0.convblock_2.reduce_conv.norm.norm.weight
2022-03-31 04:23:11,295 - speechbrain.utils.checkpoints - WARNING - During parameter transfer to ModuleList(
  (0): FullyConnectedAutoencoder(
    (encoder): Sequential(
      (0): Linear(in_features=80, out_features=60, bias=True)
      (1): ReLU()
      (2): Linear(in_features=60, out_features=40, bias=True)
      (3): ReLU()
      (4): Linear(in_features=40, out_features=20, bias=True)
    )
    (decoder): Sequential(
      (0): Linear(in_features=20, out_features=40, bias=True)
      (1): ReLU()
      (2): Linear(in_features=40, out_features=60, bias=True)
      (3): ReLU()
      (4): Linear(in_features=60, out_features=80, bias=True)
    )
    (sex_classifier): FullyConnSexClassifier(
      (fc1): Linear(in_features=40, out_features=20, bias=True)
      (fc2): Linear(in_features=20, out_features=2, bias=True)
    )
  )
) loading from model_checkpoints/asr_model.ckpt, the object could not use the parameters loaded with the key: 0.convblock_2.reduce_conv.norm.norm.bias
2022-03-31 04:23:11,308 - speechbrain.core - ERROR - Exception:
Traceback (most recent call last):
  File "/home/ec2-user/capstone/speech-anonymization/speechbrain_convae_train.py", line 489, in <module>
…
